…
  top: "label"
  include {
    phase: TRAIN
  }
  transform_param {
    mirror: true
    crop_size: 137
    mean_value: 104.008
    mean_value: 116.669
    mean_value: 122.675
    scale_factors: 0.5
    scale_factors: 0.75
    scale_factors: 1
    scale_factors: 1.25
    scale_factors: 1.5
    scale_factors: 1.75
    scale_factors: 2
  }
  image_data_param {
    source: "/home/adminpxz/PSPNet/PSPNet/splits/pascal_voc_train_aug.txt"
    batch_size: 1
    shuffle: true
    root_folder: "/home/adminpxz/VOCdevkit/VOC2012"
    label_type: PIXEL
  }
}
layer {
  name: "conv1_1_3x3_s2"
  type: "Convolution"
  bottom: "data"
  top: "conv1_1_3x3_s2"
  param {
    lr_mult: 1
    decay_mult: 1
  }
  convolution_param {
    num_output: 64
    bias_term: false
    pad: 1
    kernel_size: 3
    stride: 2
    weight_filler {
      type: "msra"
    }
  }
}
layer {
  name: "conv1_1_3x3_s2/bn"
  type: "BN"
  bottom: "conv1_1_3x3_s2"
  top: "conv1_1_3x3_s2"
  param {
    lr_mult: 1
    decay_mult: 0
  }
  param {
    lr_mult: 1
    decay_mult: 0
  }
  param {
    lr_mult: 0
    decay_mult: 0
  }
  param {
    lr_mult: 0
    decay_mult: 0
  }
  bn_param {
    slope_filler {
      type: "constant"
      value: 1
    }
    bias_filler {
      type: "constant"
      value: 0
    }
    momentum: 0.95
    frozen: true
  }
}
layer {
  name: "conv1_1_3x3_s2/relu"
  type: "ReLU"
  bottom: "conv1_1_3x3_s2"
  top: "conv1_1_3x3_s2"
}
layer {
  name: "conv1_2_3x3"
  type: "Convolution"
  bottom: "conv1_1_3x3_s2"
  top: "conv1_2_3x3"
  param {
    lr_mult: 1
    decay_mult: 1
  }
  convolution_param {
    num_output: 64
    bias_term: false
    pad: 1
    kernel_size: 3
    stride: 1
    weight_filler {
      type: "msra"
    }
  }
}
layer {
  name: "conv1_2_3x3/bn"
  type: "BN"
  bottom: "conv1_2_3x3"
  top: "conv1_2_3x3"
  param {
    lr_mult: 1
    decay_mult: 0
  }
  param {
    lr_mult: 1
    decay_mult: 0
  }
  param {
    lr_mult: 0
    decay_mult: 0
  }
  param {
    lr_mult: 0
    decay_mult: 0
  }
  bn_param {
    slope_filler {
      type: "constant"
      value: 1
    }
    bias_filler {
      type: "constant"
      value: 0
    }
    momentum: 0.95
    frozen: true
  }
}
layer {
  name: "conv1_2_3x3/relu"
  type: "ReLU"
  bottom: "conv1_2_3x3"
  top: "conv1_2_3x3"
}
layer {
  name: "conv1_3_3x3"
  type: "Convolution"
  bottom: "conv1_2_3x3"
  top: "conv1_3_3x3"
  param {
    lr_mult: 1
    decay_mult: 1
  }
  convolution_param {
    num_output: 128
    bias_term: false
    pad: 1
    kernel_size: 3
    stride: 1
    weight_filler {
      type: "msra"
    }
  }
}
layer {
  name: "conv1_3_3x3/bn"
  type: "BN"
  bottom: "conv1_3_3x3"
  top: "conv1_3_3x3"
  param {
    lr_mult: 1
    decay_mult: 0
  }
  param {
    lr_mult: 1
    decay_mult: 0
  }
  param {
    lr_mult: 0
    decay_mult: 0
  }
  param {
    lr_mult: 0
    decay_mult: 0
  }
  bn_param {
    slope_filler {
      type: "constant"
      value: 1
    }
    bias_filler {
      type: "constant"
      value: 0
    }
    momentum: 0.95
    frozen: true
  }
}
layer {
  name: "conv1_3_3x3/relu"
  type: "ReLU"
  bottom: "conv1_3_3x3"
  top: "conv1_3_3x3"
}
layer {
  name: "pool1_3x3_s2"
  type: "Pooling"
  bottom: "conv1_3_3x3"
  top: "pool1_3x3_s2"
  pooling_param {
    pool: MAX
    kernel_size: 3
    stride: 2
    pad: 1
  }
}
layer {
  name: "conv2_1_1x1_reduce"
  type: "Convolution"
  bottom: "pool1_3x3_s2"
  top: "conv2_1_1x1_reduce"
  param {
    lr_mult: 1
    decay_mult: 1
  }
  convolution_param {
    num_output: 64
    bias_term: false
    pad: 0
    kernel_size: 1
    stride: 1
    weight_filler {
      type: "msra"
    }
  }
}
layer {
  name: "conv2_1_1x1_reduce/bn"
  type: "BN"
  bottom: "conv2_1_1x1_reduce"
  top: "conv2_1_1x1_reduce"
  param {
    lr_mult: 1
    decay_mult: 0
  }
  param {
    lr_mult: 1
    decay_mult: 0
  }
  param {
    lr_mult: 0
    decay_mult: 0
  }
  param {
    lr_mult: 0
    decay_mult: 0
  }
  bn_param {
    slope_filler {
      type: "constant"
      value: 1
    }
    bias_filler {
      type: "constant"
      value: 0
    }
    momentum: 0.95
    frozen: true
  }
}
layer {
  name: "conv2_1_1x1_reduce/relu"
  type: "ReLU"
  bottom: "conv2_1_1x1_reduce"
  top: "conv2_1_1x1_reduce"
}
layer {
  name: "conv2_1_3x3"
  type: "Convolution"
  bottom: "conv2_1_1x1_reduce"
  top: "conv2_1_3x3"
  param {
    lr_mult: 1
    decay_mult: 1
  }
  convolution_param {
    num_output: 64
    bias_term: false
    pad: 1
    kernel_size: 3
    stride: 1
    weight_filler {
      type: "msra"
    }
  }
}
layer {
  name: "conv2_1_3x3/bn"
  type: "BN"
  bottom: "conv2_1_3x3"
  top: "conv2_1_3x3"
  param {
    lr_mult: 1
    decay_mult: 0
  }
  param {
    lr_mult: 1
    decay_mult: 0
  }
  param {
    lr_mult: 0
    decay_mult: 0
  }
  param {
    lr_mult: 0
    decay_mult: 0
  }
  bn_param {
    slope_filler {
      type: "constant"
      value: 1
    }
    bias_filler {
      type: "constant"
      value: 0
    }
    momentum: 0.95
    frozen: true
  }
}
layer {
  name: "conv2_1_3x3/relu"
  type: "ReLU"
  bottom: "conv2_1_3x3"
  top: "conv2_1_3x3"
}
layer {
  name: "conv2_1_1x1_increase"
  type: "Convolution"
  bottom: "conv2_1_3x3"
  top: "conv2_1_1x1_increase"
  param {
    lr_mult: 1
    decay_mult: 1
  }
  convolution_param {
    num_output: 256
    bias_term: false
    pad: 0
    kernel_size: 1
    stride: 1
    weight_filler {
      type: "msra"
    }
  }
}
layer {
  name: "conv2_1_1x1_increase/bn"
  type: "BN"
  bottom: "conv2_1_1x1_increase"
  top: "conv2_1_1x1_increase"
  param {
    lr_mult: 1
    decay_mult: 0
  }
  param {
    lr_mult: 1
    decay_mult: 0
  }
  param {
    lr_mult: 0
    decay_mult: 0
  }
  param {
    lr_mult: 0
    decay_mult: 0
  }
  bn_param {
    slope_filler {
      type: "constant"
      value: 1
    }
    bias_filler {
      type: "constant"
      value: 0
    }
    momentum: 0.95
    frozen: true
  }
}
layer {
  name: "conv2_1_1x1_proj"
  type: "Convolution"
  bottom: "pool1_3x3_s2"
  top: "conv2_1_1x1_proj"
  param {
    lr_mult: 1
    decay_mult: 1
  }
  convolution_param {
    num_output: 256
    bias_term: false
    pad: 0
    kernel_size: 1
    stride: 1
    weight_filler {
      type: "msra"
    }
  }
}
layer {
  name: "conv2_1_1x1_proj/bn"
  type: "BN"
  bottom: "conv2_1_1x1_proj"
  top: "conv2_1_1x1_proj"
  param {
    lr_mult: 1
    decay_mult: 0
  }
  param {
    lr_mult: 1
    decay_mult: 0
  }
  param {
    lr_mult: 0
    decay_mult: 0
  }
  param {
    lr_mult: 0
    decay_mult: 0
  }
  bn_param {
    slope_filler {
      type: "constant"
      value: 1
    }
    bias_filler {
      type: "constant"
      value: 0
    }
    momentum: 0.95
    frozen: true
  }
}
layer {
  name: "conv2_1"
  type: "Eltwise"
  bottom: "conv2_1_1x1_proj"
  bottom: "conv2_1_1x1_increase"
  top: "conv2_1"
  eltwise_param {
    operation: SUM
  }
}
layer {
  name: "conv2_1/relu"
  type: "ReLU"
  bottom: "conv2_1"
  top: "conv2_1"
}
layer {
  name: "conv2_2_1x1_reduce"
  type: "Convolution"
  bottom: "conv2_1"
  top: "conv2_2_1x1_reduce"
  param {
    lr_mult: 1
    decay_mult: 1
  }
  convolution_param {
    num_output: 64
    bias_term: false
    pad: 0
    kernel_size: 1
    stride: 1
    weight_filler {
      type: "msra"
    }
  }
}
layer {
  name: "conv2_2_1x1_reduce/bn"
  type: "BN"
  bottom: "conv2_2_1x1_reduce"
  top: "conv2_2_1x1_reduce"
  param {
    lr_mult: 1
    decay_mult: 0
  }
  param {
    lr_mult: 1
    decay_mult: 0
  }
  param {
    lr_mult: 0
    decay_mult: 0
  }
  param {
    lr_mult: 0
    decay_mult: 0
  }
  bn_param {
    slope_filler {
      type: "constant"
      value: 1
    }
    bias_filler {
      type: "constant"
      value: 0
    }
    momentum: 0.95
    frozen: true
  }
}
layer {
  name: "conv2_2_1x1_reduce/relu"
  type: "ReLU"
  bottom: "conv2_2_1x1_reduce"
  top: "conv2_2_1x1_reduce"
}
layer {
  name: "conv2_2_3x3"
  type: "Convolution"
  bottom: "conv2_2_1x1_reduce"
  top: "conv2_2_3x3"
  param {
    lr_mult: 1
    decay_mult: 1
  }
  convolution_param {
    num_output: 64
    bias_term: false
    pad: 1
    kernel_size: 3
    stride: 1
    weight_filler {
      type: "msra"
    }
  }
}
layer {
  name: "conv2_2_3x3/bn"
  type: "BN"
  bottom: "conv2_2_3x3"
  top: "conv2_2_3x3"
  param {
    lr_mult: 1
    decay_mult: 0
  }
  param {
    lr_mult: 1
    decay_mult: 0
  }
  param {
    lr_mult: 0
    decay_mult: 0
  }
  param {
    lr_mult: 0
    decay_mult: 0
  }
  bn_param {
    slope_filler {
      type: "constant"
      value: 1
    }
    bias_filler {
      type: "constant"
      value: 0
    }
    momentum: 0.95
    frozen: true
  }
}
layer {
  name: "conv2_2_3x3/relu"
  type: "ReLU"
  bottom: "conv2_2_3x3"
  top: "conv2_2_3x3"
}
layer {
  name: "conv2_2_1x1_increase"
  type: "Convolution"
  bottom: "conv2_2_3x3"
  top: "conv2_2_1x1_increase"
  param {
    lr_mult: 1
    decay_mult: 1
  }
  convolution_param {
    num_output: 256
    bias_term: false
    pad: 0
    kernel_size: 1
    stride: 1
    weight_filler {
      type: "msra"
    }
  }
}
layer {
  name: "conv2_2_1x1_increase/bn"
  type: "BN"
  bottom: "conv2_2_1x1_increase"
  top: "conv2_2_1x1_increase"
  param {
    lr_mult: 1
    decay_mult: 0
  }
  param {
    lr_mult: 1
    decay_mult: 0
  }
  param {
    lr_mult: 0
    decay_mult: 0
  }
  param {
    lr_mult: 0
    decay_mult: 0
  }
  bn_param {
    slope_filler {
      type: "constant"
      value: 1
    }
    bias_filler {
      type: "constant"
      value: 0
    }
    momentum: 0.95
    frozen: true
  }
}
layer {
  name: "conv2_2"
  type: "Eltwise"
  bottom: "conv2_1"
  bottom: "conv2_2_1x1_increase"
  top: "conv2_2"
  eltwise_param {
    operation: SUM
  }
}
layer {
  name: "conv2_2/relu"
  type: "ReLU"
  bottom: "conv2_2"
  top: "conv2_2"
}
layer {
  name: "conv2_3_1x1_reduce"
  type: "Convolution"
  bottom: "conv2_2"
  top: "conv2_3_1x1_reduce"
  param {
    lr_mult: 1
    decay_mult: 1
  }
  convolution_param {
    num_output: 64
    bias_term: false
    pad: 0
    kernel_size: 1
    stride: 1
    weight_filler {
      type: "msra"
    }
  }
}
layer {
  name: "conv2_3_1x1_reduce/bn"
  type: "BN"
  bottom: "conv2_3_1x1_reduce"
  top: "conv2_3_1x1_reduce"
  param {
    lr_mult: 1
    decay_mult: 0
  }
  param {
    lr_mult: 1
    decay_mult: 0
  }
  param {
    lr_mult: 0
    decay_mult: 0
  }
  param {
    lr_mult: 0
    decay_mult: 0
  }
  bn_param {
    slope_filler {
      type: "constant"
      value: 1
    }
    bias_filler {
      type: "constant"
      value: 0
    }
    momentum: 0.95
    frozen: true
  }
}
layer {
  name: "conv2_3_1x1_reduce/relu"
  type: "ReLU"
  bottom: "conv2_3_1x1_reduce"
  top: "conv2_3_1x1_reduce"
}
layer {
  name: "conv2_3_3x3"
  type: "Convolution"
  bottom: "conv2_3_1x1_reduce"
  top: "conv2_3_3x3"
  param {
    lr_mult: 1
    decay_mult: 1
  }
  convolution_param {
    num_output: 64
    bias_term: false
    pad: 1
    kernel_size: 3
    stride: 1
    weight_filler {
      type: "msra"
    }
  }
}
layer {
  name: "conv2_3_3x3/bn"
  type: "BN"
  bottom: "conv2_3_3x3"
  top: "conv2_3_3x3"
  param {
    lr_mult: 1
    decay_mult: 0
  }
  param {
    lr_mult: 1
    decay_mult: 0
  }
  param {
    lr_mult: 0
    decay_mult: 0
  }
  param {
    lr_mult: 0
    decay_mult: 0
  }
  bn_param {
    slope_filler {
      type: "constant"
      value: 1
    }
    bias_filler {
      type: "constant"
      value: 0
    }
    momentum: 0.95
    frozen: true
  }
}
layer {
  name: "conv2_3_3x3/relu"
  type: "ReLU"
  bottom: "conv2_3_3x3"
  top: "conv2_3_3x3"
}
layer {
  name: "conv2_3_1x1_increase"
  type: "Convolution"
  bottom: "conv2_3_3x3"
  top: "conv2_3_1x1_increase"
  param {
    lr_mult: 1
    decay_mult: 1
  }
  convolution_param {
    num_output: 256
    bias_term: false
    pad: 0
    kernel_size: 1
    stride: 1
    weight_filler {
      type: "msra"
    }
  }
}
layer {
  name: "conv2_3_1x1_increase/bn"
  type: "BN"
  bottom: "conv2_3_1x1_increase"
  top: "conv2_3_1x1_increase"
  param {
    lr_mult: 1
    decay_mult: 0
  }
  param {
    lr_mult: 1
    decay_mult: 0
  }
  param {
    lr_mult: 0
    decay_mult: 0
  }
  param {
    lr_mult: 0
    decay_mult: 0
  }
  bn_param {
    slope_filler {
      type: "constant"
      value: 1
    }
    bias_filler {
      type: "constant"
      value: 0
    }
    momentum: 0.95
    frozen: true
  }
}
layer {
  name: "conv2_3"
  type: "Eltwise"
  bottom: "conv2_2"
  bottom: "conv2_3_1x1_increase"
  top: "conv2_3"
  eltwise_param {
    operation: SUM
  }
}
layer {
  name: "conv2_3/relu"
  type: "ReLU"
  bottom: "conv2_3"
  top: "conv2_3"
}
layer {
  name: "conv3_1_1x1_reduce"
  type: "Convolution"
  bottom: "conv2_3"
  top: "conv3_1_1x1_reduce"
  param {
    lr_mult: 1
    decay_mult: 1
  }
  convolution_param {
    num_output: 128
    bias_term: false
    pad: 0
    kernel_size: 1
    stride: 1
    weight_filler {
      type: "msra"
    }
  }
}
layer {
  name: "conv3_1_1x1_reduce/bn"
  type: "BN"
  bottom: "conv3_1_1x1_reduce"
  top: "conv3_1_1x1_reduce"
  param {
    lr_mult: 1
    decay_mult: 0
  }
  param {
    lr_mult: 1
    decay_mult: 0
  }
  param {
    lr_mult: 0
    decay_mult: 0
  }
  param {
    lr_mult: 0
    decay_mult: 0
  }
  bn_param {
    slope_filler {
      type: "constant"
      value: 1
    }
    bias_filler {
      type: "constant"
      value: 0
    }
    momentum: 0.95
    frozen: true
  }
}
layer {
  name: "conv3_1_1x1_reduce/relu"
  type: "ReLU"
  bottom: "conv3_1_1x1_reduce"
  top: "conv3_1_1x1_reduce"
}
layer {
  name: "conv3_1_3x3"
  type: "Convolution"
  bottom: "conv3_1_1x1_reduce"
  top: "conv3_1_3x3"
  param {
    lr_mult: 1
    decay_mult: 1
  }
  convolution_param {
    num_output: 128
    bias_term: false
    pad: 1
    kernel_size: 3
    stride: 2
    weight_filler {
      type: "msra"
    }
  }
}
layer {
  name: "conv3_1_3x3/bn"
  type: "BN"
  bottom: "conv3_1_3x3"
  top: "conv3_1_3x3"
  param {
    lr_mult: 1
    decay_mult: 0
  }
  param {
    lr_mult: 1
    decay_mult: 0
  }
  param {
    lr_mult: 0
    decay_mult: 0
  }
  param {
    lr_mult: 0
    decay_mult: 0
  }
  bn_param {
    slope_filler {
      type: "constant"
      value: 1
    }
    bias_filler {
      type: "constant"
      value: 0
    }
    momentum: 0.95
    frozen: true
  }
}
layer {
  name: "conv3_1_3x3/relu"
  type: "ReLU"
  bottom: "conv3_1_3x3"
  top: "conv3_1_3x3"
}
layer {
  name: "conv3_1_1x1_increase"
  type: "Convolution"
  bottom: "conv3_1_3x3"
  top: "conv3_1_1x1_increase"
  param {
    lr_mult: 1
    decay_mult: 1
  }
  convolution_param {
    num_output: 512
    bias_term: false
    pad: 0
    kernel_size: 1
    stride: 1
    weight_filler {
      type: "msra"
    }
  }
}
layer {
  name: "conv3_1_1x1_increase/bn"
  type: "BN"
  bottom: "conv3_1_1x1_increase"
  top: "conv3_1_1x1_increase"
  param {
    lr_mult: 1
    decay_mult: 0
  }
  param {
    lr_mult: 1
    decay_mult: 0
  }
  param {
    lr_mult: 0
    decay_mult: 0
  }
  param {
    lr_mult: 0
    decay_mult: 0
  }
  bn_param {
    slope_filler {
      type: "constant"
      value: 1
    }
    bias_filler {
      type: "constant"
      value: 0
    }
    momentum: 0.95
    frozen: true
  }
}
layer {
  name: "conv3_1_1x1_proj"
  type: "Convolution"
  bottom: "conv2_3"
  top: "conv3_1_1x1_proj"
  param {
    lr_mult: 1
    decay_mult: 1
  }
  convolution_param {
    num_output: 512
    bias_term: false
    pad: 0
    kernel_size: 1
    stride: 2
    weight_filler {
      type: "msra"
    }
  }
}
layer {
  name: "conv3_1_1x1_proj/bn"
  type: "BN"
  bottom: "conv3_1_1x1_proj"
  top: "conv3_1_1x1_proj"
  param {
    lr_mult: 1
    decay_mult: 0
  }
  param {
    lr_mult: 1
    decay_mult: 0
  }
  param {
    lr_mult: 0
    decay_mult: 0
  }
  param {
    lr_mult: 0
    decay_mult: 0
  }
  bn_param {
    slope_filler {
      type: "constant"
      value: 1
    }
    bias_filler {
      type: "constant"
      value: 0
    }
    momentum: 0.95
    frozen: true
  }
}
layer {
  name: "conv3_1"
  type: "Eltwise"
  bottom: "conv3_1_1x1_proj"
  bottom: "conv3_1_1x1_increase"
  top: "conv3_1"
  eltwise_param {
    operation: SUM
  }
}
layer {
  name: "conv3_1/relu"
  type: "ReLU"
  bottom: "conv3_1"
  top: "conv3_1"
}
layer {
  name: "conv3_2_1x1_reduce"
  type: "Convolution"
  bottom: "conv3_1"
  top: "conv3_2_1x1_reduce"
  param {
    lr_mult: 1
    decay_mult: 1
  }
  convolution_param {
    num_output: 128
    bias_term: false
    pad: 0
    kernel_size: 1
    stride: 1
    weight_filler {
      type: "msra"
    }
  }
}
layer {
  name: "conv3_2_1x1_reduce/bn"
  type: "BN"
  bottom: "conv3_2_1x1_reduce"
  top: "conv3_2_1x1_reduce"
  param {
    lr_mult: 1
    decay_mult: 0
  }
  param {
    lr_mult: 1
    decay_mult: 0
  }
  param {
    lr_mult: 0
    decay_mult: 0
  }
  param {
    lr_mult: 0
    decay_mult: 0
  }
  bn_param {
    slope_filler {
      type: "constant"
      value: 1
    }
    bias_filler {
      type: "constant"
      value: 0
    }
    momentum: 0.95
    frozen: true
  }
}
layer {
  name: "conv3_2_1x1_reduce/relu"
  type: "ReLU"
  bottom: "conv3_2_1x1_reduce"
  top: "conv3_2_1x1_reduce"
}
layer {
  name: "conv3_2_3x3"
  type: "Convolution"
  bottom: "conv3_2_1x1_reduce"
  top: "conv3_2_3x3"
  param {
    lr_mult: 1
    decay_mult: 1
  }
  convolution_param {
    num_output: 128
    bias_term: false
    pad: 1
    kernel_size: 3
    stride: 1
    weight_filler {
      type: "msra"
    }
  }
}
layer {
  name: "conv3_2_3x3/bn"
  type: "BN"
  bottom: "conv3_2_3x3"
  top: "conv3_2_3x3"
  param {
    lr_mult: 1
    decay_mult: 0
  }
  param {
    lr_mult: 1
    decay_mult: 0
  }
  param {
    lr_mult: 0
    decay_mult: 0
  }
  param {
    lr_mult: 0
    decay_mult: 0
  }
  bn_param {
    slope_filler {
      type: "constant"
      value: 1
    }
    bias_filler {
      type: "constant"
      value: 0
    }
    momentum: 0.95
    frozen: true
  }
}
layer {
  name: "conv3_2_3x3/relu"
  type: "ReLU"
  bottom: "conv3_2_3x3"
  top: "conv3_2_3x3"
}
layer {
  name: "conv3_2_1x1_increase"
  type: "Convolution"
  bottom: "conv3_2_3x3"
  top: "conv3_2_1x1_increase"
  param {
    lr_mult: 1
    decay_mult: 1
  }
  convolution_param {
    num_output: 512
    bias_term: false
    pad: 0
    kernel_size: 1
    stride: 1
    weight_filler {
      type: "msra"
    }
  }
}
layer {
  name: "conv3_2_1x1_increase/bn"
  type: "BN"
  bottom: "conv3_2_1x1_increase"
  top: "conv3_2_1x1_increase"
  param {
    lr_mult: 1
    decay_mult: 0
  }
  param {
    lr_mult: 1
    decay_mult: 0
  }
  param {
    lr_mult: 0
    decay_mult: 0
  }
  param {
    lr_mult: 0
    decay_mult: 0
  }
  bn_param {
    slope_filler {
      type: "constant"
      value: 1
    }
    bias_filler {
      type: "constant"
      value: 0
    }
    momentum: 0.95
    frozen: true
  }
}
layer {
  name: "conv3_2"
  type: "Eltwise"
  bottom: "conv3_1"
  bottom: "conv3_2_1x1_increase"
  top: "conv3_2"
  eltwise_param {
    operation: SUM
  }
}
layer {
  name: "conv3_2/relu"
  type: "ReLU"
  bottom: "conv3_2"
  top: "conv3_2"
}
layer {
  name: "conv3_3_1x1_reduce"
  type: "Convolution"
  bottom: "conv3_2"
  top: "conv3_3_1x1_reduce"
  param {
    lr_mult: 1
    decay_mult: 1
  }
  convolution_param {
    num_output: 128
    bias_term: false
    pad: 0
    kernel_size: 1
    stride: 1
    weight_filler {
      type: "msra"
    }
  }
}
layer {
  name: "conv3_3_1x1_reduce/bn"
  type: "BN"
  bottom: "conv3_3_1x1_reduce"
  top: "conv3_3_1x1_reduce"
  param {
    lr_mult: 1
    decay_mult: 0
  }
  param {
    lr_mult: 1
    decay_mult: 0
  }
  param {
    lr_mult: 0
    decay_mult: 0
  }
  param {
    lr_mult: 0
    decay_mult: 0
  }
  bn_param {
    slope_filler {
      type: "constant"
      value: 1
    }
    bias_filler {
      type: "constant"
      value: 0
    }
    momentum: 0.95
    frozen: true
  }
}
layer {
  name: "conv3_3_1x1_reduce/relu"
  type: "ReLU"
  bottom: "conv3_3_1x1_reduce"
  top: "conv3_3_1x1_reduce"
}
layer {
  name: "conv3_3_3x3"
  type: "Convolution"
  bottom: "conv3_3_1x1_reduce"
  top: "conv3_3_3x3"
  param {
    lr_mult: 1
    decay_mult: 1
  }
  convolution_param {
    num_output: 128
    bias_term: false
    pad: 1
    kernel_size: 3
    stride: 1
    weight_filler {
      type: "msra"
    }
  }
}
layer {
  name: "conv3_3_3x3/bn"
  type: "BN"
  bottom: "conv3_3_3x3"
  top: "conv3_3_3x3"
  param {
    lr_mult: 1
    decay_mult: 0
  }
  param {
    lr_mult: 1
    decay_mult: 0
  }
  param {
    lr_mult: 0
    decay_mult: 0
  }
  param {
    lr_mult: 0
    decay_mult: 0
  }
  bn_param {
    slope_filler {
      type: "constant"
      value: 1
    }
    bias_filler {
      type: "constant"
      value: 0
    }
    momentum: 0.95
    frozen: true
  }
}
layer {
  name: "conv3_3_3x3/relu"
  type: "ReLU"
  bottom: "conv3_3_3x3"
  top: "conv3_3_3x3"
}
layer {
  name: "conv3_3_1x1_increase"
  type: "Convolution"
  bottom: "conv3_3_3x3"
  top: "conv3_3_1x1_increase"
  param {
    lr_mult: 1
    decay_mult: 1
  }
  convolution_param {
    num_output: 512
    bias_term: false
    pad: 0
    kernel_size: 1
    stride: 1
    weight_filler {
      type: "msra"
    }
  }
}
layer {
  name: "conv3_3_1x1_increase/bn"
  type: "BN"
  bottom: "conv3_3_1x1_increase"
  top: "conv3_3_1x1_increase"
  param {
    lr_mult: 1
    decay_mult: 0
  }
  param {
    lr_mult: 1
    decay_mult: 0
  }
  param {
    lr_mult: 0
    decay_mult: 0
  }
  param {
    lr_mult: 0
    decay_mult: 0
  }
  bn_param {
    slope_filler {
      type: "constant"
      value: 1
    }
    bias_filler {
      type: "constant"
      value: 0
    }
    momentum: 0.95
    frozen: true
  }
}
layer {
  name: "conv3_3"
  type: "Eltwise"
  bottom: "conv3_2"
  bottom: "conv3_3_1x1_increase"
  top: "conv3_3"
  eltwise_param {
    operation: SUM
  }
}
layer {
  name: "conv3_3/relu"
  type: "ReLU"
  bottom: "conv3_3"
  top: "conv3_3"
}
layer {
  name: "conv3_4_1x1_reduce"
  type: "Convolution"
  bottom: "conv3_3"
  top: "conv3_4_1x1_reduce"
  param {
    lr_mult: 1
    decay_mult: 1
  }
  convolution_param {
    num_output: 128
    bias_term: false
    pad: 0
    kernel_size: 1
    stride: 1
    weight_filler {
      type: "msra"
    }
  }
}
layer {
  name: "conv3_4_1x1_reduce/bn"
  type: "BN"
  bottom: "conv3_4_1x1_reduce"
  top: "conv3_4_1x1_reduce"
  param {
    lr_mult: 1
    decay_mult: 0
  }
  param {
    lr_mult: 1
    decay_mult: 0
  }
  param {
    lr_mult: 0
    decay_mult: 0
  }
  param {
    lr_mult: 0
    decay_mult: 0
  }
  bn_param {
    slope_filler {
      type: "constant"
      value: 1
    }
    bias_filler {
      type: "constant"
      value: 0
    }
    momentum: 0.95
    frozen: true
  }
}
layer {
  name: "conv3_4_1x1_reduce/relu"
  type: "ReLU"
  bottom: "conv3_4_1x1_reduce"
  top: "conv3_4_1x1_reduce"
}
layer {
  name: "conv3_4_3x3"
  type: "Convolution"
  bottom: "conv3_4_1x1_reduce"
  top: "conv3_4_3x3"
  param {
    lr_mult: 1
    decay_mult: 1
  }
  convolution_param {
    num_output: 128
    bias_term: false
    pad: 1
    kernel_size: 3
    stride: 1
    weight_filler {
      type: "msra"
    }
  }
}
layer {
  name: "conv3_4_3x3/bn"
  type: "BN"
  bottom: "conv3_4_3x3"
  top: "conv3_4_3x3"
  param {
    lr_mult: 1
    decay_mult: 0
  }
  param {
    lr_mult: 1
    decay_mult: 0
  }
  param {
    lr_mult: 0
    decay_mult: 0
  }
  param {
    lr_mult: 0
    decay_mult: 0
  }
  bn_param {
    slope_filler {
      type: "constant"
      value: 1
    }
    bias_filler {
      type: "constant"
      value: 0
    }
    momentum: 0.95
    frozen: true
  }
}
layer {
  name: "conv3_4_3x3/relu"
  type: "ReLU"
  bottom: "conv3_4_3x3"
  top: "conv3_4_3x3"
}
layer {
  name: "conv3_4_1x1_increase"
  type: "Convolution"
  bottom: "conv3_4_3x3"
  top: "conv3_4_1x1_increase"
  param {
    lr_mult: 1
    decay_mult: 1
  }
  convolution_param {
    num_output: 512
    bias_term: false
    pad: 0
    kernel_size: 1
    stride: 1
    weight_filler {
      type: "msra"
    }
  }
}
layer {
  name: "conv3_4_1x1_increase/bn"
  type: "BN"
  bottom: "conv3_4_1x1_increase"
  top: "conv3_4_1x1_increase"
  param {
    lr_mult: 1
    decay_mult: 0
  }
  param {
    lr_mult: 1
    decay_mult: 0
  }
  param {
    lr_mult: 0
    decay_mult: 0
  }
  param {
    lr_mult: 0
    decay_mult: 0
  }
  bn_param {
    slope_filler {
      type: "constant"
      value: 1
    }
    bias_filler {
      type: "constant"
      value: 0
    }
    momentum: 0.95
    frozen: true
  }
}
layer {
  name: "conv3_4"
  type: "Eltwise"
  bottom: "conv3_3"
  bottom: "conv3_4_1x1_increase"
  top: "conv3_4"
  eltwise_param {
    operation: SUM
  }
}
layer {
  name: "conv3_4/relu"
  type: "ReLU"
  bottom: "conv3_4"
  top: "conv3_4"
}
layer {
  name: "conv4_1_1x1_reduce"
  type: "Convolution"
  bottom: "conv3_4"
  top: "conv4_1_1x1_reduce"
  param {
    lr_mult: 1
    decay_mult: 1
  }
  convolution_param {
    num_output: 256
    bias_term: false
    pad: 0
    kernel_size: 1
    stride: 1
    weight_filler {
      type: "msra"
    }
  }
}
layer {
  name: "conv4_1_1x1_reduce/bn"
  type: "BN"
  bottom: "conv4_1_1x1_reduce"
  top: "conv4_1_1x1_reduce"
  param {
    lr_mult: 1
    decay_mult: 0
  }
  param {
    lr_mult: 1
    decay_mult: 0
  }
  param {
    lr_mult: 0
    decay_mult: 0
  }
  param {
    lr_mult: 0
    decay_mult: 0
  }
  bn_param {
    slope_filler {
      type: "constant"
      value: 1
    }
    bias_filler {
      type: "constant"
      value: 0
    }
    momentum: 0.95
    frozen: true
  }
}
layer {
  name: "conv4_1_1x1_reduce/relu"
  type: "ReLU"
  bottom: "conv4_1_1x1_reduce"
  top: "conv4_1_1x1_reduce"
}
layer {
  name: "conv4_1_3x3"
  type: "Convolution"
  bottom: "conv4_1_1x1_reduce"
  top: "conv4_1_3x3"
  param {
    lr_mult: 1
    decay_mult: 1
  }
  convolution_param {
    num_output: 256
    bias_term: false
    pad: 2
    kernel_size: 3
    stride: 1
    weight_filler {
      type: "msra"
    }
    dilation: 2
  }
}
layer {
  name: "conv4_1_3x3/bn"
  type: "BN"
  bottom: "conv4_1_3x3"
  top: "conv4_1_3x3"
  param {
    lr_mult: 1
    decay_mult: 0
  }
  param {
    lr_mult: 1
    decay_mult: 0
  }
  param {
    lr_mult: 0
    decay_mult: 0
  }
  param {
    lr_mult: 0
    decay_mult: 0
  }
  bn_param {
    slope_filler {
      type: "constant"
      value: 1
    }
    bias_filler {
      type: "constant"
      value: 0
    }
    momentum: 0.95
    frozen: true
  }
}
layer {
  name: "conv4_1_3x3/relu"
  type: "ReLU"
  bottom: "conv4_1_3x3"
  top: "conv4_1_3x3"
}
layer {
  name: "conv4_1_1x1_increase"
  type: "Convolution"
  bottom: "conv4_1_3x3"
  top: "conv4_1_1x1_increase"
  param {
    lr_mult: 1
    decay_mult: 1
  }
  convolution_param {
    num_output: 1024
    bias_term: false
    pad: 0
    kernel_size: 1
    stride: 1
    weight_filler {
      type: "msra"
    }
  }
}
layer {
  name: "conv4_1_1x1_increase/bn"
  type: "BN"
  bottom: "conv4_1_1x1_increase"
  top: "conv4_1_1x1_increase"
  param {
    lr_mult: 1
    decay_mult: 0
  }
  param {
    lr_mult: 1
    decay_mult: 0
  }
  param {
    lr_mult: 0
    decay_mult: 0
  }
  param {
    lr_mult: 0
    decay_mult: 0
  }
  bn_param {
    slope_filler {
      type: "constant"
      value: 1
    }
    bias_filler {
      type: "constant"
      value: 0
    }
    momentum: 0.95
    frozen: true
  }
}
layer {
  name: "conv4_1_1x1_proj"
  type: "Convolution"
  bottom: "conv3_4"
  top: "conv4_1_1x1_proj"
  param {
    lr_mult: 1
    decay_mult: 1
  }
  convolution_param {
    num_output: 1024
    bias_term: false
    pad: 0
    kernel_size: 1
    stride: 1
    weight_filler {
      type: "msra"
    }
  }
}
layer {
  name: "conv4_1_1x1_proj/bn"
  type: "BN"
  bottom: "conv4_1_1x1_proj"
  top: "conv4_1_1x1_proj"
  param {
    lr_mult: 1
    decay_mult: 0
  }
  param {
    lr_mult: 1
    decay_mult: 0
  }
  param {
    lr_mult: 0
    decay_mult: 0
  }
  param {
    lr_mult: 0
    decay_mult: 0
  }
  bn_param {
    slope_filler {
      type: "constant"
      value: 1
    }
    bias_filler {
      type: "constant"
      value: 0
    }
    momentum: 0.95
    frozen: true
  }
}
layer {
  name: "conv4_1"
  type: "Eltwise"
  bottom: "conv4_1_1x1_proj"
  bottom: "conv4_1_1x1_increase"
  top: "conv4_1"
  eltwise_param {
    operation: SUM
  }
}
layer {
  name: "conv4_1/relu"
  type: "ReLU"
  bottom: "conv4_1"
  top: "conv4_1"
}
layer {
  name: "conv4_2_1x1_reduce"
  type: "Convolution"
  bottom: "conv4_1"
  top: "conv4_2_1x1_reduce"
  param {
    lr_mult: 1
    decay_mult: 1
  }
  convolution_param {
    num_output: 256
    bias_term: false
    pad: 0
    kernel_size: 1
    stride: 1
    weight_filler {
      type: "msra"
    }
  }
}
layer {
  name: "conv4_2_1x1_reduce/bn"
  type: "BN"
  bottom: "conv4_2_1x1_reduce"
  top: "conv4_2_1x1_reduce"
  param {
    lr_mult: 1
    decay_mult: 0
  }
  param {
    lr_mult: 1
    decay_mult: 0
  }
  param {
    lr_mult: 0
    decay_mult: 0
  }
  param {
    lr_mult: 0
    decay_mult: 0
  }
  bn_param {
    slope_filler {
      type: "constant"
      value: 1
    }
    bias_filler {
      type: "constant"
      value: 0
    }
    momentum: 0.95
    frozen: true
  }
}
layer {
  name: "conv4_2_1x1_reduce/relu"
  type: "ReLU"
  bottom: "conv4_2_1x1_reduce"
  top: "conv4_2_1x1_reduce"
}
layer {
  name: "conv4_2_3x3"
  type: "Convolution"
  bottom: "conv4_2_1x1_reduce"
  top: "conv4_2_3x3"
  param {
    lr_mult: 1
    decay_mult: 1
  }
  convolution_param {
    num_output: 256
    bias_term: false
    pad: 2
    kernel_size: 3
    stride: 1
    weight_filler {
      type: "msra"
    }
    dilation: 2
  }
}
layer {
  name: "conv4_2_3x3/bn"
  type: "BN"
  bottom: "conv4_2_3x3"
  top: "conv4_2_3x3"
  param {
    lr_mult: 1
    decay_mult: 0
  }
  param {
    lr_mult: 1
    decay_mult: 0
  }
  param {
    lr_mult: 0
    decay_mult: 0
  }
  param {
    lr_mult: 0
    decay_mult: 0
  
I1019 17:33:30.170156  3535 layer_factory.hpp:77] Creating layer data
I1019 17:33:30.170181  3535 net.cpp:106] Creating Layer data
I1019 17:33:30.170186  3535 net.cpp:411] data -> data
I1019 17:33:30.170205  3535 net.cpp:411] data -> label
I1019 17:33:30.170212  3535 net.cpp:411] data -> (automatic)
I1019 17:33:30.170547  3535 image_seg_data_layer.cpp:46] Opening file /home/adminpxz/PSPNet/PSPNet/splits/pascal_voc_train_aug.txt
I1019 17:33:30.183115  3535 image_seg_data_layer.cpp:63] Shuffling data
I1019 17:33:30.184552  3535 image_seg_data_layer.cpp:68] A total of 10580 images.
I1019 17:33:30.208425  3535 image_seg_data_layer.cpp:137] output data size: 1,3,137,137
I1019 17:33:30.208464  3535 image_seg_data_layer.cpp:141] output label size: 1,1,137,137
I1019 17:33:30.208473  3535 image_seg_data_layer.cpp:145] output data_dim size: 1,1,1,2
I1019 17:33:30.209724  3535 net.cpp:150] Setting up data
I1019 17:33:30.209748  3535 net.cpp:157] Top shape: 1 3 137 137 (56307)
I1019 17:33:30.209756  3535 net.cpp:157] Top shape: 1 1 137 137 (18769)
I1019 17:33:30.209764  3535 net.cpp:157] Top shape: 1 1 1 2 (2)
I1019 17:33:30.209774  3535 net.cpp:165] Memory required for data: 300312
I1019 17:33:30.209789  3535 layer_factory.hpp:77] Creating layer label_data_1_split
I1019 17:33:30.209810  3535 net.cpp:106] Creating Layer label_data_1_split
I1019 17:33:30.209825  3535 net.cpp:454] label_data_1_split <- label
I1019 17:33:30.209841  3535 net.cpp:411] label_data_1_split -> label_data_1_split_0
I1019 17:33:30.209856  3535 net.cpp:411] label_data_1_split -> label_data_1_split_1
I1019 17:33:30.209903  3535 net.cpp:150] Setting up label_data_1_split
I1019 17:33:30.209916  3535 net.cpp:157] Top shape: 1 1 137 137 (18769)
I1019 17:33:30.209930  3535 net.cpp:157] Top shape: 1 1 137 137 (18769)
I1019 17:33:30.209939  3535 net.cpp:165] Memory required for data: 450464
I1019 17:33:30.209945  3535 layer_factory.hpp:77] Creating layer conv1_1_3x3_s2
I1019 17:33:30.209964  3535 net.cpp:106] Creating Layer conv1_1_3x3_s2
I1019 17:33:30.209975  3535 net.cpp:454] conv1_1_3x3_s2 <- data
I1019 17:33:30.210001  3535 net.cpp:411] conv1_1_3x3_s2 -> conv1_1_3x3_s2
I1019 17:33:30.210703  3535 net.cpp:150] Setting up conv1_1_3x3_s2
I1019 17:33:30.210722  3535 net.cpp:157] Top shape: 1 64 69 69 (304704)
I1019 17:33:30.210729  3535 net.cpp:165] Memory required for data: 1669280
I1019 17:33:30.210746  3535 layer_factory.hpp:77] Creating layer conv1_1_3x3_s2/bn
I1019 17:33:30.210762  3535 net.cpp:106] Creating Layer conv1_1_3x3_s2/bn
I1019 17:33:30.210777  3535 net.cpp:454] conv1_1_3x3_s2/bn <- conv1_1_3x3_s2
I1019 17:33:30.210794  3535 net.cpp:397] conv1_1_3x3_s2/bn -> conv1_1_3x3_s2 (in-place)
I1019 17:33:30.211478  3535 net.cpp:150] Setting up conv1_1_3x3_s2/bn
I1019 17:33:30.211498  3535 net.cpp:157] Top shape: 1 64 69 69 (304704)
I1019 17:33:30.211505  3535 net.cpp:165] Memory required for data: 2888096
I1019 17:33:30.211520  3535 layer_factory.hpp:77] Creating layer conv1_1_3x3_s2/relu
I1019 17:33:30.211537  3535 net.cpp:106] Creating Layer conv1_1_3x3_s2/relu
I1019 17:33:30.211549  3535 net.cpp:454] conv1_1_3x3_s2/relu <- conv1_1_3x3_s2
I1019 17:33:30.211558  3535 net.cpp:397] conv1_1_3x3_s2/relu -> conv1_1_3x3_s2 (in-place)
I1019 17:33:30.211568  3535 net.cpp:150] Setting up conv1_1_3x3_s2/relu
I1019 17:33:30.211576  3535 net.cpp:157] Top shape: 1 64 69 69 (304704)
I1019 17:33:30.211583  3535 net.cpp:165] Memory required for data: 4106912
I1019 17:33:30.211593  3535 layer_factory.hpp:77] Creating layer conv1_2_3x3
I1019 17:33:30.211609  3535 net.cpp:106] Creating Layer conv1_2_3x3
I1019 17:33:30.211617  3535 net.cpp:454] conv1_2_3x3 <- conv1_1_3x3_s2
I1019 17:33:30.211627  3535 net.cpp:411] conv1_2_3x3 -> conv1_2_3x3
I1019 17:33:30.212039  3535 net.cpp:150] Setting up conv1_2_3x3
I1019 17:33:30.212054  3535 net.cpp:157] Top shape: 1 64 69 69 (304704)
I1019 17:33:30.212060  3535 net.cpp:165] Memory required for data: 5325728
I1019 17:33:30.212069  3535 layer_factory.hpp:77] Creating layer conv1_2_3x3/bn
I1019 17:33:30.212080  3535 net.cpp:106] Creating Layer conv1_2_3x3/bn
I1019 17:33:30.212091  3535 net.cpp:454] conv1_2_3x3/bn <- conv1_2_3x3
I1019 17:33:30.212102  3535 net.cpp:397] conv1_2_3x3/bn -> conv1_2_3x3 (in-place)
I1019 17:33:30.212247  3535 net.cpp:150] Setting up conv1_2_3x3/bn
I1019 17:33:30.212260  3535 net.cpp:157] Top shape: 1 64 69 69 (304704)
I1019 17:33:30.212267  3535 net.cpp:165] Memory required for data: 6544544
I1019 17:33:30.212280  3535 layer_factory.hpp:77] Creating layer conv1_2_3x3/relu
I1019 17:33:30.212291  3535 net.cpp:106] Creating Layer conv1_2_3x3/relu
I1019 17:33:30.212298  3535 net.cpp:454] conv1_2_3x3/relu <- conv1_2_3x3
I1019 17:33:30.212306  3535 net.cpp:397] conv1_2_3x3/relu -> conv1_2_3x3 (in-place)
I1019 17:33:30.212316  3535 net.cpp:150] Setting up conv1_2_3x3/relu
I1019 17:33:30.212324  3535 net.cpp:157] Top shape: 1 64 69 69 (304704)
I1019 17:33:30.212330  3535 net.cpp:165] Memory required for data: 7763360
I1019 17:33:30.212337  3535 layer_factory.hpp:77] Creating layer conv1_3_3x3
I1019 17:33:30.212348  3535 net.cpp:106] Creating Layer conv1_3_3x3
I1019 17:33:30.212357  3535 net.cpp:454] conv1_3_3x3 <- conv1_2_3x3
I1019 17:33:30.212365  3535 net.cpp:411] conv1_3_3x3 -> conv1_3_3x3
I1019 17:33:30.213560  3535 net.cpp:150] Setting up conv1_3_3x3
I1019 17:33:30.213578  3535 net.cpp:157] Top shape: 1 128 69 69 (609408)
I1019 17:33:30.213587  3535 net.cpp:165] Memory required for data: 10200992
I1019 17:33:30.213596  3535 layer_factory.hpp:77] Creating layer conv1_3_3x3/bn
I1019 17:33:30.213606  3535 net.cpp:106] Creating Layer conv1_3_3x3/bn
I1019 17:33:30.213614  3535 net.cpp:454] conv1_3_3x3/bn <- conv1_3_3x3
I1019 17:33:30.213624  3535 net.cpp:397] conv1_3_3x3/bn -> conv1_3_3x3 (in-place)
I1019 17:33:30.213753  3535 net.cpp:150] Setting up conv1_3_3x3/bn
I1019 17:33:30.213764  3535 net.cpp:157] Top shape: 1 128 69 69 (609408)
I1019 17:33:30.213773  3535 net.cpp:165] Memory required for data: 12638624
I1019 17:33:30.213783  3535 layer_factory.hpp:77] Creating layer conv1_3_3x3/relu
I1019 17:33:30.213793  3535 net.cpp:106] Creating Layer conv1_3_3x3/relu
I1019 17:33:30.213805  3535 net.cpp:454] conv1_3_3x3/relu <- conv1_3_3x3
I1019 17:33:30.213819  3535 net.cpp:397] conv1_3_3x3/relu -> conv1_3_3x3 (in-place)
I1019 17:33:30.213829  3535 net.cpp:150] Setting up conv1_3_3x3/relu
I1019 17:33:30.213840  3535 net.cpp:157] Top shape: 1 128 69 69 (609408)
I1019 17:33:30.213846  3535 net.cpp:165] Memory required for data: 15076256
I1019 17:33:30.213852  3535 layer_factory.hpp:77] Creating layer pool1_3x3_s2
I1019 17:33:30.213861  3535 net.cpp:106] Creating Layer pool1_3x3_s2
I1019 17:33:30.213868  3535 net.cpp:454] pool1_3x3_s2 <- conv1_3_3x3
I1019 17:33:30.213876  3535 net.cpp:411] pool1_3x3_s2 -> pool1_3x3_s2
I1019 17:33:30.213915  3535 net.cpp:150] Setting up pool1_3x3_s2
I1019 17:33:30.213927  3535 net.cpp:157] Top shape: 1 128 35 35 (156800)
I1019 17:33:30.213934  3535 net.cpp:165] Memory required for data: 15703456
I1019 17:33:30.213943  3535 layer_factory.hpp:77] Creating layer pool1_3x3_s2_pool1_3x3_s2_0_split
I1019 17:33:30.213951  3535 net.cpp:106] Creating Layer pool1_3x3_s2_pool1_3x3_s2_0_split
I1019 17:33:30.213959  3535 net.cpp:454] pool1_3x3_s2_pool1_3x3_s2_0_split <- pool1_3x3_s2
I1019 17:33:30.213968  3535 net.cpp:411] pool1_3x3_s2_pool1_3x3_s2_0_split -> pool1_3x3_s2_pool1_3x3_s2_0_split_0
I1019 17:33:30.213979  3535 net.cpp:411] pool1_3x3_s2_pool1_3x3_s2_0_split -> pool1_3x3_s2_pool1_3x3_s2_0_split_1
I1019 17:33:30.214007  3535 net.cpp:150] Setting up pool1_3x3_s2_pool1_3x3_s2_0_split
I1019 17:33:30.214017  3535 net.cpp:157] Top shape: 1 128 35 35 (156800)
I1019 17:33:30.214026  3535 net.cpp:157] Top shape: 1 128 35 35 (156800)
I1019 17:33:30.214033  3535 net.cpp:165] Memory required for data: 16957856
I1019 17:33:30.214040  3535 layer_factory.hpp:77] Creating layer conv2_1_1x1_reduce
I1019 17:33:30.214051  3535 net.cpp:106] Creating Layer conv2_1_1x1_reduce
I1019 17:33:30.214061  3535 net.cpp:454] conv2_1_1x1_reduce <- pool1_3x3_s2_pool1_3x3_s2_0_split_0
I1019 17:33:30.214069  3535 net.cpp:411] conv2_1_1x1_reduce -> conv2_1_1x1_reduce
I1019 17:33:30.214256  3535 net.cpp:150] Setting up conv2_1_1x1_reduce
I1019 17:33:30.214267  3535 net.cpp:157] Top shape: 1 64 35 35 (78400)
I1019 17:33:30.214275  3535 net.cpp:165] Memory required for data: 17271456
I1019 17:33:30.214284  3535 layer_factory.hpp:77] Creating layer conv2_1_1x1_reduce/bn
I1019 17:33:30.214294  3535 net.cpp:106] Creating Layer conv2_1_1x1_reduce/bn
I1019 17:33:30.214303  3535 net.cpp:454] conv2_1_1x1_reduce/bn <- conv2_1_1x1_reduce
I1019 17:33:30.214313  3535 net.cpp:397] conv2_1_1x1_reduce/bn -> conv2_1_1x1_reduce (in-place)
I1019 17:33:30.214449  3535 net.cpp:150] Setting up conv2_1_1x1_reduce/bn
I1019 17:33:30.214460  3535 net.cpp:157] Top shape: 1 64 35 35 (78400)
I1019 17:33:30.214468  3535 net.cpp:165] Memory required for data: 17585056
I1019 17:33:30.214481  3535 layer_factory.hpp:77] Creating layer conv2_1_1x1_reduce/relu
I1019 17:33:30.214491  3535 net.cpp:106] Creating Layer conv2_1_1x1_reduce/relu
I1019 17:33:30.214499  3535 net.cpp:454] conv2_1_1x1_reduce/relu <- conv2_1_1x1_reduce
I1019 17:33:30.214509  3535 net.cpp:397] conv2_1_1x1_reduce/relu -> conv2_1_1x1_reduce (in-place)
I1019 17:33:30.214519  3535 net.cpp:150] Setting up conv2_1_1x1_reduce/relu
I1019 17:33:30.214526  3535 net.cpp:157] Top shape: 1 64 35 35 (78400)
I1019 17:33:30.214534  3535 net.cpp:165] Memory required for data: 17898656
I1019 17:33:30.214541  3535 layer_factory.hpp:77] Creating layer conv2_1_3x3
I1019 17:33:30.214555  3535 net.cpp:106] Creating Layer conv2_1_3x3
I1019 17:33:30.214562  3535 net.cpp:454] conv2_1_3x3 <- conv2_1_1x1_reduce
I1019 17:33:30.214572  3535 net.cpp:411] conv2_1_3x3 -> conv2_1_3x3
I1019 17:33:30.214983  3535 net.cpp:150] Setting up conv2_1_3x3
I1019 17:33:30.214998  3535 net.cpp:157] Top shape: 1 64 35 35 (78400)
I1019 17:33:30.215005  3535 net.cpp:165] Memory required for data: 18212256
I1019 17:33:30.215014  3535 layer_factory.hpp:77] Creating layer conv2_1_3x3/bn
I1019 17:33:30.215024  3535 net.cpp:106] Creating Layer conv2_1_3x3/bn
I1019 17:33:30.215034  3535 net.cpp:454] conv2_1_3x3/bn <- conv2_1_3x3
I1019 17:33:30.215049  3535 net.cpp:397] conv2_1_3x3/bn -> conv2_1_3x3 (in-place)
I1019 17:33:30.215188  3535 net.cpp:150] Setting up conv2_1_3x3/bn
I1019 17:33:30.215199  3535 net.cpp:157] Top shape: 1 64 35 35 (78400)
I1019 17:33:30.215207  3535 net.cpp:165] Memory required for data: 18525856
I1019 17:33:30.215217  3535 layer_factory.hpp:77] Creating layer conv2_1_3x3/relu
I1019 17:33:30.215227  3535 net.cpp:106] Creating Layer conv2_1_3x3/relu
I1019 17:33:30.215235  3535 net.cpp:454] conv2_1_3x3/relu <- conv2_1_3x3
I1019 17:33:30.215245  3535 net.cpp:397] conv2_1_3x3/relu -> conv2_1_3x3 (in-place)
I1019 17:33:30.215255  3535 net.cpp:150] Setting up conv2_1_3x3/relu
I1019 17:33:30.215262  3535 net.cpp:157] Top shape: 1 64 35 35 (78400)
I1019 17:33:30.215270  3535 net.cpp:165] Memory required for data: 18839456
I1019 17:33:30.215277  3535 layer_factory.hpp:77] Creating layer conv2_1_1x1_increase
I1019 17:33:30.215288  3535 net.cpp:106] Creating Layer conv2_1_1x1_increase
I1019 17:33:30.215296  3535 net.cpp:454] conv2_1_1x1_increase <- conv2_1_3x3
I1019 17:33:30.215306  3535 net.cpp:411] conv2_1_1x1_increase -> conv2_1_1x1_increase
I1019 17:33:30.215544  3535 net.cpp:150] Setting up conv2_1_1x1_increase
I1019 17:33:30.215556  3535 net.cpp:157] Top shape: 1 256 35 35 (313600)
I1019 17:33:30.215564  3535 net.cpp:165] Memory required for data: 20093856
I1019 17:33:30.215572  3535 layer_factory.hpp:77] Creating layer conv2_1_1x1_increase/bn
I1019 17:33:30.215582  3535 net.cpp:106] Creating Layer conv2_1_1x1_increase/bn
I1019 17:33:30.215591  3535 net.cpp:454] conv2_1_1x1_increase/bn <- conv2_1_1x1_increase
I1019 17:33:30.215600  3535 net.cpp:397] conv2_1_1x1_increase/bn -> conv2_1_1x1_increase (in-place)
I1019 17:33:30.215728  3535 net.cpp:150] Setting up conv2_1_1x1_increase/bn
I1019 17:33:30.215739  3535 net.cpp:157] Top shape: 1 256 35 35 (313600)
I1019 17:33:30.215745  3535 net.cpp:165] Memory required for data: 21348256
I1019 17:33:30.215756  3535 layer_factory.hpp:77] Creating layer conv2_1_1x1_proj
I1019 17:33:30.215767  3535 net.cpp:106] Creating Layer conv2_1_1x1_proj
I1019 17:33:30.215775  3535 net.cpp:454] conv2_1_1x1_proj <- pool1_3x3_s2_pool1_3x3_s2_0_split_1
I1019 17:33:30.215785  3535 net.cpp:411] conv2_1_1x1_proj -> conv2_1_1x1_proj
I1019 17:33:30.216142  3535 net.cpp:150] Setting up conv2_1_1x1_proj
I1019 17:33:30.216154  3535 net.cpp:157] Top shape: 1 256 35 35 (313600)
I1019 17:33:30.216162  3535 net.cpp:165] Memory required for data: 22602656
I1019 17:33:30.216171  3535 layer_factory.hpp:77] Creating layer conv2_1_1x1_proj/bn
I1019 17:33:30.216181  3535 net.cpp:106] Creating Layer conv2_1_1x1_proj/bn
I1019 17:33:30.216189  3535 net.cpp:454] conv2_1_1x1_proj/bn <- conv2_1_1x1_proj
I1019 17:33:30.216199  3535 net.cpp:397] conv2_1_1x1_proj/bn -> conv2_1_1x1_proj (in-place)
I1019 17:33:30.216323  3535 net.cpp:150] Setting up conv2_1_1x1_proj/bn
I1019 17:33:30.216336  3535 net.cpp:157] Top shape: 1 256 35 35 (313600)
I1019 17:33:30.216342  3535 net.cpp:165] Memory required for data: 23857056
I1019 17:33:30.216356  3535 layer_factory.hpp:77] Creating layer conv2_1
I1019 17:33:30.216367  3535 net.cpp:106] Creating Layer conv2_1
I1019 17:33:30.216374  3535 net.cpp:454] conv2_1 <- conv2_1_1x1_proj
I1019 17:33:30.216383  3535 net.cpp:454] conv2_1 <- conv2_1_1x1_increase
I1019 17:33:30.216393  3535 net.cpp:411] conv2_1 -> conv2_1
I1019 17:33:30.216418  3535 net.cpp:150] Setting up conv2_1
I1019 17:33:30.216428  3535 net.cpp:157] Top shape: 1 256 35 35 (313600)
I1019 17:33:30.216436  3535 net.cpp:165] Memory required for data: 25111456
I1019 17:33:30.216444  3535 layer_factory.hpp:77] Creating layer conv2_1/relu
I1019 17:33:30.216452  3535 net.cpp:106] Creating Layer conv2_1/relu
I1019 17:33:30.216460  3535 net.cpp:454] conv2_1/relu <- conv2_1
I1019 17:33:30.216469  3535 net.cpp:397] conv2_1/relu -> conv2_1 (in-place)
I1019 17:33:30.216478  3535 net.cpp:150] Setting up conv2_1/relu
I1019 17:33:30.216487  3535 net.cpp:157] Top shape: 1 256 35 35 (313600)
I1019 17:33:30.216497  3535 net.cpp:165] Memory required for data: 26365856
I1019 17:33:30.216508  3535 layer_factory.hpp:77] Creating layer conv2_1_conv2_1/relu_0_split
I1019 17:33:30.216517  3535 net.cpp:106] Creating Layer conv2_1_conv2_1/relu_0_split
I1019 17:33:30.216526  3535 net.cpp:454] conv2_1_conv2_1/relu_0_split <- conv2_1
I1019 17:33:30.216534  3535 net.cpp:411] conv2_1_conv2_1/relu_0_split -> conv2_1_conv2_1/relu_0_split_0
I1019 17:33:30.216547  3535 net.cpp:411] conv2_1_conv2_1/relu_0_split -> conv2_1_conv2_1/relu_0_split_1
I1019 17:33:30.216576  3535 net.cpp:150] Setting up conv2_1_conv2_1/relu_0_split
I1019 17:33:30.216588  3535 net.cpp:157] Top shape: 1 256 35 35 (313600)
I1019 17:33:30.216595  3535 net.cpp:157] Top shape: 1 256 35 35 (313600)
I1019 17:33:30.216603  3535 net.cpp:165] Memory required for data: 28874656
I1019 17:33:30.216610  3535 layer_factory.hpp:77] Creating layer conv2_2_1x1_reduce
I1019 17:33:30.216621  3535 net.cpp:106] Creating Layer conv2_2_1x1_reduce
I1019 17:33:30.216629  3535 net.cpp:454] conv2_2_1x1_reduce <- conv2_1_conv2_1/relu_0_split_0
I1019 17:33:30.216639  3535 net.cpp:411] conv2_2_1x1_reduce -> conv2_2_1x1_reduce
I1019 17:33:30.216876  3535 net.cpp:150] Setting up conv2_2_1x1_reduce
I1019 17:33:30.216887  3535 net.cpp:157] Top shape: 1 64 35 35 (78400)
I1019 17:33:30.216894  3535 net.cpp:165] Memory required for data: 29188256
I1019 17:33:30.216903  3535 layer_factory.hpp:77] Creating layer conv2_2_1x1_reduce/bn
I1019 17:33:30.216913  3535 net.cpp:106] Creating Layer conv2_2_1x1_reduce/bn
I1019 17:33:30.216922  3535 net.cpp:454] conv2_2_1x1_reduce/bn <- conv2_2_1x1_reduce
I1019 17:33:30.216933  3535 net.cpp:397] conv2_2_1x1_reduce/bn -> conv2_2_1x1_reduce (in-place)
I1019 17:33:30.217070  3535 net.cpp:150] Setting up conv2_2_1x1_reduce/bn
I1019 17:33:30.217087  3535 net.cpp:157] Top shape: 1 64 35 35 (78400)
I1019 17:33:30.217093  3535 net.cpp:165] Memory required for data: 29501856
I1019 17:33:30.217104  3535 layer_factory.hpp:77] Creating layer conv2_2_1x1_reduce/relu
I1019 17:33:30.217113  3535 net.cpp:106] Creating Layer conv2_2_1x1_reduce/relu
I1019 17:33:30.217121  3535 net.cpp:454] conv2_2_1x1_reduce/relu <- conv2_2_1x1_reduce
I1019 17:33:30.217130  3535 net.cpp:397] conv2_2_1x1_reduce/relu -> conv2_2_1x1_reduce (in-place)
I1019 17:33:30.217140  3535 net.cpp:150] Setting up conv2_2_1x1_reduce/relu
I1019 17:33:30.217149  3535 net.cpp:157] Top shape: 1 64 35 35 (78400)
I1019 17:33:30.217157  3535 net.cpp:165] Memory required for data: 29815456
I1019 17:33:30.217164  3535 layer_factory.hpp:77] Creating layer conv2_2_3x3
I1019 17:33:30.217175  3535 net.cpp:106] Creating Layer conv2_2_3x3
I1019 17:33:30.217185  3535 net.cpp:454] conv2_2_3x3 <- conv2_2_1x1_reduce
I1019 17:33:30.217195  3535 net.cpp:411] conv2_2_3x3 -> conv2_2_3x3
I1019 17:33:30.217597  3535 net.cpp:150] Setting up conv2_2_3x3
I1019 17:33:30.217609  3535 net.cpp:157] Top shape: 1 64 35 35 (78400)
I1019 17:33:30.217617  3535 net.cpp:165] Memory required for data: 30129056
I1019 17:33:30.217627  3535 layer_factory.hpp:77] Creating layer conv2_2_3x3/bn
I1019 17:33:30.217635  3535 net.cpp:106] Creating Layer conv2_2_3x3/bn
I1019 17:33:30.217644  3535 net.cpp:454] conv2_2_3x3/bn <- conv2_2_3x3
I1019 17:33:30.217655  3535 net.cpp:397] conv2_2_3x3/bn -> conv2_2_3x3 (in-place)
I1019 17:33:30.217798  3535 net.cpp:150] Setting up conv2_2_3x3/bn
I1019 17:33:30.217810  3535 net.cpp:157] Top shape: 1 64 35 35 (78400)
I1019 17:33:30.217818  3535 net.cpp:165] Memory required for data: 30442656
I1019 17:33:30.217828  3535 layer_factory.hpp:77] Creating layer conv2_2_3x3/relu
I1019 17:33:30.217838  3535 net.cpp:106] Creating Layer conv2_2_3x3/relu
I1019 17:33:30.217845  3535 net.cpp:454] conv2_2_3x3/relu <- conv2_2_3x3
I1019 17:33:30.217854  3535 net.cpp:397] conv2_2_3x3/relu -> conv2_2_3x3 (in-place)
I1019 17:33:30.217864  3535 net.cpp:150] Setting up conv2_2_3x3/relu
I1019 17:33:30.217874  3535 net.cpp:157] Top shape: 1 64 35 35 (78400)
I1019 17:33:30.217880  3535 net.cpp:165] Memory required for data: 30756256
I1019 17:33:30.217888  3535 layer_factory.hpp:77] Creating layer conv2_2_1x1_increase
I1019 17:33:30.217909  3535 net.cpp:106] Creating Layer conv2_2_1x1_increase
I1019 17:33:30.217918  3535 net.cpp:454] conv2_2_1x1_increase <- conv2_2_3x3
I1019 17:33:30.217928  3535 net.cpp:411] conv2_2_1x1_increase -> conv2_2_1x1_increase
I1019 17:33:30.218176  3535 net.cpp:150] Setting up conv2_2_1x1_increase
I1019 17:33:30.218189  3535 net.cpp:157] Top shape: 1 256 35 35 (313600)
I1019 17:33:30.218196  3535 net.cpp:165] Memory required for data: 32010656
I1019 17:33:30.218204  3535 layer_factory.hpp:77] Creating layer conv2_2_1x1_increase/bn
I1019 17:33:30.218215  3535 net.cpp:106] Creating Layer conv2_2_1x1_increase/bn
I1019 17:33:30.218225  3535 net.cpp:454] conv2_2_1x1_increase/bn <- conv2_2_1x1_increase
I1019 17:33:30.218235  3535 net.cpp:397] conv2_2_1x1_increase/bn -> conv2_2_1x1_increase (in-place)
I1019 17:33:30.218369  3535 net.cpp:150] Setting up conv2_2_1x1_increase/bn
I1019 17:33:30.218380  3535 net.cpp:157] Top shape: 1 256 35 35 (313600)
I1019 17:33:30.218387  3535 net.cpp:165] Memory required for data: 33265056
I1019 17:33:30.218399  3535 layer_factory.hpp:77] Creating layer conv2_2
I1019 17:33:30.218407  3535 net.cpp:106] Creating Layer conv2_2
I1019 17:33:30.218416  3535 net.cpp:454] conv2_2 <- conv2_1_conv2_1/relu_0_split_1
I1019 17:33:30.218425  3535 net.cpp:454] conv2_2 <- conv2_2_1x1_increase
I1019 17:33:30.218435  3535 net.cpp:411] conv2_2 -> conv2_2
I1019 17:33:30.218457  3535 net.cpp:150] Setting up conv2_2
I1019 17:33:30.218467  3535 net.cpp:157] Top shape: 1 256 35 35 (313600)
I1019 17:33:30.218474  3535 net.cpp:165] Memory required for data: 34519456
I1019 17:33:30.218482  3535 layer_factory.hpp:77] Creating layer conv2_2/relu
I1019 17:33:30.218492  3535 net.cpp:106] Creating Layer conv2_2/relu
I1019 17:33:30.218500  3535 net.cpp:454] conv2_2/relu <- conv2_2
I1019 17:33:30.218508  3535 net.cpp:397] conv2_2/relu -> conv2_2 (in-place)
I1019 17:33:30.218518  3535 net.cpp:150] Setting up conv2_2/relu
I1019 17:33:30.218528  3535 net.cpp:157] Top shape: 1 256 35 35 (313600)
I1019 17:33:30.218534  3535 net.cpp:165] Memory required for data: 35773856
I1019 17:33:30.218541  3535 layer_factory.hpp:77] Creating layer conv2_2_conv2_2/relu_0_split
I1019 17:33:30.218551  3535 net.cpp:106] Creating Layer conv2_2_conv2_2/relu_0_split
I1019 17:33:30.218559  3535 net.cpp:454] conv2_2_conv2_2/relu_0_split <- conv2_2
I1019 17:33:30.218569  3535 net.cpp:411] conv2_2_conv2_2/relu_0_split -> conv2_2_conv2_2/relu_0_split_0
I1019 17:33:30.218580  3535 net.cpp:411] conv2_2_conv2_2/relu_0_split -> conv2_2_conv2_2/relu_0_split_1
I1019 17:33:30.218610  3535 net.cpp:150] Setting up conv2_2_conv2_2/relu_0_split
I1019 17:33:30.218621  3535 net.cpp:157] Top shape: 1 256 35 35 (313600)
I1019 17:33:30.218629  3535 net.cpp:157] Top shape: 1 256 35 35 (313600)
I1019 17:33:30.218636  3535 net.cpp:165] Memory required for data: 38282656
I1019 17:33:30.218643  3535 layer_factory.hpp:77] Creating layer conv2_3_1x1_reduce
I1019 17:33:30.218657  3535 net.cpp:106] Creating Layer conv2_3_1x1_reduce
I1019 17:33:30.218667  3535 net.cpp:454] conv2_3_1x1_reduce <- conv2_2_conv2_2/relu_0_split_0
I1019 17:33:30.218678  3535 net.cpp:411] conv2_3_1x1_reduce -> conv2_3_1x1_reduce
I1019 17:33:30.218928  3535 net.cpp:150] Setting up conv2_3_1x1_reduce
I1019 17:33:30.218942  3535 net.cpp:157] Top shape: 1 64 35 35 (78400)
I1019 17:33:30.218950  3535 net.cpp:165] Memory required for data: 38596256
I1019 17:33:30.218960  3535 layer_factory.hpp:77] Creating layer conv2_3_1x1_reduce/bn
I1019 17:33:30.218969  3535 net.cpp:106] Creating Layer conv2_3_1x1_reduce/bn
I1019 17:33:30.218977  3535 net.cpp:454] conv2_3_1x1_reduce/bn <- conv2_3_1x1_reduce
I1019 17:33:30.218989  3535 net.cpp:397] conv2_3_1x1_reduce/bn -> conv2_3_1x1_reduce (in-place)
I1019 17:33:30.219131  3535 net.cpp:150] Setting up conv2_3_1x1_reduce/bn
I1019 17:33:30.219143  3535 net.cpp:157] Top shape: 1 64 35 35 (78400)
I1019 17:33:30.219151  3535 net.cpp:165] Memory required for data: 38909856
I1019 17:33:30.219161  3535 layer_factory.hpp:77] Creating layer conv2_3_1x1_reduce/relu
I1019 17:33:30.219177  3535 net.cpp:106] Creating Layer conv2_3_1x1_reduce/relu
I1019 17:33:30.219185  3535 net.cpp:454] conv2_3_1x1_reduce/relu <- conv2_3_1x1_reduce
I1019 17:33:30.219194  3535 net.cpp:397] conv2_3_1x1_reduce/relu -> conv2_3_1x1_reduce (in-place)
I1019 17:33:30.219204  3535 net.cpp:150] Setting up conv2_3_1x1_reduce/relu
I1019 17:33:30.219213  3535 net.cpp:157] Top shape: 1 64 35 35 (78400)
I1019 17:33:30.219220  3535 net.cpp:165] Memory required for data: 39223456
I1019 17:33:30.219226  3535 layer_factory.hpp:77] Creating layer conv2_3_3x3
I1019 17:33:30.219233  3535 net.cpp:106] Creating Layer conv2_3_3x3
I1019 17:33:30.219235  3535 net.cpp:454] conv2_3_3x3 <- conv2_3_1x1_reduce
I1019 17:33:30.219240  3535 net.cpp:411] conv2_3_3x3 -> conv2_3_3x3
I1019 17:33:30.220196  3535 net.cpp:150] Setting up conv2_3_3x3
I1019 17:33:30.220203  3535 net.cpp:157] Top shape: 1 64 35 35 (78400)
I1019 17:33:30.220206  3535 net.cpp:165] Memory required for data: 39537056
I1019 17:33:30.220208  3535 layer_factory.hpp:77] Creating layer conv2_3_3x3/bn
I1019 17:33:30.220214  3535 net.cpp:106] Creating Layer conv2_3_3x3/bn
I1019 17:33:30.220216  3535 net.cpp:454] conv2_3_3x3/bn <- conv2_3_3x3
I1019 17:33:30.220221  3535 net.cpp:397] conv2_3_3x3/bn -> conv2_3_3x3 (in-place)
I1019 17:33:30.220361  3535 net.cpp:150] Setting up conv2_3_3x3/bn
I1019 17:33:30.220366  3535 net.cpp:157] Top shape: 1 64 35 35 (78400)
I1019 17:33:30.220366  3535 net.cpp:165] Memory required for data: 39850656
I1019 17:33:30.220371  3535 layer_factory.hpp:77] Creating layer conv2_3_3x3/relu
I1019 17:33:30.220376  3535 net.cpp:106] Creating Layer conv2_3_3x3/relu
I1019 17:33:30.220377  3535 net.cpp:454] conv2_3_3x3/relu <- conv2_3_3x3
I1019 17:33:30.220381  3535 net.cpp:397] conv2_3_3x3/relu -> conv2_3_3x3 (in-place)
I1019 17:33:30.220383  3535 net.cpp:150] Setting up conv2_3_3x3/relu
I1019 17:33:30.220386  3535 net.cpp:157] Top shape: 1 64 35 35 (78400)
I1019 17:33:30.220387  3535 net.cpp:165] Memory required for data: 40164256
I1019 17:33:30.220389  3535 layer_factory.hpp:77] Creating layer conv2_3_1x1_increase
I1019 17:33:30.220394  3535 net.cpp:106] Creating Layer conv2_3_1x1_increase
I1019 17:33:30.220396  3535 net.cpp:454] conv2_3_1x1_increase <- conv2_3_3x3
I1019 17:33:30.220401  3535 net.cpp:411] conv2_3_1x1_increase -> conv2_3_1x1_increase
I1019 17:33:30.220641  3535 net.cpp:150] Setting up conv2_3_1x1_increase
I1019 17:33:30.220646  3535 net.cpp:157] Top shape: 1 256 35 35 (313600)
I1019 17:33:30.220649  3535 net.cpp:165] Memory required for data: 41418656
I1019 17:33:30.220650  3535 layer_factory.hpp:77] Creating layer conv2_3_1x1_increase/bn
I1019 17:33:30.220655  3535 net.cpp:106] Creating Layer conv2_3_1x1_increase/bn
I1019 17:33:30.220657  3535 net.cpp:454] conv2_3_1x1_increase/bn <- conv2_3_1x1_increase
I1019 17:33:30.220660  3535 net.cpp:397] conv2_3_1x1_increase/bn -> conv2_3_1x1_increase (in-place)
I1019 17:33:30.220783  3535 net.cpp:150] Setting up conv2_3_1x1_increase/bn
I1019 17:33:30.220788  3535 net.cpp:157] Top shape: 1 256 35 35 (313600)
I1019 17:33:30.220789  3535 net.cpp:165] Memory required for data: 42673056
I1019 17:33:30.220798  3535 layer_factory.hpp:77] Creating layer conv2_3
I1019 17:33:30.220803  3535 net.cpp:106] Creating Layer conv2_3
I1019 17:33:30.220805  3535 net.cpp:454] conv2_3 <- conv2_2_conv2_2/relu_0_split_1
I1019 17:33:30.220808  3535 net.cpp:454] conv2_3 <- conv2_3_1x1_increase
I1019 17:33:30.220811  3535 net.cpp:411] conv2_3 -> conv2_3
I1019 17:33:30.220825  3535 net.cpp:150] Setting up conv2_3
I1019 17:33:30.220829  3535 net.cpp:157] Top shape: 1 256 35 35 (313600)
I1019 17:33:30.220831  3535 net.cpp:165] Memory required for data: 43927456
I1019 17:33:30.220834  3535 layer_factory.hpp:77] Creating layer conv2_3/relu
I1019 17:33:30.220836  3535 net.cpp:106] Creating Layer conv2_3/relu
I1019 17:33:30.220837  3535 net.cpp:454] conv2_3/relu <- conv2_3
I1019 17:33:30.220840  3535 net.cpp:397] conv2_3/relu -> conv2_3 (in-place)
I1019 17:33:30.220844  3535 net.cpp:150] Setting up conv2_3/relu
I1019 17:33:30.220846  3535 net.cpp:157] Top shape: 1 256 35 35 (313600)
I1019 17:33:30.220855  3535 net.cpp:165] Memory required for data: 45181856
I1019 17:33:30.220857  3535 layer_factory.hpp:77] Creating layer conv2_3_conv2_3/relu_0_split
I1019 17:33:30.220861  3535 net.cpp:106] Creating Layer conv2_3_conv2_3/relu_0_split
I1019 17:33:30.220863  3535 net.cpp:454] conv2_3_conv2_3/relu_0_split <- conv2_3
I1019 17:33:30.220866  3535 net.cpp:411] conv2_3_conv2_3/relu_0_split -> conv2_3_conv2_3/relu_0_split_0
I1019 17:33:30.220871  3535 net.cpp:411] conv2_3_conv2_3/relu_0_split -> conv2_3_conv2_3/relu_0_split_1
I1019 17:33:30.220893  3535 net.cpp:150] Setting up conv2_3_conv2_3/relu_0_split
I1019 17:33:30.220896  3535 net.cpp:157] Top shape: 1 256 35 35 (313600)
I1019 17:33:30.220899  3535 net.cpp:157] Top shape: 1 256 35 35 (313600)
I1019 17:33:30.220901  3535 net.cpp:165] Memory required for data: 47690656
I1019 17:33:30.220902  3535 layer_factory.hpp:77] Creating layer conv3_1_1x1_reduce
I1019 17:33:30.220908  3535 net.cpp:106] Creating Layer conv3_1_1x1_reduce
I1019 17:33:30.220911  3535 net.cpp:454] conv3_1_1x1_reduce <- conv2_3_conv2_3/relu_0_split_0
I1019 17:33:30.220914  3535 net.cpp:411] conv3_1_1x1_reduce -> conv3_1_1x1_reduce
I1019 17:33:30.221266  3535 net.cpp:150] Setting up conv3_1_1x1_reduce
I1019 17:33:30.221271  3535 net.cpp:157] Top shape: 1 128 35 35 (156800)
I1019 17:33:30.221272  3535 net.cpp:165] Memory required for data: 48317856
I1019 17:33:30.221276  3535 layer_factory.hpp:77] Creating layer conv3_1_1x1_reduce/bn
I1019 17:33:30.221280  3535 net.cpp:106] Creating Layer conv3_1_1x1_reduce/bn
I1019 17:33:30.221282  3535 net.cpp:454] conv3_1_1x1_reduce/bn <- conv3_1_1x1_reduce
I1019 17:33:30.221285  3535 net.cpp:397] conv3_1_1x1_reduce/bn -> conv3_1_1x1_reduce (in-place)
I1019 17:33:30.221407  3535 net.cpp:150] Setting up conv3_1_1x1_reduce/bn
I1019 17:33:30.221411  3535 net.cpp:157] Top shape: 1 128 35 35 (156800)
I1019 17:33:30.221412  3535 net.cpp:165] Memory required for data: 48945056
I1019 17:33:30.221417  3535 layer_factory.hpp:77] Creating layer conv3_1_1x1_reduce/relu
I1019 17:33:30.221421  3535 net.cpp:106] Creating Layer conv3_1_1x1_reduce/relu
I1019 17:33:30.221422  3535 net.cpp:454] conv3_1_1x1_reduce/relu <- conv3_1_1x1_reduce
I1019 17:33:30.221424  3535 net.cpp:397] conv3_1_1x1_reduce/relu -> conv3_1_1x1_reduce (in-place)
I1019 17:33:30.221428  3535 net.cpp:150] Setting up conv3_1_1x1_reduce/relu
I1019 17:33:30.221431  3535 net.cpp:157] Top shape: 1 128 35 35 (156800)
I1019 17:33:30.221432  3535 net.cpp:165] Memory required for data: 49572256
I1019 17:33:30.221434  3535 layer_factory.hpp:77] Creating layer conv3_1_3x3
I1019 17:33:30.221439  3535 net.cpp:106] Creating Layer conv3_1_3x3
I1019 17:33:30.221441  3535 net.cpp:454] conv3_1_3x3 <- conv3_1_1x1_reduce
I1019 17:33:30.221446  3535 net.cpp:411] conv3_1_3x3 -> conv3_1_3x3
I1019 17:33:30.222666  3535 net.cpp:150] Setting up conv3_1_3x3
I1019 17:33:30.222671  3535 net.cpp:157] Top shape: 1 128 18 18 (41472)
I1019 17:33:30.222672  3535 net.cpp:165] Memory required for data: 49738144
I1019 17:33:30.222674  3535 layer_factory.hpp:77] Creating layer conv3_1_3x3/bn
I1019 17:33:30.222678  3535 net.cpp:106] Creating Layer conv3_1_3x3/bn
I1019 17:33:30.222681  3535 net.cpp:454] conv3_1_3x3/bn <- conv3_1_3x3
I1019 17:33:30.222683  3535 net.cpp:397] conv3_1_3x3/bn -> conv3_1_3x3 (in-place)
I1019 17:33:30.223393  3535 net.cpp:150] Setting up conv3_1_3x3/bn
I1019 17:33:30.223400  3535 net.cpp:157] Top shape: 1 128 18 18 (41472)
I1019 17:33:30.223402  3535 net.cpp:165] Memory required for data: 49904032
I1019 17:33:30.223407  3535 layer_factory.hpp:77] Creating layer conv3_1_3x3/relu
I1019 17:33:30.223412  3535 net.cpp:106] Creating Layer conv3_1_3x3/relu
I1019 17:33:30.223414  3535 net.cpp:454] conv3_1_3x3/relu <- conv3_1_3x3
I1019 17:33:30.223417  3535 net.cpp:397] conv3_1_3x3/relu -> conv3_1_3x3 (in-place)
I1019 17:33:30.223422  3535 net.cpp:150] Setting up conv3_1_3x3/relu
I1019 17:33:30.223424  3535 net.cpp:157] Top shape: 1 128 18 18 (41472)
I1019 17:33:30.223426  3535 net.cpp:165] Memory required for data: 50069920
I1019 17:33:30.223434  3535 layer_factory.hpp:77] Creating layer conv3_1_1x1_increase
I1019 17:33:30.223439  3535 net.cpp:106] Creating Layer conv3_1_1x1_increase
I1019 17:33:30.223441  3535 net.cpp:454] conv3_1_1x1_increase <- conv3_1_3x3
I1019 17:33:30.223445  3535 net.cpp:411] conv3_1_1x1_increase -> conv3_1_1x1_increase
I1019 17:33:30.224042  3535 net.cpp:150] Setting up conv3_1_1x1_increase
I1019 17:33:30.224047  3535 net.cpp:157] Top shape: 1 512 18 18 (165888)
I1019 17:33:30.224048  3535 net.cpp:165] Memory required for data: 50733472
I1019 17:33:30.224071  3535 layer_factory.hpp:77] Creating layer conv3_1_1x1_increase/bn
I1019 17:33:30.224074  3535 net.cpp:106] Creating Layer conv3_1_1x1_increase/bn
I1019 17:33:30.224076  3535 net.cpp:454] conv3_1_1x1_increase/bn <- conv3_1_1x1_increase
I1019 17:33:30.224081  3535 net.cpp:397] conv3_1_1x1_increase/bn -> conv3_1_1x1_increase (in-place)
I1019 17:33:30.224231  3535 net.cpp:150] Setting up conv3_1_1x1_increase/bn
I1019 17:33:30.224236  3535 net.cpp:157] Top shape: 1 512 18 18 (165888)
I1019 17:33:30.224237  3535 net.cpp:165] Memory required for data: 51397024
I1019 17:33:30.224244  3535 layer_factory.hpp:77] Creating layer conv3_1_1x1_proj
I1019 17:33:30.224253  3535 net.cpp:106] Creating Layer conv3_1_1x1_proj
I1019 17:33:30.224257  3535 net.cpp:454] conv3_1_1x1_proj <- conv2_3_conv2_3/relu_0_split_1
I1019 17:33:30.224262  3535 net.cpp:411] conv3_1_1x1_proj -> conv3_1_1x1_proj
I1019 17:33:30.228386  3535 net.cpp:150] Setting up conv3_1_1x1_proj
I1019 17:33:30.228410  3535 net.cpp:157] Top shape: 1 512 18 18 (165888)
I1019 17:33:30.228420  3535 net.cpp:165] Memory required for data: 52060576
I1019 17:33:30.228430  3535 layer_factory.hpp:77] Creating layer conv3_1_1x1_proj/bn
I1019 17:33:30.228442  3535 net.cpp:106] Creating Layer conv3_1_1x1_proj/bn
I1019 17:33:30.228451  3535 net.cpp:454] conv3_1_1x1_proj/bn <- conv3_1_1x1_proj
I1019 17:33:30.228466  3535 net.cpp:397] conv3_1_1x1_proj/bn -> conv3_1_1x1_proj (in-place)
I1019 17:33:30.230787  3535 net.cpp:150] Setting up conv3_1_1x1_proj/bn
I1019 17:33:30.230808  3535 net.cpp:157] Top shape: 1 512 18 18 (165888)
I1019 17:33:30.230815  3535 net.cpp:165] Memory required for data: 52724128
I1019 17:33:30.230829  3535 layer_factory.hpp:77] Creating layer conv3_1
I1019 17:33:30.230841  3535 net.cpp:106] Creating Layer conv3_1
I1019 17:33:30.230849  3535 net.cpp:454] conv3_1 <- conv3_1_1x1_proj
I1019 17:33:30.230859  3535 net.cpp:454] conv3_1 <- conv3_1_1x1_increase
I1019 17:33:30.230870  3535 net.cpp:411] conv3_1 -> conv3_1
I1019 17:33:30.230903  3535 net.cpp:150] Setting up conv3_1
I1019 17:33:30.230919  3535 net.cpp:157] Top shape: 1 512 18 18 (165888)
I1019 17:33:30.230929  3535 net.cpp:165] Memory required for data: 53387680
I1019 17:33:30.230937  3535 layer_factory.hpp:77] Creating layer conv3_1/relu
I1019 17:33:30.230947  3535 net.cpp:106] Creating Layer conv3_1/relu
I1019 17:33:30.230954  3535 net.cpp:454] conv3_1/relu <- conv3_1
I1019 17:33:30.230964  3535 net.cpp:397] conv3_1/relu -> conv3_1 (in-place)
I1019 17:33:30.230975  3535 net.cpp:150] Setting up conv3_1/relu
I1019 17:33:30.230984  3535 net.cpp:157] Top shape: 1 512 18 18 (165888)
I1019 17:33:30.230991  3535 net.cpp:165] Memory required for data: 54051232
I1019 17:33:30.230998  3535 layer_factory.hpp:77] Creating layer conv3_1_conv3_1/relu_0_split
I1019 17:33:30.231009  3535 net.cpp:106] Creating Layer conv3_1_conv3_1/relu_0_split
I1019 17:33:30.231017  3535 net.cpp:454] conv3_1_conv3_1/relu_0_split <- conv3_1
I1019 17:33:30.231026  3535 net.cpp:411] conv3_1_conv3_1/relu_0_split -> conv3_1_conv3_1/relu_0_split_0
I1019 17:33:30.231037  3535 net.cpp:411] conv3_1_conv3_1/relu_0_split -> conv3_1_conv3_1/relu_0_split_1
I1019 17:33:30.231070  3535 net.cpp:150] Setting up conv3_1_conv3_1/relu_0_split
I1019 17:33:30.231081  3535 net.cpp:157] Top shape: 1 512 18 18 (165888)
I1019 17:33:30.231088  3535 net.cpp:157] Top shape: 1 512 18 18 (165888)
I1019 17:33:30.231101  3535 net.cpp:165] Memory required for data: 55378336
I1019 17:33:30.231112  3535 layer_factory.hpp:77] Creating layer conv3_2_1x1_reduce
I1019 17:33:30.231122  3535 net.cpp:106] Creating Layer conv3_2_1x1_reduce
I1019 17:33:30.231123  3535 net.cpp:454] conv3_2_1x1_reduce <- conv3_1_conv3_1/relu_0_split_0
I1019 17:33:30.231128  3535 net.cpp:411] conv3_2_1x1_reduce -> conv3_2_1x1_reduce
I1019 17:33:30.231745  3535 net.cpp:150] Setting up conv3_2_1x1_reduce
I1019 17:33:30.231750  3535 net.cpp:157] Top shape: 1 128 18 18 (41472)
I1019 17:33:30.231751  3535 net.cpp:165] Memory required for data: 55544224
I1019 17:33:30.231755  3535 layer_factory.hpp:77] Creating layer conv3_2_1x1_reduce/bn
I1019 17:33:30.231760  3535 net.cpp:106] Creating Layer conv3_2_1x1_reduce/bn
I1019 17:33:30.231761  3535 net.cpp:454] conv3_2_1x1_reduce/bn <- conv3_2_1x1_reduce
I1019 17:33:30.231765  3535 net.cpp:397] conv3_2_1x1_reduce/bn -> conv3_2_1x1_reduce (in-place)
I1019 17:33:30.231892  3535 net.cpp:150] Setting up conv3_2_1x1_reduce/bn
I1019 17:33:30.231895  3535 net.cpp:157] Top shape: 1 128 18 18 (41472)
I1019 17:33:30.231897  3535 net.cpp:165] Memory required for data: 55710112
I1019 17:33:30.231902  3535 layer_factory.hpp:77] Creating layer conv3_2_1x1_reduce/relu
I1019 17:33:30.231905  3535 net.cpp:106] Creating Layer conv3_2_1x1_reduce/relu
I1019 17:33:30.231907  3535 net.cpp:454] conv3_2_1x1_reduce/relu <- conv3_2_1x1_reduce
I1019 17:33:30.231911  3535 net.cpp:397] conv3_2_1x1_reduce/relu -> conv3_2_1x1_reduce (in-place)
I1019 17:33:30.231914  3535 net.cpp:150] Setting up conv3_2_1x1_reduce/relu
I1019 17:33:30.231917  3535 net.cpp:157] Top shape: 1 128 18 18 (41472)
I1019 17:33:30.231919  3535 net.cpp:165] Memory required for data: 55876000
I1019 17:33:30.231920  3535 layer_factory.hpp:77] Creating layer conv3_2_3x3
I1019 17:33:30.231935  3535 net.cpp:106] Creating Layer conv3_2_3x3
I1019 17:33:30.231936  3535 net.cpp:454] conv3_2_3x3 <- conv3_2_1x1_reduce
I1019 17:33:30.231940  3535 net.cpp:411] conv3_2_3x3 -> conv3_2_3x3
I1019 17:33:30.233160  3535 net.cpp:150] Setting up conv3_2_3x3
I1019 17:33:30.233163  3535 net.cpp:157] Top shape: 1 128 18 18 (41472)
I1019 17:33:30.233165  3535 net.cpp:165] Memory required for data: 56041888
I1019 17:33:30.233168  3535 layer_factory.hpp:77] Creating layer conv3_2_3x3/bn
I1019 17:33:30.233172  3535 net.cpp:106] Creating Layer conv3_2_3x3/bn
I1019 17:33:30.233175  3535 net.cpp:454] conv3_2_3x3/bn <- conv3_2_3x3
I1019 17:33:30.233178  3535 net.cpp:397] conv3_2_3x3/bn -> conv3_2_3x3 (in-place)
I1019 17:33:30.233302  3535 net.cpp:150] Setting up conv3_2_3x3/bn
I1019 17:33:30.233305  3535 net.cpp:157] Top shape: 1 128 18 18 (41472)
I1019 17:33:30.233307  3535 net.cpp:165] Memory required for data: 56207776
I1019 17:33:30.233311  3535 layer_factory.hpp:77] Creating layer conv3_2_3x3/relu
I1019 17:33:30.233314  3535 net.cpp:106] Creating Layer conv3_2_3x3/relu
I1019 17:33:30.233316  3535 net.cpp:454] conv3_2_3x3/relu <- conv3_2_3x3
I1019 17:33:30.233322  3535 net.cpp:397] conv3_2_3x3/relu -> conv3_2_3x3 (in-place)
I1019 17:33:30.233325  3535 net.cpp:150] Setting up conv3_2_3x3/relu
I1019 17:33:30.233328  3535 net.cpp:157] Top shape: 1 128 18 18 (41472)
I1019 17:33:30.233330  3535 net.cpp:165] Memory required for data: 56373664
I1019 17:33:30.233332  3535 layer_factory.hpp:77] Creating layer conv3_2_1x1_increase
I1019 17:33:30.233336  3535 net.cpp:106] Creating Layer conv3_2_1x1_increase
I1019 17:33:30.233338  3535 net.cpp:454] conv3_2_1x1_increase <- conv3_2_3x3
I1019 17:33:30.233341  3535 net.cpp:411] conv3_2_1x1_increase -> conv3_2_1x1_increase
I1019 17:33:30.233952  3535 net.cpp:150] Setting up conv3_2_1x1_increase
I1019 17:33:30.233955  3535 net.cpp:157] Top shape: 1 512 18 18 (165888)
I1019 17:33:30.233958  3535 net.cpp:165] Memory required for data: 57037216
I1019 17:33:30.233960  3535 layer_factory.hpp:77] Creating layer conv3_2_1x1_increase/bn
I1019 17:33:30.233964  3535 net.cpp:106] Creating Layer conv3_2_1x1_increase/bn
I1019 17:33:30.233966  3535 net.cpp:454] conv3_2_1x1_increase/bn <- conv3_2_1x1_increase
I1019 17:33:30.233969  3535 net.cpp:397] conv3_2_1x1_increase/bn -> conv3_2_1x1_increase (in-place)
I1019 17:33:30.234102  3535 net.cpp:150] Setting up conv3_2_1x1_increase/bn
I1019 17:33:30.234105  3535 net.cpp:157] Top shape: 1 512 18 18 (165888)
I1019 17:33:30.234107  3535 net.cpp:165] Memory required for data: 57700768
I1019 17:33:30.234112  3535 layer_factory.hpp:77] Creating layer conv3_2
I1019 17:33:30.234115  3535 net.cpp:106] Creating Layer conv3_2
I1019 17:33:30.234117  3535 net.cpp:454] conv3_2 <- conv3_1_conv3_1/relu_0_split_1
I1019 17:33:30.234120  3535 net.cpp:454] conv3_2 <- conv3_2_1x1_increase
I1019 17:33:30.234123  3535 net.cpp:411] conv3_2 -> conv3_2
I1019 17:33:30.234138  3535 net.cpp:150] Setting up conv3_2
I1019 17:33:30.234141  3535 net.cpp:157] Top shape: 1 512 18 18 (165888)
I1019 17:33:30.234143  3535 net.cpp:165] Memory required for data: 58364320
I1019 17:33:30.234145  3535 layer_factory.hpp:77] Creating layer conv3_2/relu
I1019 17:33:30.234148  3535 net.cpp:106] Creating Layer conv3_2/relu
I1019 17:33:30.234150  3535 net.cpp:454] conv3_2/relu <- conv3_2
I1019 17:33:30.234153  3535 net.cpp:397] conv3_2/relu -> conv3_2 (in-place)
I1019 17:33:30.234156  3535 net.cpp:150] Setting up conv3_2/relu
I1019 17:33:30.234159  3535 net.cpp:157] Top shape: 1 512 18 18 (165888)
I1019 17:33:30.234161  3535 net.cpp:165] Memory required for data: 59027872
I1019 17:33:30.234163  3535 layer_factory.hpp:77] Creating layer conv3_2_conv3_2/relu_0_split
I1019 17:33:30.234165  3535 net.cpp:106] Creating Layer conv3_2_conv3_2/relu_0_split
I1019 17:33:30.234167  3535 net.cpp:454] conv3_2_conv3_2/relu_0_split <- conv3_2
I1019 17:33:30.234170  3535 net.cpp:411] conv3_2_conv3_2/relu_0_split -> conv3_2_conv3_2/relu_0_split_0
I1019 17:33:30.234175  3535 net.cpp:411] conv3_2_conv3_2/relu_0_split -> conv3_2_conv3_2/relu_0_split_1
I1019 17:33:30.234195  3535 net.cpp:150] Setting up conv3_2_conv3_2/relu_0_split
I1019 17:33:30.234199  3535 net.cpp:157] Top shape: 1 512 18 18 (165888)
I1019 17:33:30.234201  3535 net.cpp:157] Top shape: 1 512 18 18 (165888)
I1019 17:33:30.234203  3535 net.cpp:165] Memory required for data: 60354976
I1019 17:33:30.234205  3535 layer_factory.hpp:77] Creating layer conv3_3_1x1_reduce
I1019 17:33:30.234210  3535 net.cpp:106] Creating Layer conv3_3_1x1_reduce
I1019 17:33:30.234212  3535 net.cpp:454] conv3_3_1x1_reduce <- conv3_2_conv3_2/relu_0_split_0
I1019 17:33:30.234216  3535 net.cpp:411] conv3_3_1x1_reduce -> conv3_3_1x1_reduce
I1019 17:33:30.234818  3535 net.cpp:150] Setting up conv3_3_1x1_reduce
I1019 17:33:30.234823  3535 net.cpp:157] Top shape: 1 128 18 18 (41472)
I1019 17:33:30.234824  3535 net.cpp:165] Memory required for data: 60520864
I1019 17:33:30.234827  3535 layer_factory.hpp:77] Creating layer conv3_3_1x1_reduce/bn
I1019 17:33:30.234832  3535 net.cpp:106] Creating Layer conv3_3_1x1_reduce/bn
I1019 17:33:30.234833  3535 net.cpp:454] conv3_3_1x1_reduce/bn <- conv3_3_1x1_reduce
I1019 17:33:30.234838  3535 net.cpp:397] conv3_3_1x1_reduce/bn -> conv3_3_1x1_reduce (in-place)
I1019 17:33:30.234966  3535 net.cpp:150] Setting up conv3_3_1x1_reduce/bn
I1019 17:33:30.234972  3535 net.cpp:157] Top shape: 1 128 18 18 (41472)
I1019 17:33:30.234972  3535 net.cpp:165] Memory required for data: 60686752
I1019 17:33:30.234977  3535 layer_factory.hpp:77] Creating layer conv3_3_1x1_reduce/relu
I1019 17:33:30.234982  3535 net.cpp:106] Creating Layer conv3_3_1x1_reduce/relu
I1019 17:33:30.234983  3535 net.cpp:454] conv3_3_1x1_reduce/relu <- conv3_3_1x1_reduce
I1019 17:33:30.234987  3535 net.cpp:397] conv3_3_1x1_reduce/relu -> conv3_3_1x1_reduce (in-place)
I1019 17:33:30.234989  3535 net.cpp:150] Setting up conv3_3_1x1_reduce/relu
I1019 17:33:30.234992  3535 net.cpp:157] Top shape: 1 128 18 18 (41472)
I1019 17:33:30.234993  3535 net.cpp:165] Memory required for data: 60852640
I1019 17:33:30.234995  3535 layer_factory.hpp:77] Creating layer conv3_3_3x3
I1019 17:33:30.234999  3535 net.cpp:106] Creating Layer conv3_3_3x3
I1019 17:33:30.235002  3535 net.cpp:454] conv3_3_3x3 <- conv3_3_1x1_reduce
I1019 17:33:30.235007  3535 net.cpp:411] conv3_3_3x3 -> conv3_3_3x3
I1019 17:33:30.236805  3535 net.cpp:150] Setting up conv3_3_3x3
I1019 17:33:30.236814  3535 net.cpp:157] Top shape: 1 128 18 18 (41472)
I1019 17:33:30.236815  3535 net.cpp:165] Memory required for data: 61018528
I1019 17:33:30.236819  3535 layer_factory.hpp:77] Creating layer conv3_3_3x3/bn
I1019 17:33:30.236824  3535 net.cpp:106] Creating Layer conv3_3_3x3/bn
I1019 17:33:30.236825  3535 net.cpp:454] conv3_3_3x3/bn <- conv3_3_3x3
I1019 17:33:30.236830  3535 net.cpp:397] conv3_3_3x3/bn -> conv3_3_3x3 (in-place)
I1019 17:33:30.236959  3535 net.cpp:150] Setting up conv3_3_3x3/bn
I1019 17:33:30.236963  3535 net.cpp:157] Top shape: 1 128 18 18 (41472)
I1019 17:33:30.236965  3535 net.cpp:165] Memory required for data: 61184416
I1019 17:33:30.236969  3535 layer_factory.hpp:77] Creating layer conv3_3_3x3/relu
I1019 17:33:30.236974  3535 net.cpp:106] Creating Layer conv3_3_3x3/relu
I1019 17:33:30.236976  3535 net.cpp:454] conv3_3_3x3/relu <- conv3_3_3x3
I1019 17:33:30.236979  3535 net.cpp:397] conv3_3_3x3/relu -> conv3_3_3x3 (in-place)
I1019 17:33:30.236982  3535 net.cpp:150] Setting up conv3_3_3x3/relu
I1019 17:33:30.236985  3535 net.cpp:157] Top shape: 1 128 18 18 (41472)
I1019 17:33:30.236987  3535 net.cpp:165] Memory required for data: 61350304
I1019 17:33:30.236989  3535 layer_factory.hpp:77] Creating layer conv3_3_1x1_increase
I1019 17:33:30.236994  3535 net.cpp:106] Creating Layer conv3_3_1x1_increase
I1019 17:33:30.236995  3535 net.cpp:454] conv3_3_1x1_increase <- conv3_3_3x3
I1019 17:33:30.236999  3535 net.cpp:411] conv3_3_1x1_increase -> conv3_3_1x1_increase
I1019 17:33:30.237607  3535 net.cpp:150] Setting up conv3_3_1x1_increase
I1019 17:33:30.237610  3535 net.cpp:157] Top shape: 1 512 18 18 (165888)
I1019 17:33:30.237612  3535 net.cpp:165] Memory required for data: 62013856
I1019 17:33:30.237615  3535 layer_factory.hpp:77] Creating layer conv3_3_1x1_increase/bn
I1019 17:33:30.237620  3535 net.cpp:106] Creating Layer conv3_3_1x1_increase/bn
I1019 17:33:30.237622  3535 net.cpp:454] conv3_3_1x1_increase/bn <- conv3_3_1x1_increase
I1019 17:33:30.237625  3535 net.cpp:397] conv3_3_1x1_increase/bn -> conv3_3_1x1_increase (in-place)
I1019 17:33:30.237754  3535 net.cpp:150] Setting up conv3_3_1x1_increase/bn
I1019 17:33:30.237758  3535 net.cpp:157] Top shape: 1 512 18 18 (165888)
I1019 17:33:30.237761  3535 net.cpp:165] Memory required for data: 62677408
I1019 17:33:30.237764  3535 layer_factory.hpp:77] Creating layer conv3_3
I1019 17:33:30.237768  3535 net.cpp:106] Creating Layer conv3_3
I1019 17:33:30.237771  3535 net.cpp:454] conv3_3 <- conv3_2_conv3_2/relu_0_split_1
I1019 17:33:30.237773  3535 net.cpp:454] conv3_3 <- conv3_3_1x1_increase
I1019 17:33:30.237776  3535 net.cpp:411] conv3_3 -> conv3_3
I1019 17:33:30.237790  3535 net.cpp:150] Setting up conv3_3
I1019 17:33:30.237793  3535 net.cpp:157] Top shape: 1 512 18 18 (165888)
I1019 17:33:30.237795  3535 net.cpp:165] Memory required for data: 63340960
I1019 17:33:30.237797  3535 layer_factory.hpp:77] Creating layer conv3_3/relu
I1019 17:33:30.237800  3535 net.cpp:106] Creating Layer conv3_3/relu
I1019 17:33:30.237802  3535 net.cpp:454] conv3_3/relu <- conv3_3
I1019 17:33:30.237805  3535 net.cpp:397] conv3_3/relu -> conv3_3 (in-place)
I1019 17:33:30.237808  3535 net.cpp:150] Setting up conv3_3/relu
I1019 17:33:30.237812  3535 net.cpp:157] Top shape: 1 512 18 18 (165888)
I1019 17:33:30.237813  3535 net.cpp:165] Memory required for data: 64004512
I1019 17:33:30.237814  3535 layer_factory.hpp:77] Creating layer conv3_3_conv3_3/relu_0_split
I1019 17:33:30.237818  3535 net.cpp:106] Creating Layer conv3_3_conv3_3/relu_0_split
I1019 17:33:30.237819  3535 net.cpp:454] conv3_3_conv3_3/relu_0_split <- conv3_3
I1019 17:33:30.237823  3535 net.cpp:411] conv3_3_conv3_3/relu_0_split -> conv3_3_conv3_3/relu_0_split_0
I1019 17:33:30.237828  3535 net.cpp:411] conv3_3_conv3_3/relu_0_split -> conv3_3_conv3_3/relu_0_split_1
I1019 17:33:30.237848  3535 net.cpp:150] Setting up conv3_3_conv3_3/relu_0_split
I1019 17:33:30.237851  3535 net.cpp:157] Top shape: 1 512 18 18 (165888)
I1019 17:33:30.237861  3535 net.cpp:157] Top shape: 1 512 18 18 (165888)
I1019 17:33:30.237864  3535 net.cpp:165] Memory required for data: 65331616
I1019 17:33:30.237864  3535 layer_factory.hpp:77] Creating layer conv3_4_1x1_reduce
I1019 17:33:30.237871  3535 net.cpp:106] Creating Layer conv3_4_1x1_reduce
I1019 17:33:30.237874  3535 net.cpp:454] conv3_4_1x1_reduce <- conv3_3_conv3_3/relu_0_split_0
I1019 17:33:30.237877  3535 net.cpp:411] conv3_4_1x1_reduce -> conv3_4_1x1_reduce
I1019 17:33:30.238481  3535 net.cpp:150] Setting up conv3_4_1x1_reduce
I1019 17:33:30.238484  3535 net.cpp:157] Top shape: 1 128 18 18 (41472)
I1019 17:33:30.238487  3535 net.cpp:165] Memory required for data: 65497504
I1019 17:33:30.238489  3535 layer_factory.hpp:77] Creating layer conv3_4_1x1_reduce/bn
I1019 17:33:30.238493  3535 net.cpp:106] Creating Layer conv3_4_1x1_reduce/bn
I1019 17:33:30.238495  3535 net.cpp:454] conv3_4_1x1_reduce/bn <- conv3_4_1x1_reduce
I1019 17:33:30.238499  3535 net.cpp:397] conv3_4_1x1_reduce/bn -> conv3_4_1x1_reduce (in-place)
I1019 17:33:30.238626  3535 net.cpp:150] Setting up conv3_4_1x1_reduce/bn
I1019 17:33:30.238629  3535 net.cpp:157] Top shape: 1 128 18 18 (41472)
I1019 17:33:30.238631  3535 net.cpp:165] Memory required for data: 65663392
I1019 17:33:30.238636  3535 layer_factory.hpp:77] Creating layer conv3_4_1x1_reduce/relu
I1019 17:33:30.238639  3535 net.cpp:106] Creating Layer conv3_4_1x1_reduce/relu
I1019 17:33:30.238641  3535 net.cpp:454] conv3_4_1x1_reduce/relu <- conv3_4_1x1_reduce
I1019 17:33:30.238644  3535 net.cpp:397] conv3_4_1x1_reduce/relu -> conv3_4_1x1_reduce (in-place)
I1019 17:33:30.238647  3535 net.cpp:150] Setting up conv3_4_1x1_reduce/relu
I1019 17:33:30.238651  3535 net.cpp:157] Top shape: 1 128 18 18 (41472)
I1019 17:33:30.238652  3535 net.cpp:165] Memory required for data: 65829280
I1019 17:33:30.238653  3535 layer_factory.hpp:77] Creating layer conv3_4_3x3
I1019 17:33:30.238658  3535 net.cpp:106] Creating Layer conv3_4_3x3
I1019 17:33:30.238659  3535 net.cpp:454] conv3_4_3x3 <- conv3_4_1x1_reduce
I1019 17:33:30.238664  3535 net.cpp:411] conv3_4_3x3 -> conv3_4_3x3
I1019 17:33:30.239881  3535 net.cpp:150] Setting up conv3_4_3x3
I1019 17:33:30.239886  3535 net.cpp:157] Top shape: 1 128 18 18 (41472)
I1019 17:33:30.239888  3535 net.cpp:165] Memory required for data: 65995168
I1019 17:33:30.239892  3535 layer_factory.hpp:77] Creating layer conv3_4_3x3/bn
I1019 17:33:30.239895  3535 net.cpp:106] Creating Layer conv3_4_3x3/bn
I1019 17:33:30.239897  3535 net.cpp:454] conv3_4_3x3/bn <- conv3_4_3x3
I1019 17:33:30.239900  3535 net.cpp:397] conv3_4_3x3/bn -> conv3_4_3x3 (in-place)
I1019 17:33:30.240022  3535 net.cpp:150] Setting up conv3_4_3x3/bn
I1019 17:33:30.240026  3535 net.cpp:157] Top shape: 1 128 18 18 (41472)
I1019 17:33:30.240028  3535 net.cpp:165] Memory required for data: 66161056
I1019 17:33:30.240032  3535 layer_factory.hpp:77] Creating layer conv3_4_3x3/relu
I1019 17:33:30.240036  3535 net.cpp:106] Creating Layer conv3_4_3x3/relu
I1019 17:33:30.240037  3535 net.cpp:454] conv3_4_3x3/relu <- conv3_4_3x3
I1019 17:33:30.240039  3535 net.cpp:397] conv3_4_3x3/relu -> conv3_4_3x3 (in-place)
I1019 17:33:30.240042  3535 net.cpp:150] Setting up conv3_4_3x3/relu
I1019 17:33:30.240046  3535 net.cpp:157] Top shape: 1 128 18 18 (41472)
I1019 17:33:30.240047  3535 net.cpp:165] Memory required for data: 66326944
I1019 17:33:30.240048  3535 layer_factory.hpp:77] Creating layer conv3_4_1x1_increase
I1019 17:33:30.240053  3535 net.cpp:106] Creating Layer conv3_4_1x1_increase
I1019 17:33:30.240056  3535 net.cpp:454] conv3_4_1x1_increase <- conv3_4_3x3
I1019 17:33:30.240059  3535 net.cpp:411] conv3_4_1x1_increase -> conv3_4_1x1_increase
I1019 17:33:30.241241  3535 net.cpp:150] Setting up conv3_4_1x1_increase
I1019 17:33:30.241248  3535 net.cpp:157] Top shape: 1 512 18 18 (165888)
I1019 17:33:30.241250  3535 net.cpp:165] Memory required for data: 66990496
I1019 17:33:30.241253  3535 layer_factory.hpp:77] Creating layer conv3_4_1x1_increase/bn
I1019 17:33:30.241259  3535 net.cpp:106] Creating Layer conv3_4_1x1_increase/bn
I1019 17:33:30.241271  3535 net.cpp:454] conv3_4_1x1_increase/bn <- conv3_4_1x1_increase
I1019 17:33:30.241274  3535 net.cpp:397] conv3_4_1x1_increase/bn -> conv3_4_1x1_increase (in-place)
I1019 17:33:30.241408  3535 net.cpp:150] Setting up conv3_4_1x1_increase/bn
I1019 17:33:30.241412  3535 net.cpp:157] Top shape: 1 512 18 18 (165888)
I1019 17:33:30.241415  3535 net.cpp:165] Memory required for data: 67654048
I1019 17:33:30.241432  3535 layer_factory.hpp:77] Creating layer conv3_4
I1019 17:33:30.241437  3535 net.cpp:106] Creating Layer conv3_4
I1019 17:33:30.241439  3535 net.cpp:454] conv3_4 <- conv3_3_conv3_3/relu_0_split_1
I1019 17:33:30.241442  3535 net.cpp:454] conv3_4 <- conv3_4_1x1_increase
I1019 17:33:30.241446  3535 net.cpp:411] conv3_4 -> conv3_4
I1019 17:33:30.241461  3535 net.cpp:150] Setting up conv3_4
I1019 17:33:30.241463  3535 net.cpp:157] Top shape: 1 512 18 18 (165888)
I1019 17:33:30.241466  3535 net.cpp:165] Memory required for data: 68317600
I1019 17:33:30.241467  3535 layer_factory.hpp:77] Creating layer conv3_4/relu
I1019 17:33:30.241470  3535 net.cpp:106] Creating Layer conv3_4/relu
I1019 17:33:30.241472  3535 net.cpp:454] conv3_4/relu <- conv3_4
I1019 17:33:30.241477  3535 net.cpp:397] conv3_4/relu -> conv3_4 (in-place)
I1019 17:33:30.241479  3535 net.cpp:150] Setting up conv3_4/relu
I1019 17:33:30.241482  3535 net.cpp:157] Top shape: 1 512 18 18 (165888)
I1019 17:33:30.241484  3535 net.cpp:165] Memory required for data: 68981152
I1019 17:33:30.241485  3535 layer_factory.hpp:77] Creating layer conv3_4_conv3_4/relu_0_split
I1019 17:33:30.241492  3535 net.cpp:106] Creating Layer conv3_4_conv3_4/relu_0_split
I1019 17:33:30.241493  3535 net.cpp:454] conv3_4_conv3_4/relu_0_split <- conv3_4
I1019 17:33:30.241498  3535 net.cpp:411] conv3_4_conv3_4/relu_0_split -> conv3_4_conv3_4/relu_0_split_0
I1019 17:33:30.241503  3535 net.cpp:411] conv3_4_conv3_4/relu_0_split -> conv3_4_conv3_4/relu_0_split_1
I1019 17:33:30.241524  3535 net.cpp:150] Setting up conv3_4_conv3_4/relu_0_split
I1019 17:33:30.241528  3535 net.cpp:157] Top shape: 1 512 18 18 (165888)
I1019 17:33:30.241530  3535 net.cpp:157] Top shape: 1 512 18 18 (165888)
I1019 17:33:30.241533  3535 net.cpp:165] Memory required for data: 70308256
I1019 17:33:30.241534  3535 layer_factory.hpp:77] Creating layer conv4_1_1x1_reduce
I1019 17:33:30.241539  3535 net.cpp:106] Creating Layer conv4_1_1x1_reduce
I1019 17:33:30.241542  3535 net.cpp:454] conv4_1_1x1_reduce <- conv3_4_conv3_4/relu_0_split_0
I1019 17:33:30.241545  3535 net.cpp:411] conv4_1_1x1_reduce -> conv4_1_1x1_reduce
I1019 17:33:30.242645  3535 net.cpp:150] Setting up conv4_1_1x1_reduce
I1019 17:33:30.242650  3535 net.cpp:157] Top shape: 1 256 18 18 (82944)
I1019 17:33:30.242651  3535 net.cpp:165] Memory required for data: 70640032
I1019 17:33:30.242653  3535 layer_factory.hpp:77] Creating layer conv4_1_1x1_reduce/bn
I1019 17:33:30.242658  3535 net.cpp:106] Creating Layer conv4_1_1x1_reduce/bn
I1019 17:33:30.242660  3535 net.cpp:454] conv4_1_1x1_reduce/bn <- conv4_1_1x1_reduce
I1019 17:33:30.242663  3535 net.cpp:397] conv4_1_1x1_reduce/bn -> conv4_1_1x1_reduce (in-place)
I1019 17:33:30.242790  3535 net.cpp:150] Setting up conv4_1_1x1_reduce/bn
I1019 17:33:30.242794  3535 net.cpp:157] Top shape: 1 256 18 18 (82944)
I1019 17:33:30.242795  3535 net.cpp:165] Memory required for data: 70971808
I1019 17:33:30.242800  3535 layer_factory.hpp:77] Creating layer conv4_1_1x1_reduce/relu
I1019 17:33:30.242804  3535 net.cpp:106] Creating Layer conv4_1_1x1_reduce/relu
I1019 17:33:30.242805  3535 net.cpp:454] conv4_1_1x1_reduce/relu <- conv4_1_1x1_reduce
I1019 17:33:30.242808  3535 net.cpp:397] conv4_1_1x1_reduce/relu -> conv4_1_1x1_reduce (in-place)
I1019 17:33:30.242812  3535 net.cpp:150] Setting up conv4_1_1x1_reduce/relu
I1019 17:33:30.242815  3535 net.cpp:157] Top shape: 1 256 18 18 (82944)
I1019 17:33:30.242816  3535 net.cpp:165] Memory required for data: 71303584
I1019 17:33:30.242818  3535 layer_factory.hpp:77] Creating layer conv4_1_3x3
I1019 17:33:30.242823  3535 net.cpp:106] Creating Layer conv4_1_3x3
I1019 17:33:30.242831  3535 net.cpp:454] conv4_1_3x3 <- conv4_1_1x1_reduce
I1019 17:33:30.242835  3535 net.cpp:411] conv4_1_3x3 -> conv4_1_3x3
I1019 17:33:30.276059  3535 net.cpp:150] Setting up conv4_1_3x3
I1019 17:33:30.276082  3535 net.cpp:157] Top shape: 1 256 18 18 (82944)
I1019 17:33:30.276083  3535 net.cpp:165] Memory required for data: 71635360
I1019 17:33:30.276089  3535 layer_factory.hpp:77] Creating layer conv4_1_3x3/bn
I1019 17:33:30.276100  3535 net.cpp:106] Creating Layer conv4_1_3x3/bn
I1019 17:33:30.276103  3535 net.cpp:454] conv4_1_3x3/bn <- conv4_1_3x3
I1019 17:33:30.276108  3535 net.cpp:397] conv4_1_3x3/bn -> conv4_1_3x3 (in-place)
I1019 17:33:30.276253  3535 net.cpp:150] Setting up conv4_1_3x3/bn
I1019 17:33:30.276257  3535 net.cpp:157] Top shape: 1 256 18 18 (82944)
I1019 17:33:30.276258  3535 net.cpp:165] Memory required for data: 71967136
I1019 17:33:30.276263  3535 layer_factory.hpp:77] Creating layer conv4_1_3x3/relu
I1019 17:33:30.276268  3535 net.cpp:106] Creating Layer conv4_1_3x3/relu
I1019 17:33:30.276269  3535 net.cpp:454] conv4_1_3x3/relu <- conv4_1_3x3
I1019 17:33:30.276273  3535 net.cpp:397] conv4_1_3x3/relu -> conv4_1_3x3 (in-place)
I1019 17:33:30.276275  3535 net.cpp:150] Setting up conv4_1_3x3/relu
I1019 17:33:30.276278  3535 net.cpp:157] Top shape: 1 256 18 18 (82944)
I1019 17:33:30.276280  3535 net.cpp:165] Memory required for data: 72298912
I1019 17:33:30.276281  3535 layer_factory.hpp:77] Creating layer conv4_1_1x1_increase
I1019 17:33:30.276288  3535 net.cpp:106] Creating Layer conv4_1_1x1_increase
I1019 17:33:30.276290  3535 net.cpp:454] conv4_1_1x1_increase <- conv4_1_3x3
I1019 17:33:30.276295  3535 net.cpp:411] conv4_1_1x1_increase -> conv4_1_1x1_increase
I1019 17:33:30.279042  3535 net.cpp:150] Setting up conv4_1_1x1_increase
I1019 17:33:30.279050  3535 net.cpp:157] Top shape: 1 1024 18 18 (331776)
I1019 17:33:30.279052  3535 net.cpp:165] Memory required for data: 73626016
I1019 17:33:30.279055  3535 layer_factory.hpp:77] Creating layer conv4_1_1x1_increase/bn
I1019 17:33:30.279062  3535 net.cpp:106] Creating Layer conv4_1_1x1_increase/bn
I1019 17:33:30.279064  3535 net.cpp:454] conv4_1_1x1_increase/bn <- conv4_1_1x1_increase
I1019 17:33:30.279068  3535 net.cpp:397] conv4_1_1x1_increase/bn -> conv4_1_1x1_increase (in-place)
I1019 17:33:30.279208  3535 net.cpp:150] Setting up conv4_1_1x1_increase/bn
I1019 17:33:30.279211  3535 net.cpp:157] Top shape: 1 1024 18 18 (331776)
I1019 17:33:30.279213  3535 net.cpp:165] Memory required for data: 74953120
I1019 17:33:30.279218  3535 layer_factory.hpp:77] Creating layer conv4_1_1x1_proj
I1019 17:33:30.279224  3535 net.cpp:106] Creating Layer conv4_1_1x1_proj
I1019 17:33:30.279227  3535 net.cpp:454] conv4_1_1x1_proj <- conv3_4_conv3_4/relu_0_split_1
I1019 17:33:30.279230  3535 net.cpp:411] conv4_1_1x1_proj -> conv4_1_1x1_proj
I1019 17:33:30.283757  3535 net.cpp:150] Setting up conv4_1_1x1_proj
I1019 17:33:30.283766  3535 net.cpp:157] Top shape: 1 1024 18 18 (331776)
I1019 17:33:30.283767  3535 net.cpp:165] Memory required for data: 76280224
I1019 17:33:30.283771  3535 layer_factory.hpp:77] Creating layer conv4_1_1x1_proj/bn
I1019 17:33:30.283777  3535 net.cpp:106] Creating Layer conv4_1_1x1_proj/bn
I1019 17:33:30.283780  3535 net.cpp:454] conv4_1_1x1_proj/bn <- conv4_1_1x1_proj
I1019 17:33:30.283784  3535 net.cpp:397] conv4_1_1x1_proj/bn -> conv4_1_1x1_proj (in-place)
I1019 17:33:30.283921  3535 net.cpp:150] Setting up conv4_1_1x1_proj/bn
I1019 17:33:30.283926  3535 net.cpp:157] Top shape: 1 1024 18 18 (331776)
I1019 17:33:30.283926  3535 net.cpp:165] Memory required for data: 77607328
I1019 17:33:30.283931  3535 layer_factory.hpp:77] Creating layer conv4_1
I1019 17:33:30.283936  3535 net.cpp:106] Creating Layer conv4_1
I1019 17:33:30.283938  3535 net.cpp:454] conv4_1 <- conv4_1_1x1_proj
I1019 17:33:30.283941  3535 net.cpp:454] conv4_1 <- conv4_1_1x1_increase
I1019 17:33:30.283944  3535 net.cpp:411] conv4_1 -> conv4_1
I1019 17:33:30.283959  3535 net.cpp:150] Setting up conv4_1
I1019 17:33:30.283962  3535 net.cpp:157] Top shape: 1 1024 18 18 (331776)
I1019 17:33:30.283978  3535 net.cpp:165] Memory required for data: 78934432
I1019 17:33:30.283980  3535 layer_factory.hpp:77] Creating layer conv4_1/relu
I1019 17:33:30.283983  3535 net.cpp:106] Creating Layer conv4_1/relu
I1019 17:33:30.283985  3535 net.cpp:454] conv4_1/relu <- conv4_1
I1019 17:33:30.283989  3535 net.cpp:397] conv4_1/relu -> conv4_1 (in-place)
I1019 17:33:30.283993  3535 net.cpp:150] Setting up conv4_1/relu
I1019 17:33:30.283995  3535 net.cpp:157] Top shape: 1 1024 18 18 (331776)
I1019 17:33:30.283998  3535 net.cpp:165] Memory required for data: 80261536
I1019 17:33:30.283998  3535 layer_factory.hpp:77] Creating layer conv4_1_conv4_1/relu_0_split
I1019 17:33:30.284003  3535 net.cpp:106] Creating Layer conv4_1_conv4_1/relu_0_split
I1019 17:33:30.284003  3535 net.cpp:454] conv4_1_conv4_1/relu_0_split <- conv4_1
I1019 17:33:30.284008  3535 net.cpp:411] conv4_1_conv4_1/relu_0_split -> conv4_1_conv4_1/relu_0_split_0
I1019 17:33:30.284011  3535 net.cpp:411] conv4_1_conv4_1/relu_0_split -> conv4_1_conv4_1/relu_0_split_1
I1019 17:33:30.284034  3535 net.cpp:150] Setting up conv4_1_conv4_1/relu_0_split
I1019 17:33:30.284037  3535 net.cpp:157] Top shape: 1 1024 18 18 (331776)
I1019 17:33:30.284039  3535 net.cpp:157] Top shape: 1 1024 18 18 (331776)
I1019 17:33:30.284041  3535 net.cpp:165] Memory required for data: 82915744
I1019 17:33:30.284044  3535 layer_factory.hpp:77] Creating layer conv4_2_1x1_reduce
I1019 17:33:30.284049  3535 net.cpp:106] Creating Layer conv4_2_1x1_reduce
I1019 17:33:30.284051  3535 net.cpp:454] conv4_2_1x1_reduce <- conv4_1_conv4_1/relu_0_split_0
I1019 17:33:30.284055  3535 net.cpp:411] conv4_2_1x1_reduce -> conv4_2_1x1_reduce
I1019 17:33:30.286960  3535 net.cpp:150] Setting up conv4_2_1x1_reduce
I1019 17:33:30.286972  3535 net.cpp:157] Top shape: 1 256 18 18 (82944)
I1019 17:33:30.286988  3535 net.cpp:165] Memory required for data: 83247520
I1019 17:33:30.286993  3535 layer_factory.hpp:77] Creating layer conv4_2_1x1_reduce/bn
I1019 17:33:30.287000  3535 net.cpp:106] Creating Layer conv4_2_1x1_reduce/bn
I1019 17:33:30.287003  3535 net.cpp:454] conv4_2_1x1_reduce/bn <- conv4_2_1x1_reduce
I1019 17:33:30.287014  3535 net.cpp:397] conv4_2_1x1_reduce/bn -> conv4_2_1x1_reduce (in-place)
I1019 17:33:30.287200  3535 net.cpp:150] Setting up conv4_2_1x1_reduce/bn
I1019 17:33:30.287207  3535 net.cpp:157] Top shape: 1 256 18 18 (82944)
I1019 17:33:30.287210  3535 net.cpp:165] Memory required for data: 83579296
I1019 17:33:30.287219  3535 layer_factory.hpp:77] Creating layer conv4_2_1x1_reduce/relu
I1019 17:33:30.287225  3535 net.cpp:106] Creating Layer conv4_2_1x1_reduce/relu
I1019 17:33:30.287228  3535 net.cpp:454] conv4_2_1x1_reduce/relu <- conv4_2_1x1_reduce
I1019 17:33:30.287233  3535 net.cpp:397] conv4_2_1x1_reduce/relu -> conv4_2_1x1_reduce (in-place)
I1019 17:33:30.287240  3535 net.cpp:150] Setting up conv4_2_1x1_reduce/relu
I1019 17:33:30.287245  3535 net.cpp:157] Top shape: 1 256 18 18 (82944)
I1019 17:33:30.287247  3535 net.cpp:165] Memory required for data: 83911072
I1019 17:33:30.287250  3535 layer_factory.hpp:77] Creating layer conv4_2_3x3
I1019 17:33:30.287257  3535 net.cpp:106] Creating Layer conv4_2_3x3
I1019 17:33:30.287261  3535 net.cpp:454] conv4_2_3x3 <- conv4_2_1x1_reduce
I1019 17:33:30.287266  3535 net.cpp:411] conv4_2_3x3 -> conv4_2_3x3
I1019 17:33:30.292675  3535 net.cpp:150] Setting up conv4_2_3x3
I1019 17:33:30.307436  3535 net.cpp:157] Top shape: 1 256 18 18 (82944)
I1019 17:33:30.307477  3535 net.cpp:165] Memory required for data: 84242848
I1019 17:33:30.307492  3535 layer_factory.hpp:77] Creating layer conv4_2_3x3/bn
I1019 17:33:30.307513  3535 net.cpp:106] Creating Layer conv4_2_3x3/bn
I1019 17:33:30.307523  3535 net.cpp:454] conv4_2_3x3/bn <- conv4_2_3x3
I1019 17:33:30.307534  3535 net.cpp:397] conv4_2_3x3/bn -> conv4_2_3x3 (in-place)
I1019 17:33:30.307719  3535 net.cpp:150] Setting up conv4_2_3x3/bn
I1019 17:33:30.307731  3535 net.cpp:157] Top shape: 1 256 18 18 (82944)
I1019 17:33:30.307744  3535 net.cpp:165] Memory required for data: 84574624
I1019 17:33:30.307760  3535 layer_factory.hpp:77] Creating layer conv4_2_3x3/relu
I1019 17:33:30.307770  3535 net.cpp:106] Creating Layer conv4_2_3x3/relu
I1019 17:33:30.307777  3535 net.cpp:454] conv4_2_3x3/relu <- conv4_2_3x3
I1019 17:33:30.307785  3535 net.cpp:397] conv4_2_3x3/relu -> conv4_2_3x3 (in-place)
I1019 17:33:30.307796  3535 net.cpp:150] Setting up conv4_2_3x3/relu
I1019 17:33:30.307803  3535 net.cpp:157] Top shape: 1 256 18 18 (82944)
I1019 17:33:30.307809  3535 net.cpp:165] Memory required for data: 84906400
I1019 17:33:30.307816  3535 layer_factory.hpp:77] Creating layer conv4_2_1x1_increase
I1019 17:33:30.307827  3535 net.cpp:106] Creating Layer conv4_2_1x1_increase
I1019 17:33:30.307835  3535 net.cpp:454] conv4_2_1x1_increase <- conv4_2_3x3
I1019 17:33:30.307845  3535 net.cpp:411] conv4_2_1x1_increase -> conv4_2_1x1_increase
I1019 17:33:30.310590  3535 net.cpp:150] Setting up conv4_2_1x1_increase
I1019 17:33:30.310607  3535 net.cpp:157] Top shape: 1 1024 18 18 (331776)
I1019 17:33:30.310616  3535 net.cpp:165] Memory required for data: 86233504
I1019 17:33:30.310623  3535 layer_factory.hpp:77] Creating layer conv4_2_1x1_increase/bn
I1019 17:33:30.310634  3535 net.cpp:106] Creating Layer conv4_2_1x1_increase/bn
I1019 17:33:30.310647  3535 net.cpp:454] conv4_2_1x1_increase/bn <- conv4_2_1x1_increase
I1019 17:33:30.310658  3535 net.cpp:397] conv4_2_1x1_increase/bn -> conv4_2_1x1_increase (in-place)
I1019 17:33:30.310811  3535 net.cpp:150] Setting up conv4_2_1x1_increase/bn
I1019 17:33:30.310823  3535 net.cpp:157] Top shape: 1 1024 18 18 (331776)
I1019 17:33:30.310830  3535 net.cpp:165] Memory required for data: 87560608
I1019 17:33:30.310839  3535 layer_factory.hpp:77] Creating layer conv4_2
I1019 17:33:30.310849  3535 net.cpp:106] Creating Layer conv4_2
I1019 17:33:30.310858  3535 net.cpp:454] conv4_2 <- conv4_1_conv4_1/relu_0_split_1
I1019 17:33:30.310865  3535 net.cpp:454] conv4_2 <- conv4_2_1x1_increase
I1019 17:33:30.310874  3535 net.cpp:411] conv4_2 -> conv4_2
I1019 17:33:30.310899  3535 net.cpp:150] Setting up conv4_2
I1019 17:33:30.310909  3535 net.cpp:157] Top shape: 1 1024 18 18 (331776)
I1019 17:33:30.310948  3535 net.cpp:165] Memory required for data: 88887712
I1019 17:33:30.310956  3535 layer_factory.hpp:77] Creating layer conv4_2/relu
I1019 17:33:30.310966  3535 net.cpp:106] Creating Layer conv4_2/relu
I1019 17:33:30.310986  3535 net.cpp:454] conv4_2/relu <- conv4_2
I1019 17:33:30.310997  3535 net.cpp:397] conv4_2/relu -> conv4_2 (in-place)
I1019 17:33:30.311005  3535 net.cpp:150] Setting up conv4_2/relu
I1019 17:33:30.311013  3535 net.cpp:157] Top shape: 1 1024 18 18 (331776)
I1019 17:33:30.311019  3535 net.cpp:165] Memory required for data: 90214816
I1019 17:33:30.311027  3535 layer_factory.hpp:77] Creating layer conv4_2_conv4_2/relu_0_split
I1019 17:33:30.311034  3535 net.cpp:106] Creating Layer conv4_2_conv4_2/relu_0_split
I1019 17:33:30.311041  3535 net.cpp:454] conv4_2_conv4_2/relu_0_split <- conv4_2
I1019 17:33:30.311053  3535 net.cpp:411] conv4_2_conv4_2/relu_0_split -> conv4_2_conv4_2/relu_0_split_0
I1019 17:33:30.311064  3535 net.cpp:411] conv4_2_conv4_2/relu_0_split -> conv4_2_conv4_2/relu_0_split_1
I1019 17:33:30.311074  3535 net.cpp:411] conv4_2_conv4_2/relu_0_split -> conv4_2_conv4_2/relu_0_split_2
I1019 17:33:30.311113  3535 net.cpp:150] Setting up conv4_2_conv4_2/relu_0_split
I1019 17:33:30.311121  3535 net.cpp:157] Top shape: 1 1024 18 18 (331776)
I1019 17:33:30.311125  3535 net.cpp:157] Top shape: 1 1024 18 18 (331776)
I1019 17:33:30.311126  3535 net.cpp:157] Top shape: 1 1024 18 18 (331776)
I1019 17:33:30.311128  3535 net.cpp:165] Memory required for data: 94196128
I1019 17:33:30.311131  3535 layer_factory.hpp:77] Creating layer conv_aux
I1019 17:33:30.311136  3535 net.cpp:106] Creating Layer conv_aux
I1019 17:33:30.311138  3535 net.cpp:454] conv_aux <- conv4_2_conv4_2/relu_0_split_0
I1019 17:33:30.311143  3535 net.cpp:411] conv_aux -> conv_aux
I1019 17:33:30.311453  3535 net.cpp:150] Setting up conv_aux
I1019 17:33:30.311458  3535 net.cpp:157] Top shape: 1 21 18 18 (6804)
I1019 17:33:30.311466  3535 net.cpp:165] Memory required for data: 94223344
I1019 17:33:30.311470  3535 layer_factory.hpp:77] Creating layer conv_aux_interp
I1019 17:33:30.311475  3535 net.cpp:106] Creating Layer conv_aux_interp
I1019 17:33:30.311477  3535 net.cpp:454] conv_aux_interp <- conv_aux
I1019 17:33:30.311481  3535 net.cpp:411] conv_aux_interp -> conv_aux_interp_interp
I1019 17:33:30.311499  3535 net.cpp:150] Setting up conv_aux_interp
I1019 17:33:30.311503  3535 net.cpp:157] Top shape: 1 21 137 137 (394149)
I1019 17:33:30.311506  3535 net.cpp:165] Memory required for data: 95799940
I1019 17:33:30.311506  3535 layer_factory.hpp:77] Creating layer loss_aux
I1019 17:33:30.311511  3535 net.cpp:106] Creating Layer loss_aux
I1019 17:33:30.311514  3535 net.cpp:454] loss_aux <- conv_aux_interp_interp
I1019 17:33:30.311517  3535 net.cpp:454] loss_aux <- label_data_1_split_0
I1019 17:33:30.311520  3535 net.cpp:411] loss_aux -> loss_aux
I1019 17:33:30.311527  3535 layer_factory.hpp:77] Creating layer loss_aux
I1019 17:33:30.312330  3535 net.cpp:150] Setting up loss_aux
I1019 17:33:30.312337  3535 net.cpp:157] Top shape: (1)
I1019 17:33:30.312340  3535 net.cpp:160]     with loss weight 0.4
I1019 17:33:30.312351  3535 net.cpp:165] Memory required for data: 95799944
I1019 17:33:30.312355  3535 layer_factory.hpp:77] Creating layer conv4_3_1x1_reduce
I1019 17:33:30.312361  3535 net.cpp:106] Creating Layer conv4_3_1x1_reduce
I1019 17:33:30.312364  3535 net.cpp:454] conv4_3_1x1_reduce <- conv4_2_conv4_2/relu_0_split_1
I1019 17:33:30.312369  3535 net.cpp:411] conv4_3_1x1_reduce -> conv4_3_1x1_reduce
I1019 17:33:30.314354  3535 net.cpp:150] Setting up conv4_3_1x1_reduce
I1019 17:33:30.314358  3535 net.cpp:157] Top shape: 1 256 18 18 (82944)
I1019 17:33:30.314360  3535 net.cpp:165] Memory required for data: 96131720
I1019 17:33:30.314364  3535 layer_factory.hpp:77] Creating layer conv4_3_1x1_reduce/bn
I1019 17:33:30.314368  3535 net.cpp:106] Creating Layer conv4_3_1x1_reduce/bn
I1019 17:33:30.314370  3535 net.cpp:454] conv4_3_1x1_reduce/bn <- conv4_3_1x1_reduce
I1019 17:33:30.314375  3535 net.cpp:397] conv4_3_1x1_reduce/bn -> conv4_3_1x1_reduce (in-place)
I1019 17:33:30.314507  3535 net.cpp:150] Setting up conv4_3_1x1_reduce/bn
I1019 17:33:30.314512  3535 net.cpp:157] Top shape: 1 256 18 18 (82944)
I1019 17:33:30.314512  3535 net.cpp:165] Memory required for data: 96463496
I1019 17:33:30.314517  3535 layer_factory.hpp:77] Creating layer conv4_3_1x1_reduce/relu
I1019 17:33:30.314520  3535 net.cpp:106] Creating Layer conv4_3_1x1_reduce/relu
I1019 17:33:30.314522  3535 net.cpp:454] conv4_3_1x1_reduce/relu <- conv4_3_1x1_reduce
I1019 17:33:30.314525  3535 net.cpp:397] conv4_3_1x1_reduce/relu -> conv4_3_1x1_reduce (in-place)
I1019 17:33:30.314529  3535 net.cpp:150] Setting up conv4_3_1x1_reduce/relu
I1019 17:33:30.314532  3535 net.cpp:157] Top shape: 1 256 18 18 (82944)
I1019 17:33:30.314533  3535 net.cpp:165] Memory required for data: 96795272
I1019 17:33:30.314535  3535 layer_factory.hpp:77] Creating layer conv4_3_3x3
I1019 17:33:30.314540  3535 net.cpp:106] Creating Layer conv4_3_3x3
I1019 17:33:30.314541  3535 net.cpp:454] conv4_3_3x3 <- conv4_3_1x1_reduce
I1019 17:33:30.314545  3535 net.cpp:411] conv4_3_3x3 -> conv4_3_3x3
I1019 17:33:30.320960  3535 net.cpp:150] Setting up conv4_3_3x3
I1019 17:33:30.331358  3535 net.cpp:157] Top shape: 1 256 18 18 (82944)
I1019 17:33:30.331396  3535 net.cpp:165] Memory required for data: 97127048
I1019 17:33:30.331410  3535 layer_factory.hpp:77] Creating layer conv4_3_3x3/bn
I1019 17:33:30.331431  3535 net.cpp:106] Creating Layer conv4_3_3x3/bn
I1019 17:33:30.331441  3535 net.cpp:454] conv4_3_3x3/bn <- conv4_3_3x3
I1019 17:33:30.331451  3535 net.cpp:397] conv4_3_3x3/bn -> conv4_3_3x3 (in-place)
I1019 17:33:30.331637  3535 net.cpp:150] Setting up conv4_3_3x3/bn
I1019 17:33:30.331650  3535 net.cpp:157] Top shape: 1 256 18 18 (82944)
I1019 17:33:30.331656  3535 net.cpp:165] Memory required for data: 97458824
I1019 17:33:30.331667  3535 layer_factory.hpp:77] Creating layer conv4_3_3x3/relu
I1019 17:33:30.331688  3535 net.cpp:106] Creating Layer conv4_3_3x3/relu
I1019 17:33:30.331696  3535 net.cpp:454] conv4_3_3x3/relu <- conv4_3_3x3
I1019 17:33:30.331706  3535 net.cpp:397] conv4_3_3x3/relu -> conv4_3_3x3 (in-place)
I1019 17:33:30.331715  3535 net.cpp:150] Setting up conv4_3_3x3/relu
I1019 17:33:30.331722  3535 net.cpp:157] Top shape: 1 256 18 18 (82944)
I1019 17:33:30.331729  3535 net.cpp:165] Memory required for data: 97790600
I1019 17:33:30.331735  3535 layer_factory.hpp:77] Creating layer conv4_3_1x1_increase
I1019 17:33:30.331748  3535 net.cpp:106] Creating Layer conv4_3_1x1_increase
I1019 17:33:30.331756  3535 net.cpp:454] conv4_3_1x1_increase <- conv4_3_3x3
I1019 17:33:30.331766  3535 net.cpp:411] conv4_3_1x1_increase -> conv4_3_1x1_increase
I1019 17:33:30.334445  3535 net.cpp:150] Setting up conv4_3_1x1_increase
I1019 17:33:30.334462  3535 net.cpp:157] Top shape: 1 1024 18 18 (331776)
I1019 17:33:30.334470  3535 net.cpp:165] Memory required for data: 99117704
I1019 17:33:30.334478  3535 layer_factory.hpp:77] Creating layer conv4_3_1x1_increase/bn
I1019 17:33:30.334504  3535 net.cpp:106] Creating Layer conv4_3_1x1_increase/bn
I1019 17:33:30.334513  3535 net.cpp:454] conv4_3_1x1_increase/bn <- conv4_3_1x1_increase
I1019 17:33:30.334523  3535 net.cpp:397] conv4_3_1x1_increase/bn -> conv4_3_1x1_increase (in-place)
I1019 17:33:30.334671  3535 net.cpp:150] Setting up conv4_3_1x1_increase/bn
I1019 17:33:30.334682  3535 net.cpp:157] Top shape: 1 1024 18 18 (331776)
I1019 17:33:30.334688  3535 net.cpp:165] Memory required for data: 100444808
I1019 17:33:30.334698  3535 layer_factory.hpp:77] Creating layer conv4_3
I1019 17:33:30.334707  3535 net.cpp:106] Creating Layer conv4_3
I1019 17:33:30.334715  3535 net.cpp:454] conv4_3 <- conv4_2_conv4_2/relu_0_split_2
I1019 17:33:30.334725  3535 net.cpp:454] conv4_3 <- conv4_3_1x1_increase
I1019 17:33:30.334735  3535 net.cpp:411] conv4_3 -> conv4_3
I1019 17:33:30.334759  3535 net.cpp:150] Setting up conv4_3
I1019 17:33:30.334770  3535 net.cpp:157] Top shape: 1 1024 18 18 (331776)
I1019 17:33:30.334777  3535 net.cpp:165] Memory required for data: 101771912
I1019 17:33:30.334784  3535 layer_factory.hpp:77] Creating layer conv4_3/relu
I1019 17:33:30.334792  3535 net.cpp:106] Creating Layer conv4_3/relu
I1019 17:33:30.334800  3535 net.cpp:454] conv4_3/relu <- conv4_3
I1019 17:33:30.334808  3535 net.cpp:397] conv4_3/relu -> conv4_3 (in-place)
I1019 17:33:30.334817  3535 net.cpp:150] Setting up conv4_3/relu
I1019 17:33:30.334825  3535 net.cpp:157] Top shape: 1 1024 18 18 (331776)
I1019 17:33:30.334831  3535 net.cpp:165] Memory required for data: 103099016
I1019 17:33:30.334838  3535 layer_factory.hpp:77] Creating layer conv4_3_conv4_3/relu_0_split
I1019 17:33:30.334847  3535 net.cpp:106] Creating Layer conv4_3_conv4_3/relu_0_split
I1019 17:33:30.334854  3535 net.cpp:454] conv4_3_conv4_3/relu_0_split <- conv4_3
I1019 17:33:30.334863  3535 net.cpp:411] conv4_3_conv4_3/relu_0_split -> conv4_3_conv4_3/relu_0_split_0
I1019 17:33:30.334872  3535 net.cpp:411] conv4_3_conv4_3/relu_0_split -> conv4_3_conv4_3/relu_0_split_1
I1019 17:33:30.334903  3535 net.cpp:150] Setting up conv4_3_conv4_3/relu_0_split
I1019 17:33:30.334921  3535 net.cpp:157] Top shape: 1 1024 18 18 (331776)
I1019 17:33:30.334930  3535 net.cpp:157] Top shape: 1 1024 18 18 (331776)
I1019 17:33:30.334964  3535 net.cpp:165] Memory required for data: 105753224
I1019 17:33:30.334970  3535 layer_factory.hpp:77] Creating layer conv4_4_1x1_reduce
I1019 17:33:30.334982  3535 net.cpp:106] Creating Layer conv4_4_1x1_reduce
I1019 17:33:30.335005  3535 net.cpp:454] conv4_4_1x1_reduce <- conv4_3_conv4_3/relu_0_split_0
I1019 17:33:30.335016  3535 net.cpp:411] conv4_4_1x1_reduce -> conv4_4_1x1_reduce
I1019 17:33:30.337038  3535 net.cpp:150] Setting up conv4_4_1x1_reduce
I1019 17:33:30.337051  3535 net.cpp:157] Top shape: 1 256 18 18 (82944)
I1019 17:33:30.337059  3535 net.cpp:165] Memory required for data: 106085000
I1019 17:33:30.337067  3535 layer_factory.hpp:77] Creating layer conv4_4_1x1_reduce/bn
I1019 17:33:30.337080  3535 net.cpp:106] Creating Layer conv4_4_1x1_reduce/bn
I1019 17:33:30.337093  3535 net.cpp:454] conv4_4_1x1_reduce/bn <- conv4_4_1x1_reduce
I1019 17:33:30.337106  3535 net.cpp:397] conv4_4_1x1_reduce/bn -> conv4_4_1x1_reduce (in-place)
I1019 17:33:30.337247  3535 net.cpp:150] Setting up conv4_4_1x1_reduce/bn
I1019 17:33:30.337258  3535 net.cpp:157] Top shape: 1 256 18 18 (82944)
I1019 17:33:30.337266  3535 net.cpp:165] Memory required for data: 106416776
I1019 17:33:30.337276  3535 layer_factory.hpp:77] Creating layer conv4_4_1x1_reduce/relu
I1019 17:33:30.337285  3535 net.cpp:106] Creating Layer conv4_4_1x1_reduce/relu
I1019 17:33:30.337293  3535 net.cpp:454] conv4_4_1x1_reduce/relu <- conv4_4_1x1_reduce
I1019 17:33:30.337302  3535 net.cpp:397] conv4_4_1x1_reduce/relu -> conv4_4_1x1_reduce (in-place)
I1019 17:33:30.337312  3535 net.cpp:150] Setting up conv4_4_1x1_reduce/relu
I1019 17:33:30.337321  3535 net.cpp:157] Top shape: 1 256 18 18 (82944)
I1019 17:33:30.337328  3535 net.cpp:165] Memory required for data: 106748552
I1019 17:33:30.337335  3535 layer_factory.hpp:77] Creating layer conv4_4_3x3
I1019 17:33:30.337345  3535 net.cpp:106] Creating Layer conv4_4_3x3
I1019 17:33:30.337353  3535 net.cpp:454] conv4_4_3x3 <- conv4_4_1x1_reduce
I1019 17:33:30.337363  3535 net.cpp:411] conv4_4_3x3 -> conv4_4_3x3
I1019 17:33:30.342453  3535 net.cpp:150] Setting up conv4_4_3x3
I1019 17:33:30.346735  3535 net.cpp:157] Top shape: 1 256 18 18 (82944)
I1019 17:33:30.346765  3535 net.cpp:165] Memory required for data: 107080328
I1019 17:33:30.346782  3535 layer_factory.hpp:77] Creating layer conv4_4_3x3/bn
I1019 17:33:30.346803  3535 net.cpp:106] Creating Layer conv4_4_3x3/bn
I1019 17:33:30.346814  3535 net.cpp:454] conv4_4_3x3/bn <- conv4_4_3x3
I1019 17:33:30.346829  3535 net.cpp:397] conv4_4_3x3/bn -> conv4_4_3x3 (in-place)
I1019 17:33:30.347084  3535 net.cpp:150] Setting up conv4_4_3x3/bn
I1019 17:33:30.347101  3535 net.cpp:157] Top shape: 1 256 18 18 (82944)
I1019 17:33:30.347111  3535 net.cpp:165] Memory required for data: 107412104
I1019 17:33:30.347126  3535 layer_factory.hpp:77] Creating layer conv4_4_3x3/relu
I1019 17:33:30.347138  3535 net.cpp:106] Creating Layer conv4_4_3x3/relu
I1019 17:33:30.347149  3535 net.cpp:454] conv4_4_3x3/relu <- conv4_4_3x3
I1019 17:33:30.347160  3535 net.cpp:397] conv4_4_3x3/relu -> conv4_4_3x3 (in-place)
I1019 17:33:30.347173  3535 net.cpp:150] Setting up conv4_4_3x3/relu
I1019 17:33:30.347184  3535 net.cpp:157] Top shape: 1 256 18 18 (82944)
I1019 17:33:30.347193  3535 net.cpp:165] Memory required for data: 107743880
I1019 17:33:30.347203  3535 layer_factory.hpp:77] Creating layer conv4_4_1x1_increase
I1019 17:33:30.347220  3535 net.cpp:106] Creating Layer conv4_4_1x1_increase
I1019 17:33:30.347231  3535 net.cpp:454] conv4_4_1x1_increase <- conv4_4_3x3
I1019 17:33:30.347246  3535 net.cpp:411] conv4_4_1x1_increase -> conv4_4_1x1_increase
I1019 17:33:30.350595  3535 net.cpp:150] Setting up conv4_4_1x1_increase
I1019 17:33:30.358960  3535 net.cpp:157] Top shape: 1 1024 18 18 (331776)
I1019 17:33:30.358996  3535 net.cpp:165] Memory required for data: 109070984
I1019 17:33:30.359011  3535 layer_factory.hpp:77] Creating layer conv4_4_1x1_increase/bn
I1019 17:33:30.359026  3535 net.cpp:106] Creating Layer conv4_4_1x1_increase/bn
I1019 17:33:30.359036  3535 net.cpp:454] conv4_4_1x1_increase/bn <- conv4_4_1x1_increase
I1019 17:33:30.359047  3535 net.cpp:397] conv4_4_1x1_increase/bn -> conv4_4_1x1_increase (in-place)
I1019 17:33:30.359251  3535 net.cpp:150] Setting up conv4_4_1x1_increase/bn
I1019 17:33:30.359263  3535 net.cpp:157] Top shape: 1 1024 18 18 (331776)
I1019 17:33:30.359271  3535 net.cpp:165] Memory required for data: 110398088
I1019 17:33:30.359280  3535 layer_factory.hpp:77] Creating layer conv4_4
I1019 17:33:30.359290  3535 net.cpp:106] Creating Layer conv4_4
I1019 17:33:30.359298  3535 net.cpp:454] conv4_4 <- conv4_3_conv4_3/relu_0_split_1
I1019 17:33:30.359308  3535 net.cpp:454] conv4_4 <- conv4_4_1x1_increase
I1019 17:33:30.359318  3535 net.cpp:411] conv4_4 -> conv4_4
I1019 17:33:30.359349  3535 net.cpp:150] Setting up conv4_4
I1019 17:33:30.359367  3535 net.cpp:157] Top shape: 1 1024 18 18 (331776)
I1019 17:33:30.359376  3535 net.cpp:165] Memory required for data: 111725192
I1019 17:33:30.359383  3535 layer_factory.hpp:77] Creating layer conv4_4/relu
I1019 17:33:30.359391  3535 net.cpp:106] Creating Layer conv4_4/relu
I1019 17:33:30.359398  3535 net.cpp:454] conv4_4/relu <- conv4_4
I1019 17:33:30.359407  3535 net.cpp:397] conv4_4/relu -> conv4_4 (in-place)
I1019 17:33:30.359417  3535 net.cpp:150] Setting up conv4_4/relu
I1019 17:33:30.359426  3535 net.cpp:157] Top shape: 1 1024 18 18 (331776)
I1019 17:33:30.359432  3535 net.cpp:165] Memory required for data: 113052296
I1019 17:33:30.359439  3535 layer_factory.hpp:77] Creating layer conv4_4_conv4_4/relu_0_split
I1019 17:33:30.359475  3535 net.cpp:106] Creating Layer conv4_4_conv4_4/relu_0_split
I1019 17:33:30.359496  3535 net.cpp:454] conv4_4_conv4_4/relu_0_split <- conv4_4
I1019 17:33:30.359524  3535 net.cpp:411] conv4_4_conv4_4/relu_0_split -> conv4_4_conv4_4/relu_0_split_0
I1019 17:33:30.359534  3535 net.cpp:411] conv4_4_conv4_4/relu_0_split -> conv4_4_conv4_4/relu_0_split_1
I1019 17:33:30.359580  3535 net.cpp:150] Setting up conv4_4_conv4_4/relu_0_split
I1019 17:33:30.359612  3535 net.cpp:157] Top shape: 1 1024 18 18 (331776)
I1019 17:33:30.359621  3535 net.cpp:157] Top shape: 1 1024 18 18 (331776)
I1019 17:33:30.359628  3535 net.cpp:165] Memory required for data: 115706504
I1019 17:33:30.359648  3535 layer_factory.hpp:77] Creating layer conv4_5_1x1_reduce
I1019 17:33:30.359679  3535 net.cpp:106] Creating Layer conv4_5_1x1_reduce
I1019 17:33:30.359712  3535 net.cpp:454] conv4_5_1x1_reduce <- conv4_4_conv4_4/relu_0_split_0
I1019 17:33:30.359742  3535 net.cpp:411] conv4_5_1x1_reduce -> conv4_5_1x1_reduce
I1019 17:33:30.361848  3535 net.cpp:150] Setting up conv4_5_1x1_reduce
I1019 17:33:30.361861  3535 net.cpp:157] Top shape: 1 256 18 18 (82944)
I1019 17:33:30.361888  3535 net.cpp:165] Memory required for data: 116038280
I1019 17:33:30.361897  3535 layer_factory.hpp:77] Creating layer conv4_5_1x1_reduce/bn
I1019 17:33:30.361922  3535 net.cpp:106] Creating Layer conv4_5_1x1_reduce/bn
I1019 17:33:30.361949  3535 net.cpp:454] conv4_5_1x1_reduce/bn <- conv4_5_1x1_reduce
I1019 17:33:30.361959  3535 net.cpp:397] conv4_5_1x1_reduce/bn -> conv4_5_1x1_reduce (in-place)
I1019 17:33:30.362150  3535 net.cpp:150] Setting up conv4_5_1x1_reduce/bn
I1019 17:33:30.362161  3535 net.cpp:157] Top shape: 1 256 18 18 (82944)
I1019 17:33:30.362187  3535 net.cpp:165] Memory required for data: 116370056
I1019 17:33:30.362197  3535 layer_factory.hpp:77] Creating layer conv4_5_1x1_reduce/relu
I1019 17:33:30.362207  3535 net.cpp:106] Creating Layer conv4_5_1x1_reduce/relu
I1019 17:33:30.362228  3535 net.cpp:454] conv4_5_1x1_reduce/relu <- conv4_5_1x1_reduce
I1019 17:33:30.362256  3535 net.cpp:397] conv4_5_1x1_reduce/relu -> conv4_5_1x1_reduce (in-place)
I1019 17:33:30.362265  3535 net.cpp:150] Setting up conv4_5_1x1_reduce/relu
I1019 17:33:30.362287  3535 net.cpp:157] Top shape: 1 256 18 18 (82944)
I1019 17:33:30.362294  3535 net.cpp:165] Memory required for data: 116701832
I1019 17:33:30.362320  3535 layer_factory.hpp:77] Creating layer conv4_5_3x3
I1019 17:33:30.362332  3535 net.cpp:106] Creating Layer conv4_5_3x3
I1019 17:33:30.362340  3535 net.cpp:454] conv4_5_3x3 <- conv4_5_1x1_reduce
I1019 17:33:30.362365  3535 net.cpp:411] conv4_5_3x3 -> conv4_5_3x3
I1019 17:33:30.367641  3535 net.cpp:150] Setting up conv4_5_3x3
I1019 17:33:30.374938  3535 net.cpp:157] Top shape: 1 256 18 18 (82944)
I1019 17:33:30.374979  3535 net.cpp:165] Memory required for data: 117033608
I1019 17:33:30.375026  3535 layer_factory.hpp:77] Creating layer conv4_5_3x3/bn
I1019 17:33:30.375043  3535 net.cpp:106] Creating Layer conv4_5_3x3/bn
I1019 17:33:30.375074  3535 net.cpp:454] conv4_5_3x3/bn <- conv4_5_3x3
I1019 17:33:30.375098  3535 net.cpp:397] conv4_5_3x3/bn -> conv4_5_3x3 (in-place)
I1019 17:33:30.375329  3535 net.cpp:150] Setting up conv4_5_3x3/bn
I1019 17:33:30.375345  3535 net.cpp:157] Top shape: 1 256 18 18 (82944)
I1019 17:33:30.375358  3535 net.cpp:165] Memory required for data: 117365384
I1019 17:33:30.375388  3535 layer_factory.hpp:77] Creating layer conv4_5_3x3/relu
I1019 17:33:30.375411  3535 net.cpp:106] Creating Layer conv4_5_3x3/relu
I1019 17:33:30.375418  3535 net.cpp:454] conv4_5_3x3/relu <- conv4_5_3x3
I1019 17:33:30.375427  3535 net.cpp:397] conv4_5_3x3/relu -> conv4_5_3x3 (in-place)
I1019 17:33:30.375437  3535 net.cpp:150] Setting up conv4_5_3x3/relu
I1019 17:33:30.375465  3535 net.cpp:157] Top shape: 1 256 18 18 (82944)
I1019 17:33:30.375484  3535 net.cpp:165] Memory required for data: 117697160
I1019 17:33:30.375490  3535 layer_factory.hpp:77] Creating layer conv4_5_1x1_increase
I1019 17:33:30.375504  3535 net.cpp:106] Creating Layer conv4_5_1x1_increase
I1019 17:33:30.375533  3535 net.cpp:454] conv4_5_1x1_increase <- conv4_5_3x3
I1019 17:33:30.375556  3535 net.cpp:411] conv4_5_1x1_increase -> conv4_5_1x1_increase
I1019 17:33:30.379982  3535 net.cpp:150] Setting up conv4_5_1x1_increase
I1019 17:33:30.380020  3535 net.cpp:157] Top shape: 1 1024 18 18 (331776)
I1019 17:33:30.380028  3535 net.cpp:165] Memory required for data: 119024264
I1019 17:33:30.380059  3535 layer_factory.hpp:77] Creating layer conv4_5_1x1_increase/bn
I1019 17:33:30.380086  3535 net.cpp:106] Creating Layer conv4_5_1x1_increase/bn
I1019 17:33:30.380095  3535 net.cpp:454] conv4_5_1x1_increase/bn <- conv4_5_1x1_increase
I1019 17:33:30.380106  3535 net.cpp:397] conv4_5_1x1_increase/bn -> conv4_5_1x1_increase (in-place)
I1019 17:33:30.380338  3535 net.cpp:150] Setting up conv4_5_1x1_increase/bn
I1019 17:33:30.380350  3535 net.cpp:157] Top shape: 1 1024 18 18 (331776)
I1019 17:33:30.380357  3535 net.cpp:165] Memory required for data: 120351368
I1019 17:33:30.380367  3535 layer_factory.hpp:77] Creating layer conv4_5
I1019 17:33:30.380376  3535 net.cpp:106] Creating Layer conv4_5
I1019 17:33:30.380403  3535 net.cpp:454] conv4_5 <- conv4_4_conv4_4/relu_0_split_1
I1019 17:33:30.380424  3535 net.cpp:454] conv4_5 <- conv4_5_1x1_increase
I1019 17:33:30.380434  3535 net.cpp:411] conv4_5 -> conv4_5
I1019 17:33:30.380458  3535 net.cpp:150] Setting up conv4_5
I1019 17:33:30.380470  3535 net.cpp:157] Top shape: 1 1024 18 18 (331776)
I1019 17:33:30.380476  3535 net.cpp:165] Memory required for data: 121678472
I1019 17:33:30.380483  3535 layer_factory.hpp:77] Creating layer conv4_5/relu
I1019 17:33:30.380491  3535 net.cpp:106] Creating Layer conv4_5/relu
I1019 17:33:30.380498  3535 net.cpp:454] conv4_5/relu <- conv4_5
I1019 17:33:30.380529  3535 net.cpp:397] conv4_5/relu -> conv4_5 (in-place)
I1019 17:33:30.380540  3535 net.cpp:150] Setting up conv4_5/relu
I1019 17:33:30.380561  3535 net.cpp:157] Top shape: 1 1024 18 18 (331776)
I1019 17:33:30.380568  3535 net.cpp:165] Memory required for data: 123005576
I1019 17:33:30.380574  3535 layer_factory.hpp:77] Creating layer conv4_5_conv4_5/relu_0_split
I1019 17:33:30.380583  3535 net.cpp:106] Creating Layer conv4_5_conv4_5/relu_0_split
I1019 17:33:30.380609  3535 net.cpp:454] conv4_5_conv4_5/relu_0_split <- conv4_5
I1019 17:33:30.380620  3535 net.cpp:411] conv4_5_conv4_5/relu_0_split -> conv4_5_conv4_5/relu_0_split_0
I1019 17:33:30.380643  3535 net.cpp:411] conv4_5_conv4_5/relu_0_split -> conv4_5_conv4_5/relu_0_split_1
I1019 17:33:30.380714  3535 net.cpp:150] Setting up conv4_5_conv4_5/relu_0_split
I1019 17:33:30.380749  3535 net.cpp:157] Top shape: 1 1024 18 18 (331776)
I1019 17:33:30.380770  3535 net.cpp:157] Top shape: 1 1024 18 18 (331776)
I1019 17:33:30.380777  3535 net.cpp:165] Memory required for data: 125659784
I1019 17:33:30.380803  3535 layer_factory.hpp:77] Creating layer conv4_6_1x1_reduce
I1019 17:33:30.380817  3535 net.cpp:106] Creating Layer conv4_6_1x1_reduce
I1019 17:33:30.380838  3535 net.cpp:454] conv4_6_1x1_reduce <- conv4_5_conv4_5/relu_0_split_0
I1019 17:33:30.380867  3535 net.cpp:411] conv4_6_1x1_reduce -> conv4_6_1x1_reduce
I1019 17:33:30.382959  3535 net.cpp:150] Setting up conv4_6_1x1_reduce
I1019 17:33:30.382987  3535 net.cpp:157] Top shape: 1 256 18 18 (82944)
I1019 17:33:30.382999  3535 net.cpp:165] Memory required for data: 125991560
I1019 17:33:30.383045  3535 layer_factory.hpp:77] Creating layer conv4_6_1x1_reduce/bn
I1019 17:33:30.383056  3535 net.cpp:106] Creating Layer conv4_6_1x1_reduce/bn
I1019 17:33:30.383077  3535 net.cpp:454] conv4_6_1x1_reduce/bn <- conv4_6_1x1_reduce
I1019 17:33:30.383106  3535 net.cpp:397] conv4_6_1x1_reduce/bn -> conv4_6_1x1_reduce (in-place)
I1019 17:33:30.383291  3535 net.cpp:150] Setting up conv4_6_1x1_reduce/bn
I1019 17:33:30.383303  3535 net.cpp:157] Top shape: 1 256 18 18 (82944)
I1019 17:33:30.383311  3535 net.cpp:165] Memory required for data: 126323336
I1019 17:33:30.383322  3535 layer_factory.hpp:77] Creating layer conv4_6_1x1_reduce/relu
I1019 17:33:30.383350  3535 net.cpp:106] Creating Layer conv4_6_1x1_reduce/relu
I1019 17:33:30.383378  3535 net.cpp:454] conv4_6_1x1_reduce/relu <- conv4_6_1x1_reduce
I1019 17:33:30.383386  3535 net.cpp:397] conv4_6_1x1_reduce/relu -> conv4_6_1x1_reduce (in-place)
I1019 17:33:30.383409  3535 net.cpp:150] Setting up conv4_6_1x1_reduce/relu
I1019 17:33:30.383430  3535 net.cpp:157] Top shape: 1 256 18 18 (82944)
I1019 17:33:30.383437  3535 net.cpp:165] Memory required for data: 126655112
I1019 17:33:30.383458  3535 layer_factory.hpp:77] Creating layer conv4_6_3x3
I1019 17:33:30.383481  3535 net.cpp:106] Creating Layer conv4_6_3x3
I1019 17:33:30.383489  3535 net.cpp:454] conv4_6_3x3 <- conv4_6_1x1_reduce
I1019 17:33:30.383513  3535 net.cpp:411] conv4_6_3x3 -> conv4_6_3x3
I1019 17:33:30.396070  3535 net.cpp:150] Setting up conv4_6_3x3
I1019 17:33:30.397683  3535 net.cpp:157] Top shape: 1 256 18 18 (82944)
I1019 17:33:30.397699  3535 net.cpp:165] Memory required for data: 126986888
I1019 17:33:30.397711  3535 layer_factory.hpp:77] Creating layer conv4_6_3x3/bn
I1019 17:33:30.397724  3535 net.cpp:106] Creating Layer conv4_6_3x3/bn
I1019 17:33:30.397753  3535 net.cpp:454] conv4_6_3x3/bn <- conv4_6_3x3
I1019 17:33:30.397764  3535 net.cpp:397] conv4_6_3x3/bn -> conv4_6_3x3 (in-place)
I1019 17:33:30.397990  3535 net.cpp:150] Setting up conv4_6_3x3/bn
I1019 17:33:30.399741  3535 net.cpp:157] Top shape: 1 256 18 18 (82944)
I1019 17:33:30.399775  3535 net.cpp:165] Memory required for data: 127318664
I1019 17:33:30.399791  3535 layer_factory.hpp:77] Creating layer conv4_6_3x3/relu
I1019 17:33:30.399801  3535 net.cpp:106] Creating Layer conv4_6_3x3/relu
I1019 17:33:30.399822  3535 net.cpp:454] conv4_6_3x3/relu <- conv4_6_3x3
I1019 17:33:30.399832  3535 net.cpp:397] conv4_6_3x3/relu -> conv4_6_3x3 (in-place)
I1019 17:33:30.399843  3535 net.cpp:150] Setting up conv4_6_3x3/relu
I1019 17:33:30.399871  3535 net.cpp:157] Top shape: 1 256 18 18 (82944)
I1019 17:33:30.399891  3535 net.cpp:165] Memory required for data: 127650440
I1019 17:33:30.399897  3535 layer_factory.hpp:77] Creating layer conv4_6_1x1_increase
I1019 17:33:30.399909  3535 net.cpp:106] Creating Layer conv4_6_1x1_increase
I1019 17:33:30.399937  3535 net.cpp:454] conv4_6_1x1_increase <- conv4_6_3x3
I1019 17:33:30.401933  3535 net.cpp:411] conv4_6_1x1_increase -> conv4_6_1x1_increase
I1019 17:33:30.404681  3535 net.cpp:150] Setting up conv4_6_1x1_increase
I1019 17:33:30.405807  3535 net.cpp:157] Top shape: 1 1024 18 18 (331776)
I1019 17:33:30.405822  3535 net.cpp:165] Memory required for data: 128977544
I1019 17:33:30.405833  3535 layer_factory.hpp:77] Creating layer conv4_6_1x1_increase/bn
I1019 17:33:30.405844  3535 net.cpp:106] Creating Layer conv4_6_1x1_increase/bn
I1019 17:33:30.405853  3535 net.cpp:454] conv4_6_1x1_increase/bn <- conv4_6_1x1_increase
I1019 17:33:30.405896  3535 net.cpp:397] conv4_6_1x1_increase/bn -> conv4_6_1x1_increase (in-place)
I1019 17:33:30.406112  3535 net.cpp:150] Setting up conv4_6_1x1_increase/bn
I1019 17:33:30.406144  3535 net.cpp:157] Top shape: 1 1024 18 18 (331776)
I1019 17:33:30.406177  3535 net.cpp:165] Memory required for data: 130304648
I1019 17:33:30.406200  3535 layer_factory.hpp:77] Creating layer conv4_6
I1019 17:33:30.406211  3535 net.cpp:106] Creating Layer conv4_6
I1019 17:33:30.406219  3535 net.cpp:454] conv4_6 <- conv4_5_conv4_5/relu_0_split_1
I1019 17:33:30.406270  3535 net.cpp:454] conv4_6 <- conv4_6_1x1_increase
I1019 17:33:30.406280  3535 net.cpp:411] conv4_6 -> conv4_6
I1019 17:33:30.406343  3535 net.cpp:150] Setting up conv4_6
I1019 17:33:30.407930  3535 net.cpp:157] Top shape: 1 1024 18 18 (331776)
I1019 17:33:30.407943  3535 net.cpp:165] Memory required for data: 131631752
I1019 17:33:30.407951  3535 layer_factory.hpp:77] Creating layer conv4_6/relu
I1019 17:33:30.407960  3535 net.cpp:106] Creating Layer conv4_6/relu
I1019 17:33:30.407968  3535 net.cpp:454] conv4_6/relu <- conv4_6
I1019 17:33:30.407999  3535 net.cpp:397] conv4_6/relu -> conv4_6 (in-place)
I1019 17:33:30.408025  3535 net.cpp:150] Setting up conv4_6/relu
I1019 17:33:30.408032  3535 net.cpp:157] Top shape: 1 1024 18 18 (331776)
I1019 17:33:30.408041  3535 net.cpp:165] Memory required for data: 132958856
I1019 17:33:30.408067  3535 layer_factory.hpp:77] Creating layer conv4_6_conv4_6/relu_0_split
I1019 17:33:30.409276  3535 net.cpp:106] Creating Layer conv4_6_conv4_6/relu_0_split
I1019 17:33:30.409296  3535 net.cpp:454] conv4_6_conv4_6/relu_0_split <- conv4_6
I1019 17:33:30.409346  3535 net.cpp:411] conv4_6_conv4_6/relu_0_split -> conv4_6_conv4_6/relu_0_split_0
I1019 17:33:30.409364  3535 net.cpp:411] conv4_6_conv4_6/relu_0_split -> conv4_6_conv4_6/relu_0_split_1
I1019 17:33:30.409471  3535 net.cpp:150] Setting up conv4_6_conv4_6/relu_0_split
I1019 17:33:30.409487  3535 net.cpp:157] Top shape: 1 1024 18 18 (331776)
I1019 17:33:30.409498  3535 net.cpp:157] Top shape: 1 1024 18 18 (331776)
I1019 17:33:30.409508  3535 net.cpp:165] Memory required for data: 135613064
I1019 17:33:30.409538  3535 layer_factory.hpp:77] Creating layer conv4_7_1x1_reduce
I1019 17:33:30.409569  3535 net.cpp:106] Creating Layer conv4_7_1x1_reduce
I1019 17:33:30.409601  3535 net.cpp:454] conv4_7_1x1_reduce <- conv4_6_conv4_6/relu_0_split_0
I1019 17:33:30.409628  3535 net.cpp:411] conv4_7_1x1_reduce -> conv4_7_1x1_reduce
I1019 17:33:30.411958  3535 net.cpp:150] Setting up conv4_7_1x1_reduce
I1019 17:33:30.411996  3535 net.cpp:157] Top shape: 1 256 18 18 (82944)
I1019 17:33:30.412005  3535 net.cpp:165] Memory required for data: 135944840
I1019 17:33:30.412029  3535 layer_factory.hpp:77] Creating layer conv4_7_1x1_reduce/bn
I1019 17:33:30.412060  3535 net.cpp:106] Creating Layer conv4_7_1x1_reduce/bn
I1019 17:33:30.412067  3535 net.cpp:454] conv4_7_1x1_reduce/bn <- conv4_7_1x1_reduce
I1019 17:33:30.412091  3535 net.cpp:397] conv4_7_1x1_reduce/bn -> conv4_7_1x1_reduce (in-place)
I1019 17:33:30.412281  3535 net.cpp:150] Setting up conv4_7_1x1_reduce/bn
I1019 17:33:30.412293  3535 net.cpp:157] Top shape: 1 256 18 18 (82944)
I1019 17:33:30.412300  3535 net.cpp:165] Memory required for data: 136276616
I1019 17:33:30.412310  3535 layer_factory.hpp:77] Creating layer conv4_7_1x1_reduce/relu
I1019 17:33:30.412319  3535 net.cpp:106] Creating Layer conv4_7_1x1_reduce/relu
I1019 17:33:30.412346  3535 net.cpp:454] conv4_7_1x1_reduce/relu <- conv4_7_1x1_reduce
I1019 17:33:30.412367  3535 net.cpp:397] conv4_7_1x1_reduce/relu -> conv4_7_1x1_reduce (in-place)
I1019 17:33:30.412376  3535 net.cpp:150] Setting up conv4_7_1x1_reduce/relu
I1019 17:33:30.412384  3535 net.cpp:157] Top shape: 1 256 18 18 (82944)
I1019 17:33:30.412391  3535 net.cpp:165] Memory required for data: 136608392
I1019 17:33:30.412417  3535 layer_factory.hpp:77] Creating layer conv4_7_3x3
I1019 17:33:30.412442  3535 net.cpp:106] Creating Layer conv4_7_3x3
I1019 17:33:30.412451  3535 net.cpp:454] conv4_7_3x3 <- conv4_7_1x1_reduce
I1019 17:33:30.412480  3535 net.cpp:411] conv4_7_3x3 -> conv4_7_3x3
I1019 17:33:30.417663  3535 net.cpp:150] Setting up conv4_7_3x3
I1019 17:33:30.417702  3535 net.cpp:157] Top shape: 1 256 18 18 (82944)
I1019 17:33:30.417711  3535 net.cpp:165] Memory required for data: 136940168
I1019 17:33:30.417721  3535 layer_factory.hpp:77] Creating layer conv4_7_3x3/bn
I1019 17:33:30.417745  3535 net.cpp:106] Creating Layer conv4_7_3x3/bn
I1019 17:33:30.417753  3535 net.cpp:454] conv4_7_3x3/bn <- conv4_7_3x3
I1019 17:33:30.417769  3535 net.cpp:397] conv4_7_3x3/bn -> conv4_7_3x3 (in-place)
I1019 17:33:30.418023  3535 net.cpp:150] Setting up conv4_7_3x3/bn
I1019 17:33:30.418066  3535 net.cpp:157] Top shape: 1 256 18 18 (82944)
I1019 17:33:30.418074  3535 net.cpp:165] Memory required for data: 137271944
I1019 17:33:30.418084  3535 layer_factory.hpp:77] Creating layer conv4_7_3x3/relu
I1019 17:33:30.418107  3535 net.cpp:106] Creating Layer conv4_7_3x3/relu
I1019 17:33:30.418113  3535 net.cpp:454] conv4_7_3x3/relu <- conv4_7_3x3
I1019 17:33:30.418121  3535 net.cpp:397] conv4_7_3x3/relu -> conv4_7_3x3 (in-place)
I1019 17:33:30.418151  3535 net.cpp:150] Setting up conv4_7_3x3/relu
I1019 17:33:30.418174  3535 net.cpp:157] Top shape: 1 256 18 18 (82944)
I1019 17:33:30.418179  3535 net.cpp:165] Memory required for data: 137603720
I1019 17:33:30.418186  3535 layer_factory.hpp:77] Creating layer conv4_7_1x1_increase
I1019 17:33:30.418197  3535 net.cpp:106] Creating Layer conv4_7_1x1_increase
I1019 17:33:30.418205  3535 net.cpp:454] conv4_7_1x1_increase <- conv4_7_3x3
I1019 17:33:30.418237  3535 net.cpp:411] conv4_7_1x1_increase -> conv4_7_1x1_increase
I1019 17:33:30.420953  3535 net.cpp:150] Setting up conv4_7_1x1_increase
I1019 17:33:30.420974  3535 net.cpp:157] Top shape: 1 1024 18 18 (331776)
I1019 17:33:30.420981  3535 net.cpp:165] Memory required for data: 138930824
I1019 17:33:30.420990  3535 layer_factory.hpp:77] Creating layer conv4_7_1x1_increase/bn
I1019 17:33:30.421022  3535 net.cpp:106] Creating Layer conv4_7_1x1_increase/bn
I1019 17:33:30.421031  3535 net.cpp:454] conv4_7_1x1_increase/bn <- conv4_7_1x1_increase
I1019 17:33:30.421053  3535 net.cpp:397] conv4_7_1x1_increase/bn -> conv4_7_1x1_increase (in-place)
I1019 17:33:30.421247  3535 net.cpp:150] Setting up conv4_7_1x1_increase/bn
I1019 17:33:30.421257  3535 net.cpp:157] Top shape: 1 1024 18 18 (331776)
I1019 17:33:30.421264  3535 net.cpp:165] Memory required for data: 140257928
I1019 17:33:30.421273  3535 layer_factory.hpp:77] Creating layer conv4_7
I1019 17:33:30.421283  3535 net.cpp:106] Creating Layer conv4_7
I1019 17:33:30.421313  3535 net.cpp:454] conv4_7 <- conv4_6_conv4_6/relu_0_split_1
I1019 17:33:30.421321  3535 net.cpp:454] conv4_7 <- conv4_7_1x1_increase
I1019 17:33:30.421344  3535 net.cpp:411] conv4_7 -> conv4_7
I1019 17:33:30.421387  3535 net.cpp:150] Setting up conv4_7
I1019 17:33:30.421411  3535 net.cpp:157] Top shape: 1 1024 18 18 (331776)
I1019 17:33:30.421417  3535 net.cpp:165] Memory required for data: 141585032
I1019 17:33:30.421424  3535 layer_factory.hpp:77] Creating layer conv4_7/relu
I1019 17:33:30.421432  3535 net.cpp:106] Creating Layer conv4_7/relu
I1019 17:33:30.421460  3535 net.cpp:454] conv4_7/relu <- conv4_7
I1019 17:33:30.421469  3535 net.cpp:397] conv4_7/relu -> conv4_7 (in-place)
I1019 17:33:30.421492  3535 net.cpp:150] Setting up conv4_7/relu
I1019 17:33:30.421514  3535 net.cpp:157] Top shape: 1 1024 18 18 (331776)
I1019 17:33:30.421520  3535 net.cpp:165] Memory required for data: 142912136
I1019 17:33:30.421527  3535 layer_factory.hpp:77] Creating layer conv4_7_conv4_7/relu_0_split
I1019 17:33:30.421537  3535 net.cpp:106] Creating Layer conv4_7_conv4_7/relu_0_split
I1019 17:33:30.421557  3535 net.cpp:454] conv4_7_conv4_7/relu_0_split <- conv4_7
I1019 17:33:30.421586  3535 net.cpp:411] conv4_7_conv4_7/relu_0_split -> conv4_7_conv4_7/relu_0_split_0
I1019 17:33:30.421597  3535 net.cpp:411] conv4_7_conv4_7/relu_0_split -> conv4_7_conv4_7/relu_0_split_1
I1019 17:33:30.421676  3535 net.cpp:150] Setting up conv4_7_conv4_7/relu_0_split
I1019 17:33:30.421687  3535 net.cpp:157] Top shape: 1 1024 18 18 (331776)
I1019 17:33:30.421713  3535 net.cpp:157] Top shape: 1 1024 18 18 (331776)
I1019 17:33:30.421721  3535 net.cpp:165] Memory required for data: 145566344
I1019 17:33:30.421728  3535 layer_factory.hpp:77] Creating layer conv4_8_1x1_reduce
I1019 17:33:30.421775  3535 net.cpp:106] Creating Layer conv4_8_1x1_reduce
I1019 17:33:30.421784  3535 net.cpp:454] conv4_8_1x1_reduce <- conv4_7_conv4_7/relu_0_split_0
I1019 17:33:30.421795  3535 net.cpp:411] conv4_8_1x1_reduce -> conv4_8_1x1_reduce
I1019 17:33:30.423882  3535 net.cpp:150] Setting up conv4_8_1x1_reduce
I1019 17:33:30.423908  3535 net.cpp:157] Top shape: 1 256 18 18 (82944)
I1019 17:33:30.423918  3535 net.cpp:165] Memory required for data: 145898120
I1019 17:33:30.423939  3535 layer_factory.hpp:77] Creating layer conv4_8_1x1_reduce/bn
I1019 17:33:30.423967  3535 net.cpp:106] Creating Layer conv4_8_1x1_reduce/bn
I1019 17:33:30.423975  3535 net.cpp:454] conv4_8_1x1_reduce/bn <- conv4_8_1x1_reduce
I1019 17:33:30.424000  3535 net.cpp:397] conv4_8_1x1_reduce/bn -> conv4_8_1x1_reduce (in-place)
I1019 17:33:30.424181  3535 net.cpp:150] Setting up conv4_8_1x1_reduce/bn
I1019 17:33:30.424192  3535 net.cpp:157] Top shape: 1 256 18 18 (82944)
I1019 17:33:30.424218  3535 net.cpp:165] Memory required for data: 146229896
I1019 17:33:30.424229  3535 layer_factory.hpp:77] Creating layer conv4_8_1x1_reduce/relu
I1019 17:33:30.424252  3535 net.cpp:106] Creating Layer conv4_8_1x1_reduce/relu
I1019 17:33:30.424279  3535 net.cpp:454] conv4_8_1x1_reduce/relu <- conv4_8_1x1_reduce
I1019 17:33:30.424288  3535 net.cpp:397] conv4_8_1x1_reduce/relu -> conv4_8_1x1_reduce (in-place)
I1019 17:33:30.424299  3535 net.cpp:150] Setting up conv4_8_1x1_reduce/relu
I1019 17:33:30.424307  3535 net.cpp:157] Top shape: 1 256 18 18 (82944)
I1019 17:33:30.424327  3535 net.cpp:165] Memory required for data: 146561672
I1019 17:33:30.424348  3535 layer_factory.hpp:77] Creating layer conv4_8_3x3
I1019 17:33:30.424358  3535 net.cpp:106] Creating Layer conv4_8_3x3
I1019 17:33:30.424379  3535 net.cpp:454] conv4_8_3x3 <- conv4_8_1x1_reduce
I1019 17:33:30.424404  3535 net.cpp:411] conv4_8_3x3 -> conv4_8_3x3
I1019 17:33:30.429545  3535 net.cpp:150] Setting up conv4_8_3x3
I1019 17:33:30.429567  3535 net.cpp:157] Top shape: 1 256 18 18 (82944)
I1019 17:33:30.429576  3535 net.cpp:165] Memory required for data: 146893448
I1019 17:33:30.429599  3535 layer_factory.hpp:77] Creating layer conv4_8_3x3/bn
I1019 17:33:30.429622  3535 net.cpp:106] Creating Layer conv4_8_3x3/bn
I1019 17:33:30.429631  3535 net.cpp:454] conv4_8_3x3/bn <- conv4_8_3x3
I1019 17:33:30.429661  3535 net.cpp:397] conv4_8_3x3/bn -> conv4_8_3x3 (in-place)
I1019 17:33:30.429873  3535 net.cpp:150] Setting up conv4_8_3x3/bn
I1019 17:33:30.429903  3535 net.cpp:157] Top shape: 1 256 18 18 (82944)
I1019 17:33:30.429911  3535 net.cpp:165] Memory required for data: 147225224
I1019 17:33:30.429921  3535 layer_factory.hpp:77] Creating layer conv4_8_3x3/relu
I1019 17:33:30.429931  3535 net.cpp:106] Creating Layer conv4_8_3x3/relu
I1019 17:33:30.429952  3535 net.cpp:454] conv4_8_3x3/relu <- conv4_8_3x3
I1019 17:33:30.429980  3535 net.cpp:397] conv4_8_3x3/relu -> conv4_8_3x3 (in-place)
I1019 17:33:30.429991  3535 net.cpp:150] Setting up conv4_8_3x3/relu
I1019 17:33:30.430013  3535 net.cpp:157] Top shape: 1 256 18 18 (82944)
I1019 17:33:30.430038  3535 net.cpp:165] Memory required for data: 147557000
I1019 17:33:30.430045  3535 layer_factory.hpp:77] Creating layer conv4_8_1x1_increase
I1019 17:33:30.430057  3535 net.cpp:106] Creating Layer conv4_8_1x1_increase
I1019 17:33:30.430078  3535 net.cpp:454] conv4_8_1x1_increase <- conv4_8_3x3
I1019 17:33:30.430105  3535 net.cpp:411] conv4_8_1x1_increase -> conv4_8_1x1_increase
I1019 17:33:30.432847  3535 net.cpp:150] Setting up conv4_8_1x1_increase
I1019 17:33:30.432880  3535 net.cpp:157] Top shape: 1 1024 18 18 (331776)
I1019 17:33:30.432889  3535 net.cpp:165] Memory required for data: 148884104
I1019 17:33:30.432911  3535 layer_factory.hpp:77] Creating layer conv4_8_1x1_increase/bn
I1019 17:33:30.432940  3535 net.cpp:106] Creating Layer conv4_8_1x1_increase/bn
I1019 17:33:30.432950  3535 net.cpp:454] conv4_8_1x1_increase/bn <- conv4_8_1x1_increase
I1019 17:33:30.432973  3535 net.cpp:397] conv4_8_1x1_increase/bn -> conv4_8_1x1_increase (in-place)
I1019 17:33:30.433167  3535 net.cpp:150] Setting up conv4_8_1x1_increase/bn
I1019 17:33:30.433197  3535 net.cpp:157] Top shape: 1 1024 18 18 (331776)
I1019 17:33:30.433205  3535 net.cpp:165] Memory required for data: 150211208
I1019 17:33:30.433250  3535 layer_factory.hpp:77] Creating layer conv4_8
I1019 17:33:30.433267  3535 net.cpp:106] Creating Layer conv4_8
I1019 17:33:30.433297  3535 net.cpp:454] conv4_8 <- conv4_7_conv4_7/relu_0_split_1
I1019 17:33:30.433306  3535 net.cpp:454] conv4_8 <- conv4_8_1x1_increase
I1019 17:33:30.433329  3535 net.cpp:411] conv4_8 -> conv4_8
I1019 17:33:30.433387  3535 net.cpp:150] Setting up conv4_8
I1019 17:33:30.433398  3535 net.cpp:157] Top shape: 1 1024 18 18 (331776)
I1019 17:33:30.433418  3535 net.cpp:165] Memory required for data: 151538312
I1019 17:33:30.433425  3535 layer_factory.hpp:77] Creating layer conv4_8/relu
I1019 17:33:30.433446  3535 net.cpp:106] Creating Layer conv4_8/relu
I1019 17:33:30.433467  3535 net.cpp:454] conv4_8/relu <- conv4_8
I1019 17:33:30.433477  3535 net.cpp:397] conv4_8/relu -> conv4_8 (in-place)
I1019 17:33:30.433501  3535 net.cpp:150] Setting up conv4_8/relu
I1019 17:33:30.433522  3535 net.cpp:157] Top shape: 1 1024 18 18 (331776)
I1019 17:33:30.433529  3535 net.cpp:165] Memory required for data: 152865416
I1019 17:33:30.433549  3535 layer_factory.hpp:77] Creating layer conv4_8_conv4_8/relu_0_split
I1019 17:33:30.433571  3535 net.cpp:106] Creating Layer conv4_8_conv4_8/relu_0_split
I1019 17:33:30.433579  3535 net.cpp:454] conv4_8_conv4_8/relu_0_split <- conv4_8
I1019 17:33:30.433589  3535 net.cpp:411] conv4_8_conv4_8/relu_0_split -> conv4_8_conv4_8/relu_0_split_0
I1019 17:33:30.433600  3535 net.cpp:411] conv4_8_conv4_8/relu_0_split -> conv4_8_conv4_8/relu_0_split_1
I1019 17:33:30.433634  3535 net.cpp:150] Setting up conv4_8_conv4_8/relu_0_split
I1019 17:33:30.433645  3535 net.cpp:157] Top shape: 1 1024 18 18 (331776)
I1019 17:33:30.433653  3535 net.cpp:157] Top shape: 1 1024 18 18 (331776)
I1019 17:33:30.433660  3535 net.cpp:165] Memory required for data: 155519624
I1019 17:33:30.433668  3535 layer_factory.hpp:77] Creating layer conv4_9_1x1_reduce
I1019 17:33:30.433681  3535 net.cpp:106] Creating Layer conv4_9_1x1_reduce
I1019 17:33:30.433689  3535 net.cpp:454] conv4_9_1x1_reduce <- conv4_8_conv4_8/relu_0_split_0
I1019 17:33:30.433699  3535 net.cpp:411] conv4_9_1x1_reduce -> conv4_9_1x1_reduce
I1019 17:33:30.435797  3535 net.cpp:150] Setting up conv4_9_1x1_reduce
I1019 17:33:30.435811  3535 net.cpp:157] Top shape: 1 256 18 18 (82944)
I1019 17:33:30.435819  3535 net.cpp:165] Memory required for data: 155851400
I1019 17:33:30.435827  3535 layer_factory.hpp:77] Creating layer conv4_9_1x1_reduce/bn
I1019 17:33:30.435839  3535 net.cpp:106] Creating Layer conv4_9_1x1_reduce/bn
I1019 17:33:30.435848  3535 net.cpp:454] conv4_9_1x1_reduce/bn <- conv4_9_1x1_reduce
I1019 17:33:30.435858  3535 net.cpp:397] conv4_9_1x1_reduce/bn -> conv4_9_1x1_reduce (in-place)
I1019 17:33:30.436012  3535 net.cpp:150] Setting up conv4_9_1x1_reduce/bn
I1019 17:33:30.436024  3535 net.cpp:157] Top shape: 1 256 18 18 (82944)
I1019 17:33:30.436031  3535 net.cpp:165] Memory required for data: 156183176
I1019 17:33:30.436043  3535 layer_factory.hpp:77] Creating layer conv4_9_1x1_reduce/relu
I1019 17:33:30.436051  3535 net.cpp:106] Creating Layer conv4_9_1x1_reduce/relu
I1019 17:33:30.436060  3535 net.cpp:454] conv4_9_1x1_reduce/relu <- conv4_9_1x1_reduce
I1019 17:33:30.436070  3535 net.cpp:397] conv4_9_1x1_reduce/relu -> conv4_9_1x1_reduce (in-place)
I1019 17:33:30.436080  3535 net.cpp:150] Setting up conv4_9_1x1_reduce/relu
I1019 17:33:30.436089  3535 net.cpp:157] Top shape: 1 256 18 18 (82944)
I1019 17:33:30.436096  3535 net.cpp:165] Memory required for data: 156514952
I1019 17:33:30.436105  3535 layer_factory.hpp:77] Creating layer conv4_9_3x3
I1019 17:33:30.436115  3535 net.cpp:106] Creating Layer conv4_9_3x3
I1019 17:33:30.436123  3535 net.cpp:454] conv4_9_3x3 <- conv4_9_1x1_reduce
I1019 17:33:30.436133  3535 net.cpp:411] conv4_9_3x3 -> conv4_9_3x3
I1019 17:33:30.442049  3535 net.cpp:150] Setting up conv4_9_3x3
I1019 17:33:30.442085  3535 net.cpp:157] Top shape: 1 256 18 18 (82944)
I1019 17:33:30.442092  3535 net.cpp:165] Memory required for data: 156846728
I1019 17:33:30.442112  3535 layer_factory.hpp:77] Creating layer conv4_9_3x3/bn
I1019 17:33:30.442137  3535 net.cpp:106] Creating Layer conv4_9_3x3/bn
I1019 17:33:30.442147  3535 net.cpp:454] conv4_9_3x3/bn <- conv4_9_3x3
I1019 17:33:30.442157  3535 net.cpp:397] conv4_9_3x3/bn -> conv4_9_3x3 (in-place)
I1019 17:33:30.442334  3535 net.cpp:150] Setting up conv4_9_3x3/bn
I1019 17:33:30.442347  3535 net.cpp:157] Top shape: 1 256 18 18 (82944)
I1019 17:33:30.442353  3535 net.cpp:165] Memory required for data: 157178504
I1019 17:33:30.442363  3535 layer_factory.hpp:77] Creating layer conv4_9_3x3/relu
I1019 17:33:30.442373  3535 net.cpp:106] Creating Layer conv4_9_3x3/relu
I1019 17:33:30.442380  3535 net.cpp:454] conv4_9_3x3/relu <- conv4_9_3x3
I1019 17:33:30.442389  3535 net.cpp:397] conv4_9_3x3/relu -> conv4_9_3x3 (in-place)
I1019 17:33:30.442397  3535 net.cpp:150] Setting up conv4_9_3x3/relu
I1019 17:33:30.442405  3535 net.cpp:157] Top shape: 1 256 18 18 (82944)
I1019 17:33:30.442412  3535 net.cpp:165] Memory required for data: 157510280
I1019 17:33:30.442420  3535 layer_factory.hpp:77] Creating layer conv4_9_1x1_increase
I1019 17:33:30.442431  3535 net.cpp:106] Creating Layer conv4_9_1x1_increase
I1019 17:33:30.442440  3535 net.cpp:454] conv4_9_1x1_increase <- conv4_9_3x3
I1019 17:33:30.442451  3535 net.cpp:411] conv4_9_1x1_increase -> conv4_9_1x1_increase
I1019 17:33:30.445191  3535 net.cpp:150] Setting up conv4_9_1x1_increase
I1019 17:33:30.445210  3535 net.cpp:157] Top shape: 1 1024 18 18 (331776)
I1019 17:33:30.445219  3535 net.cpp:165] Memory required for data: 158837384
I1019 17:33:30.445227  3535 layer_factory.hpp:77] Creating layer conv4_9_1x1_increase/bn
I1019 17:33:30.445240  3535 net.cpp:106] Creating Layer conv4_9_1x1_increase/bn
I1019 17:33:30.445248  3535 net.cpp:454] conv4_9_1x1_increase/bn <- conv4_9_1x1_increase
I1019 17:33:30.445258  3535 net.cpp:397] conv4_9_1x1_increase/bn -> conv4_9_1x1_increase (in-place)
I1019 17:33:30.445422  3535 net.cpp:150] Setting up conv4_9_1x1_increase/bn
I1019 17:33:30.445435  3535 net.cpp:157] Top shape: 1 1024 18 18 (331776)
I1019 17:33:30.445441  3535 net.cpp:165] Memory required for data: 160164488
I1019 17:33:30.445452  3535 layer_factory.hpp:77] Creating layer conv4_9
I1019 17:33:30.445462  3535 net.cpp:106] Creating Layer conv4_9
I1019 17:33:30.445471  3535 net.cpp:454] conv4_9 <- conv4_8_conv4_8/relu_0_split_1
I1019 17:33:30.445479  3535 net.cpp:454] conv4_9 <- conv4_9_1x1_increase
I1019 17:33:30.445488  3535 net.cpp:411] conv4_9 -> conv4_9
I1019 17:33:30.445514  3535 net.cpp:150] Setting up conv4_9
I1019 17:33:30.445525  3535 net.cpp:157] Top shape: 1 1024 18 18 (331776)
I1019 17:33:30.445533  3535 net.cpp:165] Memory required for data: 161491592
I1019 17:33:30.445539  3535 layer_factory.hpp:77] Creating layer conv4_9/relu
I1019 17:33:30.445549  3535 net.cpp:106] Creating Layer conv4_9/relu
I1019 17:33:30.445556  3535 net.cpp:454] conv4_9/relu <- conv4_9
I1019 17:33:30.445565  3535 net.cpp:397] conv4_9/relu -> conv4_9 (in-place)
I1019 17:33:30.445575  3535 net.cpp:150] Setting up conv4_9/relu
I1019 17:33:30.445585  3535 net.cpp:157] Top shape: 1 1024 18 18 (331776)
I1019 17:33:30.445591  3535 net.cpp:165] Memory required for data: 162818696
I1019 17:33:30.445598  3535 layer_factory.hpp:77] Creating layer conv4_9_conv4_9/relu_0_split
I1019 17:33:30.445607  3535 net.cpp:106] Creating Layer conv4_9_conv4_9/relu_0_split
I1019 17:33:30.445614  3535 net.cpp:454] conv4_9_conv4_9/relu_0_split <- conv4_9
I1019 17:33:30.445626  3535 net.cpp:411] conv4_9_conv4_9/relu_0_split -> conv4_9_conv4_9/relu_0_split_0
I1019 17:33:30.445636  3535 net.cpp:411] conv4_9_conv4_9/relu_0_split -> conv4_9_conv4_9/relu_0_split_1
I1019 17:33:30.445668  3535 net.cpp:150] Setting up conv4_9_conv4_9/relu_0_split
I1019 17:33:30.445679  3535 net.cpp:157] Top shape: 1 1024 18 18 (331776)
I1019 17:33:30.445688  3535 net.cpp:157] Top shape: 1 1024 18 18 (331776)
I1019 17:33:30.445694  3535 net.cpp:165] Memory required for data: 165472904
I1019 17:33:30.445701  3535 layer_factory.hpp:77] Creating layer conv4_10_1x1_reduce
I1019 17:33:30.445718  3535 net.cpp:106] Creating Layer conv4_10_1x1_reduce
I1019 17:33:30.445730  3535 net.cpp:454] conv4_10_1x1_reduce <- conv4_9_conv4_9/relu_0_split_0
I1019 17:33:30.445741  3535 net.cpp:411] conv4_10_1x1_reduce -> conv4_10_1x1_reduce
I1019 17:33:30.447796  3535 net.cpp:150] Setting up conv4_10_1x1_reduce
I1019 17:33:30.447810  3535 net.cpp:157] Top shape: 1 256 18 18 (82944)
I1019 17:33:30.447818  3535 net.cpp:165] Memory required for data: 165804680
I1019 17:33:30.447826  3535 layer_factory.hpp:77] Creating layer conv4_10_1x1_reduce/bn
I1019 17:33:30.447839  3535 net.cpp:106] Creating Layer conv4_10_1x1_reduce/bn
I1019 17:33:30.447847  3535 net.cpp:454] conv4_10_1x1_reduce/bn <- conv4_10_1x1_reduce
I1019 17:33:30.447857  3535 net.cpp:397] conv4_10_1x1_reduce/bn -> conv4_10_1x1_reduce (in-place)
I1019 17:33:30.448010  3535 net.cpp:150] Setting up conv4_10_1x1_reduce/bn
I1019 17:33:30.448021  3535 net.cpp:157] Top shape: 1 256 18 18 (82944)
I1019 17:33:30.448029  3535 net.cpp:165] Memory required for data: 166136456
I1019 17:33:30.448038  3535 layer_factory.hpp:77] Creating layer conv4_10_1x1_reduce/relu
I1019 17:33:30.448048  3535 net.cpp:106] Creating Layer conv4_10_1x1_reduce/relu
I1019 17:33:30.448055  3535 net.cpp:454] conv4_10_1x1_reduce/relu <- conv4_10_1x1_reduce
I1019 17:33:30.448065  3535 net.cpp:397] conv4_10_1x1_reduce/relu -> conv4_10_1x1_reduce (in-place)
I1019 17:33:30.448073  3535 net.cpp:150] Setting up conv4_10_1x1_reduce/relu
I1019 17:33:30.448081  3535 net.cpp:157] Top shape: 1 256 18 18 (82944)
I1019 17:33:30.448089  3535 net.cpp:165] Memory required for data: 166468232
I1019 17:33:30.448096  3535 layer_factory.hpp:77] Creating layer conv4_10_3x3
I1019 17:33:30.448107  3535 net.cpp:106] Creating Layer conv4_10_3x3
I1019 17:33:30.448113  3535 net.cpp:454] conv4_10_3x3 <- conv4_10_1x1_reduce
I1019 17:33:30.448124  3535 net.cpp:411] conv4_10_3x3 -> conv4_10_3x3
I1019 17:33:30.453261  3535 net.cpp:150] Setting up conv4_10_3x3
I1019 17:33:30.453286  3535 net.cpp:157] Top shape: 1 256 18 18 (82944)
I1019 17:33:30.453294  3535 net.cpp:165] Memory required for data: 166800008
I1019 17:33:30.453305  3535 layer_factory.hpp:77] Creating layer conv4_10_3x3/bn
I1019 17:33:30.453316  3535 net.cpp:106] Creating Layer conv4_10_3x3/bn
I1019 17:33:30.453325  3535 net.cpp:454] conv4_10_3x3/bn <- conv4_10_3x3
I1019 17:33:30.453336  3535 net.cpp:397] conv4_10_3x3/bn -> conv4_10_3x3 (in-place)
I1019 17:33:30.453495  3535 net.cpp:150] Setting up conv4_10_3x3/bn
I1019 17:33:30.453506  3535 net.cpp:157] Top shape: 1 256 18 18 (82944)
I1019 17:33:30.453514  3535 net.cpp:165] Memory required for data: 167131784
I1019 17:33:30.453524  3535 layer_factory.hpp:77] Creating layer conv4_10_3x3/relu
I1019 17:33:30.453536  3535 net.cpp:106] Creating Layer conv4_10_3x3/relu
I1019 17:33:30.453543  3535 net.cpp:454] conv4_10_3x3/relu <- conv4_10_3x3
I1019 17:33:30.453552  3535 net.cpp:397] conv4_10_3x3/relu -> conv4_10_3x3 (in-place)
I1019 17:33:30.453562  3535 net.cpp:150] Setting up conv4_10_3x3/relu
I1019 17:33:30.453570  3535 net.cpp:157] Top shape: 1 256 18 18 (82944)
I1019 17:33:30.453577  3535 net.cpp:165] Memory required for data: 167463560
I1019 17:33:30.453584  3535 layer_factory.hpp:77] Creating layer conv4_10_1x1_increase
I1019 17:33:30.453595  3535 net.cpp:106] Creating Layer conv4_10_1x1_increase
I1019 17:33:30.453603  3535 net.cpp:454] conv4_10_1x1_increase <- conv4_10_3x3
I1019 17:33:30.453614  3535 net.cpp:411] conv4_10_1x1_increase -> conv4_10_1x1_increase
I1019 17:33:30.456344  3535 net.cpp:150] Setting up conv4_10_1x1_increase
I1019 17:33:30.456364  3535 net.cpp:157] Top shape: 1 1024 18 18 (331776)
I1019 17:33:30.456372  3535 net.cpp:165] Memory required for data: 168790664
I1019 17:33:30.456382  3535 layer_factory.hpp:77] Creating layer conv4_10_1x1_increase/bn
I1019 17:33:30.456393  3535 net.cpp:106] Creating Layer conv4_10_1x1_increase/bn
I1019 17:33:30.456403  3535 net.cpp:454] conv4_10_1x1_increase/bn <- conv4_10_1x1_increase
I1019 17:33:30.456413  3535 net.cpp:397] conv4_10_1x1_increase/bn -> conv4_10_1x1_increase (in-place)
I1019 17:33:30.456580  3535 net.cpp:150] Setting up conv4_10_1x1_increase/bn
I1019 17:33:30.456598  3535 net.cpp:157] Top shape: 1 1024 18 18 (331776)
I1019 17:33:30.456606  3535 net.cpp:165] Memory required for data: 170117768
I1019 17:33:30.456616  3535 layer_factory.hpp:77] Creating layer conv4_10
I1019 17:33:30.456627  3535 net.cpp:106] Creating Layer conv4_10
I1019 17:33:30.456636  3535 net.cpp:454] conv4_10 <- conv4_9_conv4_9/relu_0_split_1
I1019 17:33:30.456645  3535 net.cpp:454] conv4_10 <- conv4_10_1x1_increase
I1019 17:33:30.456655  3535 net.cpp:411] conv4_10 -> conv4_10
I1019 17:33:30.456681  3535 net.cpp:150] Setting up conv4_10
I1019 17:33:30.456691  3535 net.cpp:157] Top shape: 1 1024 18 18 (331776)
I1019 17:33:30.456698  3535 net.cpp:165] Memory required for data: 171444872
I1019 17:33:30.456706  3535 layer_factory.hpp:77] Creating layer conv4_10/relu
I1019 17:33:30.456714  3535 net.cpp:106] Creating Layer conv4_10/relu
I1019 17:33:30.456722  3535 net.cpp:454] conv4_10/relu <- conv4_10
I1019 17:33:30.456732  3535 net.cpp:397] conv4_10/relu -> conv4_10 (in-place)
I1019 17:33:30.456742  3535 net.cpp:150] Setting up conv4_10/relu
I1019 17:33:30.456750  3535 net.cpp:157] Top shape: 1 1024 18 18 (331776)
I1019 17:33:30.456758  3535 net.cpp:165] Memory required for data: 172771976
I1019 17:33:30.456764  3535 layer_factory.hpp:77] Creating layer conv4_10_conv4_10/relu_0_split
I1019 17:33:30.456773  3535 net.cpp:106] Creating Layer conv4_10_conv4_10/relu_0_split
I1019 17:33:30.456780  3535 net.cpp:454] conv4_10_conv4_10/relu_0_split <- conv4_10
I1019 17:33:30.456791  3535 net.cpp:411] conv4_10_conv4_10/relu_0_split -> conv4_10_conv4_10/relu_0_split_0
I1019 17:33:30.456801  3535 net.cpp:411] conv4_10_conv4_10/relu_0_split -> conv4_10_conv4_10/relu_0_split_1
I1019 17:33:30.456836  3535 net.cpp:150] Setting up conv4_10_conv4_10/relu_0_split
I1019 17:33:30.456846  3535 net.cpp:157] Top shape: 1 1024 18 18 (331776)
I1019 17:33:30.456856  3535 net.cpp:157] Top shape: 1 1024 18 18 (331776)
I1019 17:33:30.456862  3535 net.cpp:165] Memory required for data: 175426184
I1019 17:33:30.456869  3535 layer_factory.hpp:77] Creating layer conv4_11_1x1_reduce
I1019 17:33:30.456881  3535 net.cpp:106] Creating Layer conv4_11_1x1_reduce
I1019 17:33:30.456890  3535 net.cpp:454] conv4_11_1x1_reduce <- conv4_10_conv4_10/relu_0_split_0
I1019 17:33:30.456899  3535 net.cpp:411] conv4_11_1x1_reduce -> conv4_11_1x1_reduce
I1019 17:33:30.458963  3535 net.cpp:150] Setting up conv4_11_1x1_reduce
I1019 17:33:30.458991  3535 net.cpp:157] Top shape: 1 256 18 18 (82944)
I1019 17:33:30.458998  3535 net.cpp:165] Memory required for data: 175757960
I1019 17:33:30.459007  3535 layer_factory.hpp:77] Creating layer conv4_11_1x1_reduce/bn
I1019 17:33:30.459017  3535 net.cpp:106] Creating Layer conv4_11_1x1_reduce/bn
I1019 17:33:30.459025  3535 net.cpp:454] conv4_11_1x1_reduce/bn <- conv4_11_1x1_reduce
I1019 17:33:30.459034  3535 net.cpp:397] conv4_11_1x1_reduce/bn -> conv4_11_1x1_reduce (in-place)
I1019 17:33:30.459187  3535 net.cpp:150] Setting up conv4_11_1x1_reduce/bn
I1019 17:33:30.459198  3535 net.cpp:157] Top shape: 1 256 18 18 (82944)
I1019 17:33:30.459205  3535 net.cpp:165] Memory required for data: 176089736
I1019 17:33:30.459216  3535 layer_factory.hpp:77] Creating layer conv4_11_1x1_reduce/relu
I1019 17:33:30.459225  3535 net.cpp:106] Creating Layer conv4_11_1x1_reduce/relu
…
I1019 17:33:30.585268  3535 net.cpp:165] Memory required for data: 279603848
I1019 17:33:30.585279  3535 layer_factory.hpp:77] Creating layer conv4_21
I1019 17:33:30.585290  3535 net.cpp:106] Creating Layer conv4_21
I1019 17:33:30.585299  3535 net.cpp:454] conv4_21 <- conv4_20_conv4_20/relu_0_split_1
I1019 17:33:30.585309  3535 net.cpp:454] conv4_21 <- conv4_21_1x1_increase
I1019 17:33:30.585317  3535 net.cpp:411] conv4_21 -> conv4_21
I1019 17:33:30.585346  3535 net.cpp:150] Setting up conv4_21
I1019 17:33:30.585357  3535 net.cpp:157] Top shape: 1 1024 18 18 (331776)
I1019 17:33:30.585366  3535 net.cpp:165] Memory required for data: 280930952
I1019 17:33:30.585372  3535 layer_factory.hpp:77] Creating layer conv4_21/relu
I1019 17:33:30.585381  3535 net.cpp:106] Creating Layer conv4_21/relu
I1019 17:33:30.585389  3535 net.cpp:454] conv4_21/relu <- conv4_21
I1019 17:33:30.585399  3535 net.cpp:397] conv4_21/relu -> conv4_21 (in-place)
I1019 17:33:30.585410  3535 net.cpp:150] Setting up conv4_21/relu
I1019 17:33:30.585419  3535 net.cpp:157] Top shape: 1 1024 18 18 (331776)
I1019 17:33:30.585427  3535 net.cpp:165] Memory required for data: 282258056
I1019 17:33:30.585434  3535 layer_factory.hpp:77] Creating layer conv4_21_conv4_21/relu_0_split
I1019 17:33:30.585443  3535 net.cpp:106] Creating Layer conv4_21_conv4_21/relu_0_split
I1019 17:33:30.585451  3535 net.cpp:454] conv4_21_conv4_21/relu_0_split <- conv4_21
I1019 17:33:30.585461  3535 net.cpp:411] conv4_21_conv4_21/relu_0_split -> conv4_21_conv4_21/relu_0_split_0
I1019 17:33:30.585472  3535 net.cpp:411] conv4_21_conv4_21/relu_0_split -> conv4_21_conv4_21/relu_0_split_1
I1019 17:33:30.585508  3535 net.cpp:150] Setting up conv4_21_conv4_21/relu_0_split
I1019 17:33:30.585512  3535 net.cpp:157] Top shape: 1 1024 18 18 (331776)
I1019 17:33:30.585515  3535 net.cpp:157] Top shape: 1 1024 18 18 (331776)
I1019 17:33:30.585516  3535 net.cpp:165] Memory required for data: 284912264
I1019 17:33:30.585518  3535 layer_factory.hpp:77] Creating layer conv4_22_1x1_reduce
I1019 17:33:30.585526  3535 net.cpp:106] Creating Layer conv4_22_1x1_reduce
I1019 17:33:30.585528  3535 net.cpp:454] conv4_22_1x1_reduce <- conv4_21_conv4_21/relu_0_split_0
I1019 17:33:30.585532  3535 net.cpp:411] conv4_22_1x1_reduce -> conv4_22_1x1_reduce
I1019 17:33:30.587641  3535 net.cpp:150] Setting up conv4_22_1x1_reduce
I1019 17:33:30.587646  3535 net.cpp:157] Top shape: 1 256 18 18 (82944)
I1019 17:33:30.587648  3535 net.cpp:165] Memory required for data: 285244040
I1019 17:33:30.587651  3535 layer_factory.hpp:77] Creating layer conv4_22_1x1_reduce/bn
I1019 17:33:30.587656  3535 net.cpp:106] Creating Layer conv4_22_1x1_reduce/bn
I1019 17:33:30.587658  3535 net.cpp:454] conv4_22_1x1_reduce/bn <- conv4_22_1x1_reduce
I1019 17:33:30.587661  3535 net.cpp:397] conv4_22_1x1_reduce/bn -> conv4_22_1x1_reduce (in-place)
I1019 17:33:30.587822  3535 net.cpp:150] Setting up conv4_22_1x1_reduce/bn
I1019 17:33:30.587826  3535 net.cpp:157] Top shape: 1 256 18 18 (82944)
I1019 17:33:30.587828  3535 net.cpp:165] Memory required for data: 285575816
I1019 17:33:30.587833  3535 layer_factory.hpp:77] Creating layer conv4_22_1x1_reduce/relu
I1019 17:33:30.587836  3535 net.cpp:106] Creating Layer conv4_22_1x1_reduce/relu
I1019 17:33:30.587838  3535 net.cpp:454] conv4_22_1x1_reduce/relu <- conv4_22_1x1_reduce
I1019 17:33:30.587841  3535 net.cpp:397] conv4_22_1x1_reduce/relu -> conv4_22_1x1_reduce (in-place)
I1019 17:33:30.587844  3535 net.cpp:150] Setting up conv4_22_1x1_reduce/relu
I1019 17:33:30.587847  3535 net.cpp:157] Top shape: 1 256 18 18 (82944)
I1019 17:33:30.587848  3535 net.cpp:165] Memory required for data: 285907592
I1019 17:33:30.587851  3535 layer_factory.hpp:77] Creating layer conv4_22_3x3
I1019 17:33:30.587855  3535 net.cpp:106] Creating Layer conv4_22_3x3
I1019 17:33:30.587857  3535 net.cpp:454] conv4_22_3x3 <- conv4_22_1x1_reduce
I1019 17:33:30.587863  3535 net.cpp:411] conv4_22_3x3 -> conv4_22_3x3
I1019 17:33:30.594192  3535 net.cpp:150] Setting up conv4_22_3x3
I1019 17:33:30.594225  3535 net.cpp:157] Top shape: 1 256 18 18 (82944)
I1019 17:33:30.594246  3535 net.cpp:165] Memory required for data: 286239368
I1019 17:33:30.594264  3535 layer_factory.hpp:77] Creating layer conv4_22_3x3/bn
I1019 17:33:30.594279  3535 net.cpp:106] Creating Layer conv4_22_3x3/bn
I1019 17:33:30.594288  3535 net.cpp:454] conv4_22_3x3/bn <- conv4_22_3x3
I1019 17:33:30.594300  3535 net.cpp:397] conv4_22_3x3/bn -> conv4_22_3x3 (in-place)
I1019 17:33:30.594491  3535 net.cpp:150] Setting up conv4_22_3x3/bn
I1019 17:33:30.594503  3535 net.cpp:157] Top shape: 1 256 18 18 (82944)
I1019 17:33:30.594511  3535 net.cpp:165] Memory required for data: 286571144
I1019 17:33:30.594522  3535 layer_factory.hpp:77] Creating layer conv4_22_3x3/relu
I1019 17:33:30.594532  3535 net.cpp:106] Creating Layer conv4_22_3x3/relu
I1019 17:33:30.594540  3535 net.cpp:454] conv4_22_3x3/relu <- conv4_22_3x3
I1019 17:33:30.594550  3535 net.cpp:397] conv4_22_3x3/relu -> conv4_22_3x3 (in-place)
I1019 17:33:30.594561  3535 net.cpp:150] Setting up conv4_22_3x3/relu
I1019 17:33:30.594570  3535 net.cpp:157] Top shape: 1 256 18 18 (82944)
I1019 17:33:30.594578  3535 net.cpp:165] Memory required for data: 286902920
I1019 17:33:30.594584  3535 layer_factory.hpp:77] Creating layer conv4_22_1x1_increase
I1019 17:33:30.594596  3535 net.cpp:106] Creating Layer conv4_22_1x1_increase
I1019 17:33:30.594604  3535 net.cpp:454] conv4_22_1x1_increase <- conv4_22_3x3
I1019 17:33:30.594616  3535 net.cpp:411] conv4_22_1x1_increase -> conv4_22_1x1_increase
I1019 17:33:30.597482  3535 net.cpp:150] Setting up conv4_22_1x1_increase
I1019 17:33:30.597502  3535 net.cpp:157] Top shape: 1 1024 18 18 (331776)
I1019 17:33:30.597512  3535 net.cpp:165] Memory required for data: 288230024
I1019 17:33:30.597520  3535 layer_factory.hpp:77] Creating layer conv4_22_1x1_increase/bn
I1019 17:33:30.597532  3535 net.cpp:106] Creating Layer conv4_22_1x1_increase/bn
I1019 17:33:30.597540  3535 net.cpp:454] conv4_22_1x1_increase/bn <- conv4_22_1x1_increase
I1019 17:33:30.597551  3535 net.cpp:397] conv4_22_1x1_increase/bn -> conv4_22_1x1_increase (in-place)
I1019 17:33:30.597730  3535 net.cpp:150] Setting up conv4_22_1x1_increase/bn
I1019 17:33:30.597743  3535 net.cpp:157] Top shape: 1 1024 18 18 (331776)
I1019 17:33:30.597750  3535 net.cpp:165] Memory required for data: 289557128
I1019 17:33:30.597760  3535 layer_factory.hpp:77] Creating layer conv4_22
I1019 17:33:30.597771  3535 net.cpp:106] Creating Layer conv4_22
I1019 17:33:30.597780  3535 net.cpp:454] conv4_22 <- conv4_21_conv4_21/relu_0_split_1
I1019 17:33:30.597789  3535 net.cpp:454] conv4_22 <- conv4_22_1x1_increase
I1019 17:33:30.597798  3535 net.cpp:411] conv4_22 -> conv4_22
I1019 17:33:30.597825  3535 net.cpp:150] Setting up conv4_22
I1019 17:33:30.597834  3535 net.cpp:157] Top shape: 1 1024 18 18 (331776)
I1019 17:33:30.597842  3535 net.cpp:165] Memory required for data: 290884232
I1019 17:33:30.597867  3535 layer_factory.hpp:77] Creating layer conv4_22/relu
I1019 17:33:30.597877  3535 net.cpp:106] Creating Layer conv4_22/relu
I1019 17:33:30.597884  3535 net.cpp:454] conv4_22/relu <- conv4_22
I1019 17:33:30.597894  3535 net.cpp:397] conv4_22/relu -> conv4_22 (in-place)
I1019 17:33:30.597904  3535 net.cpp:150] Setting up conv4_22/relu
I1019 17:33:30.597913  3535 net.cpp:157] Top shape: 1 1024 18 18 (331776)
I1019 17:33:30.597920  3535 net.cpp:165] Memory required for data: 292211336
I1019 17:33:30.597929  3535 layer_factory.hpp:77] Creating layer conv4_22_conv4_22/relu_0_split
I1019 17:33:30.597937  3535 net.cpp:106] Creating Layer conv4_22_conv4_22/relu_0_split
I1019 17:33:30.597945  3535 net.cpp:454] conv4_22_conv4_22/relu_0_split <- conv4_22
I1019 17:33:30.597968  3535 net.cpp:411] conv4_22_conv4_22/relu_0_split -> conv4_22_conv4_22/relu_0_split_0
I1019 17:33:30.597980  3535 net.cpp:411] conv4_22_conv4_22/relu_0_split -> conv4_22_conv4_22/relu_0_split_1
I1019 17:33:30.598016  3535 net.cpp:150] Setting up conv4_22_conv4_22/relu_0_split
I1019 17:33:30.598026  3535 net.cpp:157] Top shape: 1 1024 18 18 (331776)
I1019 17:33:30.598037  3535 net.cpp:157] Top shape: 1 1024 18 18 (331776)
I1019 17:33:30.598050  3535 net.cpp:165] Memory required for data: 294865544
I1019 17:33:30.598057  3535 layer_factory.hpp:77] Creating layer conv4_23_1x1_reduce
I1019 17:33:30.598069  3535 net.cpp:106] Creating Layer conv4_23_1x1_reduce
I1019 17:33:30.598078  3535 net.cpp:454] conv4_23_1x1_reduce <- conv4_22_conv4_22/relu_0_split_0
I1019 17:33:30.598088  3535 net.cpp:411] conv4_23_1x1_reduce -> conv4_23_1x1_reduce
I1019 17:33:30.600150  3535 net.cpp:150] Setting up conv4_23_1x1_reduce
I1019 17:33:30.600165  3535 net.cpp:157] Top shape: 1 256 18 18 (82944)
I1019 17:33:30.600172  3535 net.cpp:165] Memory required for data: 295197320
I1019 17:33:30.600181  3535 layer_factory.hpp:77] Creating layer conv4_23_1x1_reduce/bn
I1019 17:33:30.600193  3535 net.cpp:106] Creating Layer conv4_23_1x1_reduce/bn
I1019 17:33:30.600200  3535 net.cpp:454] conv4_23_1x1_reduce/bn <- conv4_23_1x1_reduce
I1019 17:33:30.600210  3535 net.cpp:397] conv4_23_1x1_reduce/bn -> conv4_23_1x1_reduce (in-place)
I1019 17:33:30.600380  3535 net.cpp:150] Setting up conv4_23_1x1_reduce/bn
I1019 17:33:30.600391  3535 net.cpp:157] Top shape: 1 256 18 18 (82944)
I1019 17:33:30.600399  3535 net.cpp:165] Memory required for data: 295529096
I1019 17:33:30.600409  3535 layer_factory.hpp:77] Creating layer conv4_23_1x1_reduce/relu
I1019 17:33:30.600419  3535 net.cpp:106] Creating Layer conv4_23_1x1_reduce/relu
I1019 17:33:30.600426  3535 net.cpp:454] conv4_23_1x1_reduce/relu <- conv4_23_1x1_reduce
I1019 17:33:30.600435  3535 net.cpp:397] conv4_23_1x1_reduce/relu -> conv4_23_1x1_reduce (in-place)
I1019 17:33:30.600446  3535 net.cpp:150] Setting up conv4_23_1x1_reduce/relu
I1019 17:33:30.600455  3535 net.cpp:157] Top shape: 1 256 18 18 (82944)
I1019 17:33:30.600461  3535 net.cpp:165] Memory required for data: 295860872
I1019 17:33:30.600468  3535 layer_factory.hpp:77] Creating layer conv4_23_3x3
I1019 17:33:30.600479  3535 net.cpp:106] Creating Layer conv4_23_3x3
I1019 17:33:30.600488  3535 net.cpp:454] conv4_23_3x3 <- conv4_23_1x1_reduce
I1019 17:33:30.600497  3535 net.cpp:411] conv4_23_3x3 -> conv4_23_3x3
I1019 17:33:30.605645  3535 net.cpp:150] Setting up conv4_23_3x3
I1019 17:33:30.605665  3535 net.cpp:157] Top shape: 1 256 18 18 (82944)
I1019 17:33:30.605674  3535 net.cpp:165] Memory required for data: 296192648
I1019 17:33:30.605684  3535 layer_factory.hpp:77] Creating layer conv4_23_3x3/bn
I1019 17:33:30.605696  3535 net.cpp:106] Creating Layer conv4_23_3x3/bn
I1019 17:33:30.605705  3535 net.cpp:454] conv4_23_3x3/bn <- conv4_23_3x3
I1019 17:33:30.605715  3535 net.cpp:397] conv4_23_3x3/bn -> conv4_23_3x3 (in-place)
I1019 17:33:30.605890  3535 net.cpp:150] Setting up conv4_23_3x3/bn
I1019 17:33:30.605901  3535 net.cpp:157] Top shape: 1 256 18 18 (82944)
I1019 17:33:30.605908  3535 net.cpp:165] Memory required for data: 296524424
I1019 17:33:30.605918  3535 layer_factory.hpp:77] Creating layer conv4_23_3x3/relu
I1019 17:33:30.605928  3535 net.cpp:106] Creating Layer conv4_23_3x3/relu
I1019 17:33:30.605937  3535 net.cpp:454] conv4_23_3x3/relu <- conv4_23_3x3
I1019 17:33:30.605944  3535 net.cpp:397] conv4_23_3x3/relu -> conv4_23_3x3 (in-place)
I1019 17:33:30.605954  3535 net.cpp:150] Setting up conv4_23_3x3/relu
I1019 17:33:30.605963  3535 net.cpp:157] Top shape: 1 256 18 18 (82944)
I1019 17:33:30.605970  3535 net.cpp:165] Memory required for data: 296856200
I1019 17:33:30.605978  3535 layer_factory.hpp:77] Creating layer conv4_23_1x1_increase
I1019 17:33:30.605989  3535 net.cpp:106] Creating Layer conv4_23_1x1_increase
I1019 17:33:30.605998  3535 net.cpp:454] conv4_23_1x1_increase <- conv4_23_3x3
I1019 17:33:30.606009  3535 net.cpp:411] conv4_23_1x1_increase -> conv4_23_1x1_increase
I1019 17:33:30.608762  3535 net.cpp:150] Setting up conv4_23_1x1_increase
I1019 17:33:30.608783  3535 net.cpp:157] Top shape: 1 1024 18 18 (331776)
I1019 17:33:30.608790  3535 net.cpp:165] Memory required for data: 298183304
I1019 17:33:30.608799  3535 layer_factory.hpp:77] Creating layer conv4_23_1x1_increase/bn
I1019 17:33:30.608816  3535 net.cpp:106] Creating Layer conv4_23_1x1_increase/bn
I1019 17:33:30.608831  3535 net.cpp:454] conv4_23_1x1_increase/bn <- conv4_23_1x1_increase
I1019 17:33:30.608841  3535 net.cpp:397] conv4_23_1x1_increase/bn -> conv4_23_1x1_increase (in-place)
I1019 17:33:30.609025  3535 net.cpp:150] Setting up conv4_23_1x1_increase/bn
I1019 17:33:30.609036  3535 net.cpp:157] Top shape: 1 1024 18 18 (331776)
I1019 17:33:30.609043  3535 net.cpp:165] Memory required for data: 299510408
I1019 17:33:30.609053  3535 layer_factory.hpp:77] Creating layer conv4_23
I1019 17:33:30.609063  3535 net.cpp:106] Creating Layer conv4_23
I1019 17:33:30.609072  3535 net.cpp:454] conv4_23 <- conv4_22_conv4_22/relu_0_split_1
I1019 17:33:30.609081  3535 net.cpp:454] conv4_23 <- conv4_23_1x1_increase
I1019 17:33:30.609091  3535 net.cpp:411] conv4_23 -> conv4_23
I1019 17:33:30.609117  3535 net.cpp:150] Setting up conv4_23
I1019 17:33:30.609128  3535 net.cpp:157] Top shape: 1 1024 18 18 (331776)
I1019 17:33:30.609135  3535 net.cpp:165] Memory required for data: 300837512
I1019 17:33:30.609143  3535 layer_factory.hpp:77] Creating layer conv4_23/relu
I1019 17:33:30.609151  3535 net.cpp:106] Creating Layer conv4_23/relu
I1019 17:33:30.609159  3535 net.cpp:454] conv4_23/relu <- conv4_23
I1019 17:33:30.609169  3535 net.cpp:397] conv4_23/relu -> conv4_23 (in-place)
I1019 17:33:30.609179  3535 net.cpp:150] Setting up conv4_23/relu
I1019 17:33:30.609187  3535 net.cpp:157] Top shape: 1 1024 18 18 (331776)
I1019 17:33:30.609194  3535 net.cpp:165] Memory required for data: 302164616
I1019 17:33:30.609201  3535 layer_factory.hpp:77] Creating layer conv4_23_conv4_23/relu_0_split
I1019 17:33:30.609210  3535 net.cpp:106] Creating Layer conv4_23_conv4_23/relu_0_split
I1019 17:33:30.609217  3535 net.cpp:454] conv4_23_conv4_23/relu_0_split <- conv4_23
I1019 17:33:30.609227  3535 net.cpp:411] conv4_23_conv4_23/relu_0_split -> conv4_23_conv4_23/relu_0_split_0
I1019 17:33:30.609238  3535 net.cpp:411] conv4_23_conv4_23/relu_0_split -> conv4_23_conv4_23/relu_0_split_1
I1019 17:33:30.609274  3535 net.cpp:150] Setting up conv4_23_conv4_23/relu_0_split
I1019 17:33:30.609284  3535 net.cpp:157] Top shape: 1 1024 18 18 (331776)
I1019 17:33:30.609292  3535 net.cpp:157] Top shape: 1 1024 18 18 (331776)
I1019 17:33:30.609299  3535 net.cpp:165] Memory required for data: 304818824
I1019 17:33:30.609307  3535 layer_factory.hpp:77] Creating layer conv5_1_1x1_reduce
I1019 17:33:30.609318  3535 net.cpp:106] Creating Layer conv5_1_1x1_reduce
I1019 17:33:30.609328  3535 net.cpp:454] conv5_1_1x1_reduce <- conv4_23_conv4_23/relu_0_split_0
I1019 17:33:30.609338  3535 net.cpp:411] conv5_1_1x1_reduce -> conv5_1_1x1_reduce
I1019 17:33:30.613958  3535 net.cpp:150] Setting up conv5_1_1x1_reduce
I1019 17:33:30.613978  3535 net.cpp:157] Top shape: 1 512 18 18 (165888)
I1019 17:33:30.613986  3535 net.cpp:165] Memory required for data: 305482376
I1019 17:33:30.613996  3535 layer_factory.hpp:77] Creating layer conv5_1_1x1_reduce/bn
I1019 17:33:30.614006  3535 net.cpp:106] Creating Layer conv5_1_1x1_reduce/bn
I1019 17:33:30.614014  3535 net.cpp:454] conv5_1_1x1_reduce/bn <- conv5_1_1x1_reduce
I1019 17:33:30.614025  3535 net.cpp:397] conv5_1_1x1_reduce/bn -> conv5_1_1x1_reduce (in-place)
I1019 17:33:30.614207  3535 net.cpp:150] Setting up conv5_1_1x1_reduce/bn
I1019 17:33:30.614218  3535 net.cpp:157] Top shape: 1 512 18 18 (165888)
I1019 17:33:30.614225  3535 net.cpp:165] Memory required for data: 306145928
I1019 17:33:30.614236  3535 layer_factory.hpp:77] Creating layer conv5_1_1x1_reduce/relu
I1019 17:33:30.614245  3535 net.cpp:106] Creating Layer conv5_1_1x1_reduce/relu
I1019 17:33:30.614253  3535 net.cpp:454] conv5_1_1x1_reduce/relu <- conv5_1_1x1_reduce
I1019 17:33:30.614264  3535 net.cpp:397] conv5_1_1x1_reduce/relu -> conv5_1_1x1_reduce (in-place)
I1019 17:33:30.614274  3535 net.cpp:150] Setting up conv5_1_1x1_reduce/relu
I1019 17:33:30.614282  3535 net.cpp:157] Top shape: 1 512 18 18 (165888)
I1019 17:33:30.614289  3535 net.cpp:165] Memory required for data: 306809480
I1019 17:33:30.614300  3535 layer_factory.hpp:77] Creating layer conv5_1_3x3
I1019 17:33:30.614315  3535 net.cpp:106] Creating Layer conv5_1_3x3
I1019 17:33:30.614325  3535 net.cpp:454] conv5_1_3x3 <- conv5_1_1x1_reduce
I1019 17:33:30.614334  3535 net.cpp:411] conv5_1_3x3 -> conv5_1_3x3
I1019 17:33:30.634845  3535 net.cpp:150] Setting up conv5_1_3x3
I1019 17:33:30.634886  3535 net.cpp:157] Top shape: 1 512 18 18 (165888)
I1019 17:33:30.634896  3535 net.cpp:165] Memory required for data: 307473032
I1019 17:33:30.634907  3535 layer_factory.hpp:77] Creating layer conv5_1_3x3/bn
I1019 17:33:30.634928  3535 net.cpp:106] Creating Layer conv5_1_3x3/bn
I1019 17:33:30.634938  3535 net.cpp:454] conv5_1_3x3/bn <- conv5_1_3x3
I1019 17:33:30.634949  3535 net.cpp:397] conv5_1_3x3/bn -> conv5_1_3x3 (in-place)
I1019 17:33:30.635143  3535 net.cpp:150] Setting up conv5_1_3x3/bn
I1019 17:33:30.635154  3535 net.cpp:157] Top shape: 1 512 18 18 (165888)
I1019 17:33:30.635161  3535 net.cpp:165] Memory required for data: 308136584
I1019 17:33:30.635171  3535 layer_factory.hpp:77] Creating layer conv5_1_3x3/relu
I1019 17:33:30.635180  3535 net.cpp:106] Creating Layer conv5_1_3x3/relu
I1019 17:33:30.635187  3535 net.cpp:454] conv5_1_3x3/relu <- conv5_1_3x3
I1019 17:33:30.635195  3535 net.cpp:397] conv5_1_3x3/relu -> conv5_1_3x3 (in-place)
I1019 17:33:30.635205  3535 net.cpp:150] Setting up conv5_1_3x3/relu
I1019 17:33:30.635213  3535 net.cpp:157] Top shape: 1 512 18 18 (165888)
I1019 17:33:30.635221  3535 net.cpp:165] Memory required for data: 308800136
I1019 17:33:30.635227  3535 layer_factory.hpp:77] Creating layer conv5_1_1x1_increase
I1019 17:33:30.635243  3535 net.cpp:106] Creating Layer conv5_1_1x1_increase
I1019 17:33:30.635252  3535 net.cpp:454] conv5_1_1x1_increase <- conv5_1_3x3
I1019 17:33:30.635263  3535 net.cpp:411] conv5_1_1x1_increase -> conv5_1_1x1_increase
I1019 17:33:30.644091  3535 net.cpp:150] Setting up conv5_1_1x1_increase
I1019 17:33:30.644126  3535 net.cpp:157] Top shape: 1 2048 18 18 (663552)
I1019 17:33:30.644135  3535 net.cpp:165] Memory required for data: 311454344
I1019 17:33:30.644146  3535 layer_factory.hpp:77] Creating layer conv5_1_1x1_increase/bn
I1019 17:33:30.644160  3535 net.cpp:106] Creating Layer conv5_1_1x1_increase/bn
I1019 17:33:30.644170  3535 net.cpp:454] conv5_1_1x1_increase/bn <- conv5_1_1x1_increase
I1019 17:33:30.644181  3535 net.cpp:397] conv5_1_1x1_increase/bn -> conv5_1_1x1_increase (in-place)
I1019 17:33:30.644385  3535 net.cpp:150] Setting up conv5_1_1x1_increase/bn
I1019 17:33:30.644397  3535 net.cpp:157] Top shape: 1 2048 18 18 (663552)
I1019 17:33:30.644404  3535 net.cpp:165] Memory required for data: 314108552
I1019 17:33:30.644415  3535 layer_factory.hpp:77] Creating layer conv5_1_1x1_proj
I1019 17:33:30.644428  3535 net.cpp:106] Creating Layer conv5_1_1x1_proj
I1019 17:33:30.644438  3535 net.cpp:454] conv5_1_1x1_proj <- conv4_23_conv4_23/relu_0_split_1
I1019 17:33:30.644448  3535 net.cpp:411] conv5_1_1x1_proj -> conv5_1_1x1_proj
I1019 17:33:30.662637  3535 net.cpp:150] Setting up conv5_1_1x1_proj
I1019 17:33:30.662681  3535 net.cpp:157] Top shape: 1 2048 18 18 (663552)
I1019 17:33:30.662696  3535 net.cpp:165] Memory required for data: 316762760
I1019 17:33:30.662715  3535 layer_factory.hpp:77] Creating layer conv5_1_1x1_proj/bn
I1019 17:33:30.662739  3535 net.cpp:106] Creating Layer conv5_1_1x1_proj/bn
I1019 17:33:30.662752  3535 net.cpp:454] conv5_1_1x1_proj/bn <- conv5_1_1x1_proj
I1019 17:33:30.662770  3535 net.cpp:397] conv5_1_1x1_proj/bn -> conv5_1_1x1_proj (in-place)
I1019 17:33:30.662986  3535 net.cpp:150] Setting up conv5_1_1x1_proj/bn
I1019 17:33:30.663002  3535 net.cpp:157] Top shape: 1 2048 18 18 (663552)
I1019 17:33:30.663013  3535 net.cpp:165] Memory required for data: 319416968
I1019 17:33:30.663030  3535 layer_factory.hpp:77] Creating layer conv5_1
I1019 17:33:30.663046  3535 net.cpp:106] Creating Layer conv5_1
I1019 17:33:30.663058  3535 net.cpp:454] conv5_1 <- conv5_1_1x1_proj
I1019 17:33:30.663072  3535 net.cpp:454] conv5_1 <- conv5_1_1x1_increase
I1019 17:33:30.663087  3535 net.cpp:411] conv5_1 -> conv5_1
I1019 17:33:30.663128  3535 net.cpp:150] Setting up conv5_1
I1019 17:33:30.663149  3535 net.cpp:157] Top shape: 1 2048 18 18 (663552)
I1019 17:33:30.663161  3535 net.cpp:165] Memory required for data: 322071176
I1019 17:33:30.663172  3535 layer_factory.hpp:77] Creating layer conv5_1/relu
I1019 17:33:30.663188  3535 net.cpp:106] Creating Layer conv5_1/relu
I1019 17:33:30.663200  3535 net.cpp:454] conv5_1/relu <- conv5_1
I1019 17:33:30.663214  3535 net.cpp:397] conv5_1/relu -> conv5_1 (in-place)
I1019 17:33:30.663230  3535 net.cpp:150] Setting up conv5_1/relu
I1019 17:33:30.663244  3535 net.cpp:157] Top shape: 1 2048 18 18 (663552)
I1019 17:33:30.663255  3535 net.cpp:165] Memory required for data: 324725384
I1019 17:33:30.663267  3535 layer_factory.hpp:77] Creating layer conv5_1_conv5_1/relu_0_split
I1019 17:33:30.663282  3535 net.cpp:106] Creating Layer conv5_1_conv5_1/relu_0_split
I1019 17:33:30.663295  3535 net.cpp:454] conv5_1_conv5_1/relu_0_split <- conv5_1
I1019 17:33:30.663308  3535 net.cpp:411] conv5_1_conv5_1/relu_0_split -> conv5_1_conv5_1/relu_0_split_0
I1019 17:33:30.663324  3535 net.cpp:411] conv5_1_conv5_1/relu_0_split -> conv5_1_conv5_1/relu_0_split_1
I1019 17:33:30.663370  3535 net.cpp:150] Setting up conv5_1_conv5_1/relu_0_split
I1019 17:33:30.663384  3535 net.cpp:157] Top shape: 1 2048 18 18 (663552)
I1019 17:33:30.663398  3535 net.cpp:157] Top shape: 1 2048 18 18 (663552)
I1019 17:33:30.663408  3535 net.cpp:165] Memory required for data: 330033800
I1019 17:33:30.663419  3535 layer_factory.hpp:77] Creating layer conv5_2_1x1_reduce
I1019 17:33:30.663439  3535 net.cpp:106] Creating Layer conv5_2_1x1_reduce
I1019 17:33:30.663450  3535 net.cpp:454] conv5_2_1x1_reduce <- conv5_1_conv5_1/relu_0_split_0
I1019 17:33:30.663466  3535 net.cpp:411] conv5_2_1x1_reduce -> conv5_2_1x1_reduce
I1019 17:33:30.672348  3535 net.cpp:150] Setting up conv5_2_1x1_reduce
I1019 17:33:30.672384  3535 net.cpp:157] Top shape: 1 512 18 18 (165888)
I1019 17:33:30.672397  3535 net.cpp:165] Memory required for data: 330697352
I1019 17:33:30.672413  3535 layer_factory.hpp:77] Creating layer conv5_2_1x1_reduce/bn
I1019 17:33:30.672435  3535 net.cpp:106] Creating Layer conv5_2_1x1_reduce/bn
I1019 17:33:30.672448  3535 net.cpp:454] conv5_2_1x1_reduce/bn <- conv5_2_1x1_reduce
I1019 17:33:30.672464  3535 net.cpp:397] conv5_2_1x1_reduce/bn -> conv5_2_1x1_reduce (in-place)
I1019 17:33:30.672698  3535 net.cpp:150] Setting up conv5_2_1x1_reduce/bn
I1019 17:33:30.672713  3535 net.cpp:157] Top shape: 1 512 18 18 (165888)
I1019 17:33:30.672724  3535 net.cpp:165] Memory required for data: 331360904
I1019 17:33:30.672744  3535 layer_factory.hpp:77] Creating layer conv5_2_1x1_reduce/relu
I1019 17:33:30.672758  3535 net.cpp:106] Creating Layer conv5_2_1x1_reduce/relu
I1019 17:33:30.672770  3535 net.cpp:454] conv5_2_1x1_reduce/relu <- conv5_2_1x1_reduce
I1019 17:33:30.672785  3535 net.cpp:397] conv5_2_1x1_reduce/relu -> conv5_2_1x1_reduce (in-place)
I1019 17:33:30.672801  3535 net.cpp:150] Setting up conv5_2_1x1_reduce/relu
I1019 17:33:30.672812  3535 net.cpp:157] Top shape: 1 512 18 18 (165888)
I1019 17:33:30.672821  3535 net.cpp:165] Memory required for data: 332024456
I1019 17:33:30.672827  3535 layer_factory.hpp:77] Creating layer conv5_2_3x3
I1019 17:33:30.672840  3535 net.cpp:106] Creating Layer conv5_2_3x3
I1019 17:33:30.672848  3535 net.cpp:454] conv5_2_3x3 <- conv5_2_1x1_reduce
I1019 17:33:30.672859  3535 net.cpp:411] conv5_2_3x3 -> conv5_2_3x3
I1019 17:33:30.692889  3535 net.cpp:150] Setting up conv5_2_3x3
I1019 17:33:30.692936  3535 net.cpp:157] Top shape: 1 512 18 18 (165888)
I1019 17:33:30.692950  3535 net.cpp:165] Memory required for data: 332688008
I1019 17:33:30.692967  3535 layer_factory.hpp:77] Creating layer conv5_2_3x3/bn
I1019 17:33:30.692988  3535 net.cpp:106] Creating Layer conv5_2_3x3/bn
I1019 17:33:30.693001  3535 net.cpp:454] conv5_2_3x3/bn <- conv5_2_3x3
I1019 17:33:30.693018  3535 net.cpp:397] conv5_2_3x3/bn -> conv5_2_3x3 (in-place)
I1019 17:33:30.693224  3535 net.cpp:150] Setting up conv5_2_3x3/bn
I1019 17:33:30.693245  3535 net.cpp:157] Top shape: 1 512 18 18 (165888)
I1019 17:33:30.693262  3535 net.cpp:165] Memory required for data: 333351560
I1019 17:33:30.693279  3535 layer_factory.hpp:77] Creating layer conv5_2_3x3/relu
I1019 17:33:30.693295  3535 net.cpp:106] Creating Layer conv5_2_3x3/relu
I1019 17:33:30.693306  3535 net.cpp:454] conv5_2_3x3/relu <- conv5_2_3x3
I1019 17:33:30.693320  3535 net.cpp:397] conv5_2_3x3/relu -> conv5_2_3x3 (in-place)
I1019 17:33:30.693336  3535 net.cpp:150] Setting up conv5_2_3x3/relu
I1019 17:33:30.693349  3535 net.cpp:157] Top shape: 1 512 18 18 (165888)
I1019 17:33:30.693361  3535 net.cpp:165] Memory required for data: 334015112
I1019 17:33:30.693372  3535 layer_factory.hpp:77] Creating layer conv5_2_1x1_increase
I1019 17:33:30.693389  3535 net.cpp:106] Creating Layer conv5_2_1x1_increase
I1019 17:33:30.693400  3535 net.cpp:454] conv5_2_1x1_increase <- conv5_2_3x3
I1019 17:33:30.693418  3535 net.cpp:411] conv5_2_1x1_increase -> conv5_2_1x1_increase
I1019 17:33:30.702281  3535 net.cpp:150] Setting up conv5_2_1x1_increase
I1019 17:33:30.702316  3535 net.cpp:157] Top shape: 1 2048 18 18 (663552)
I1019 17:33:30.702328  3535 net.cpp:165] Memory required for data: 336669320
I1019 17:33:30.702384  3535 layer_factory.hpp:77] Creating layer conv5_2_1x1_increase/bn
I1019 17:33:30.702404  3535 net.cpp:106] Creating Layer conv5_2_1x1_increase/bn
I1019 17:33:30.702419  3535 net.cpp:454] conv5_2_1x1_increase/bn <- conv5_2_1x1_increase
I1019 17:33:30.702435  3535 net.cpp:397] conv5_2_1x1_increase/bn -> conv5_2_1x1_increase (in-place)
I1019 17:33:30.702653  3535 net.cpp:150] Setting up conv5_2_1x1_increase/bn
I1019 17:33:30.702668  3535 net.cpp:157] Top shape: 1 2048 18 18 (663552)
I1019 17:33:30.702680  3535 net.cpp:165] Memory required for data: 339323528
I1019 17:33:30.702697  3535 layer_factory.hpp:77] Creating layer conv5_2
I1019 17:33:30.702713  3535 net.cpp:106] Creating Layer conv5_2
I1019 17:33:30.702725  3535 net.cpp:454] conv5_2 <- conv5_1_conv5_1/relu_0_split_1
I1019 17:33:30.702739  3535 net.cpp:454] conv5_2 <- conv5_2_1x1_increase
I1019 17:33:30.702754  3535 net.cpp:411] conv5_2 -> conv5_2
I1019 17:33:30.702790  3535 net.cpp:150] Setting up conv5_2
I1019 17:33:30.702802  3535 net.cpp:157] Top shape: 1 2048 18 18 (663552)
I1019 17:33:30.702813  3535 net.cpp:165] Memory required for data: 341977736
I1019 17:33:30.702826  3535 layer_factory.hpp:77] Creating layer conv5_2/relu
I1019 17:33:30.702841  3535 net.cpp:106] Creating Layer conv5_2/relu
I1019 17:33:30.702852  3535 net.cpp:454] conv5_2/relu <- conv5_2
I1019 17:33:30.702865  3535 net.cpp:397] conv5_2/relu -> conv5_2 (in-place)
I1019 17:33:30.702880  3535 net.cpp:150] Setting up conv5_2/relu
I1019 17:33:30.702893  3535 net.cpp:157] Top shape: 1 2048 18 18 (663552)
I1019 17:33:30.702904  3535 net.cpp:165] Memory required for data: 344631944
I1019 17:33:30.702922  3535 layer_factory.hpp:77] Creating layer conv5_2_conv5_2/relu_0_split
I1019 17:33:30.702936  3535 net.cpp:106] Creating Layer conv5_2_conv5_2/relu_0_split
I1019 17:33:30.702949  3535 net.cpp:454] conv5_2_conv5_2/relu_0_split <- conv5_2
I1019 17:33:30.702963  3535 net.cpp:411] conv5_2_conv5_2/relu_0_split -> conv5_2_conv5_2/relu_0_split_0
I1019 17:33:30.702978  3535 net.cpp:411] conv5_2_conv5_2/relu_0_split -> conv5_2_conv5_2/relu_0_split_1
I1019 17:33:30.703027  3535 net.cpp:150] Setting up conv5_2_conv5_2/relu_0_split
I1019 17:33:30.703040  3535 net.cpp:157] Top shape: 1 2048 18 18 (663552)
I1019 17:33:30.703053  3535 net.cpp:157] Top shape: 1 2048 18 18 (663552)
I1019 17:33:30.703064  3535 net.cpp:165] Memory required for data: 349940360
I1019 17:33:30.703073  3535 layer_factory.hpp:77] Creating layer conv5_3_1x1_reduce
I1019 17:33:30.703085  3535 net.cpp:106] Creating Layer conv5_3_1x1_reduce
I1019 17:33:30.703094  3535 net.cpp:454] conv5_3_1x1_reduce <- conv5_2_conv5_2/relu_0_split_0
I1019 17:33:30.703104  3535 net.cpp:411] conv5_3_1x1_reduce -> conv5_3_1x1_reduce
I1019 17:33:30.711834  3535 net.cpp:150] Setting up conv5_3_1x1_reduce
I1019 17:33:30.711869  3535 net.cpp:157] Top shape: 1 512 18 18 (165888)
I1019 17:33:30.711887  3535 net.cpp:165] Memory required for data: 350603912
I1019 17:33:30.711899  3535 layer_factory.hpp:77] Creating layer conv5_3_1x1_reduce/bn
I1019 17:33:30.711915  3535 net.cpp:106] Creating Layer conv5_3_1x1_reduce/bn
I1019 17:33:30.711923  3535 net.cpp:454] conv5_3_1x1_reduce/bn <- conv5_3_1x1_reduce
I1019 17:33:30.711935  3535 net.cpp:397] conv5_3_1x1_reduce/bn -> conv5_3_1x1_reduce (in-place)
I1019 17:33:30.712128  3535 net.cpp:150] Setting up conv5_3_1x1_reduce/bn
I1019 17:33:30.712141  3535 net.cpp:157] Top shape: 1 512 18 18 (165888)
I1019 17:33:30.712147  3535 net.cpp:165] Memory required for data: 351267464
I1019 17:33:30.712158  3535 layer_factory.hpp:77] Creating layer conv5_3_1x1_reduce/relu
I1019 17:33:30.712168  3535 net.cpp:106] Creating Layer conv5_3_1x1_reduce/relu
I1019 17:33:30.712177  3535 net.cpp:454] conv5_3_1x1_reduce/relu <- conv5_3_1x1_reduce
I1019 17:33:30.712185  3535 net.cpp:397] conv5_3_1x1_reduce/relu -> conv5_3_1x1_reduce (in-place)
I1019 17:33:30.712195  3535 net.cpp:150] Setting up conv5_3_1x1_reduce/relu
I1019 17:33:30.712203  3535 net.cpp:157] Top shape: 1 512 18 18 (165888)
I1019 17:33:30.712210  3535 net.cpp:165] Memory required for data: 351931016
I1019 17:33:30.712218  3535 layer_factory.hpp:77] Creating layer conv5_3_3x3
I1019 17:33:30.712234  3535 net.cpp:106] Creating Layer conv5_3_3x3
I1019 17:33:30.712242  3535 net.cpp:454] conv5_3_3x3 <- conv5_3_1x1_reduce
I1019 17:33:30.712254  3535 net.cpp:411] conv5_3_3x3 -> conv5_3_3x3
I1019 17:33:30.732244  3535 net.cpp:150] Setting up conv5_3_3x3
I1019 17:33:30.732291  3535 net.cpp:157] Top shape: 1 512 18 18 (165888)
I1019 17:33:30.732305  3535 net.cpp:165] Memory required for data: 352594568
I1019 17:33:30.732322  3535 layer_factory.hpp:77] Creating layer conv5_3_3x3/bn
I1019 17:33:30.732345  3535 net.cpp:106] Creating Layer conv5_3_3x3/bn
I1019 17:33:30.732357  3535 net.cpp:454] conv5_3_3x3/bn <- conv5_3_3x3
I1019 17:33:30.732373  3535 net.cpp:397] conv5_3_3x3/bn -> conv5_3_3x3 (in-place)
I1019 17:33:30.732580  3535 net.cpp:150] Setting up conv5_3_3x3/bn
I1019 17:33:30.732595  3535 net.cpp:157] Top shape: 1 512 18 18 (165888)
I1019 17:33:30.732607  3535 net.cpp:165] Memory required for data: 353258120
I1019 17:33:30.732625  3535 layer_factory.hpp:77] Creating layer conv5_3_3x3/relu
I1019 17:33:30.732638  3535 net.cpp:106] Creating Layer conv5_3_3x3/relu
I1019 17:33:30.732651  3535 net.cpp:454] conv5_3_3x3/relu <- conv5_3_3x3
I1019 17:33:30.732664  3535 net.cpp:397] conv5_3_3x3/relu -> conv5_3_3x3 (in-place)
I1019 17:33:30.732681  3535 net.cpp:150] Setting up conv5_3_3x3/relu
I1019 17:33:30.732694  3535 net.cpp:157] Top shape: 1 512 18 18 (165888)
I1019 17:33:30.732705  3535 net.cpp:165] Memory required for data: 353921672
I1019 17:33:30.732717  3535 layer_factory.hpp:77] Creating layer conv5_3_1x1_increase
I1019 17:33:30.732733  3535 net.cpp:106] Creating Layer conv5_3_1x1_increase
I1019 17:33:30.732744  3535 net.cpp:454] conv5_3_1x1_increase <- conv5_3_3x3
I1019 17:33:30.732761  3535 net.cpp:411] conv5_3_1x1_increase -> conv5_3_1x1_increase
I1019 17:33:30.741621  3535 net.cpp:150] Setting up conv5_3_1x1_increase
I1019 17:33:30.741657  3535 net.cpp:157] Top shape: 1 2048 18 18 (663552)
I1019 17:33:30.741669  3535 net.cpp:165] Memory required for data: 356575880
I1019 17:33:30.741685  3535 layer_factory.hpp:77] Creating layer conv5_3_1x1_increase/bn
I1019 17:33:30.741706  3535 net.cpp:106] Creating Layer conv5_3_1x1_increase/bn
I1019 17:33:30.741719  3535 net.cpp:454] conv5_3_1x1_increase/bn <- conv5_3_1x1_increase
I1019 17:33:30.741734  3535 net.cpp:397] conv5_3_1x1_increase/bn -> conv5_3_1x1_increase (in-place)
I1019 17:33:30.741958  3535 net.cpp:150] Setting up conv5_3_1x1_increase/bn
I1019 17:33:30.741973  3535 net.cpp:157] Top shape: 1 2048 18 18 (663552)
I1019 17:33:30.741984  3535 net.cpp:165] Memory required for data: 359230088
I1019 17:33:30.742002  3535 layer_factory.hpp:77] Creating layer conv5_3
I1019 17:33:30.742017  3535 net.cpp:106] Creating Layer conv5_3
I1019 17:33:30.742035  3535 net.cpp:454] conv5_3 <- conv5_2_conv5_2/relu_0_split_1
I1019 17:33:30.742053  3535 net.cpp:454] conv5_3 <- conv5_3_1x1_increase
I1019 17:33:30.742069  3535 net.cpp:411] conv5_3 -> conv5_3
I1019 17:33:30.742105  3535 net.cpp:150] Setting up conv5_3
I1019 17:33:30.742118  3535 net.cpp:157] Top shape: 1 2048 18 18 (663552)
I1019 17:33:30.742130  3535 net.cpp:165] Memory required for data: 361884296
I1019 17:33:30.742141  3535 layer_factory.hpp:77] Creating layer conv5_3/relu
I1019 17:33:30.742156  3535 net.cpp:106] Creating Layer conv5_3/relu
I1019 17:33:30.742168  3535 net.cpp:454] conv5_3/relu <- conv5_3
I1019 17:33:30.742182  3535 net.cpp:397] conv5_3/relu -> conv5_3 (in-place)
I1019 17:33:30.742197  3535 net.cpp:150] Setting up conv5_3/relu
I1019 17:33:30.742210  3535 net.cpp:157] Top shape: 1 2048 18 18 (663552)
I1019 17:33:30.742221  3535 net.cpp:165] Memory required for data: 364538504
I1019 17:33:30.742233  3535 layer_factory.hpp:77] Creating layer conv5_3_conv5_3/relu_0_split
I1019 17:33:30.742249  3535 net.cpp:106] Creating Layer conv5_3_conv5_3/relu_0_split
I1019 17:33:30.742260  3535 net.cpp:454] conv5_3_conv5_3/relu_0_split <- conv5_3
I1019 17:33:30.742275  3535 net.cpp:411] conv5_3_conv5_3/relu_0_split -> conv5_3_conv5_3/relu_0_split_0
I1019 17:33:30.742292  3535 net.cpp:411] conv5_3_conv5_3/relu_0_split -> conv5_3_conv5_3/relu_0_split_1
I1019 17:33:30.742310  3535 net.cpp:411] conv5_3_conv5_3/relu_0_split -> conv5_3_conv5_3/relu_0_split_2
I1019 17:33:30.742324  3535 net.cpp:411] conv5_3_conv5_3/relu_0_split -> conv5_3_conv5_3/relu_0_split_3
I1019 17:33:30.742339  3535 net.cpp:411] conv5_3_conv5_3/relu_0_split -> conv5_3_conv5_3/relu_0_split_4
I1019 17:33:30.742418  3535 net.cpp:150] Setting up conv5_3_conv5_3/relu_0_split
I1019 17:33:30.742429  3535 net.cpp:157] Top shape: 1 2048 18 18 (663552)
I1019 17:33:30.742439  3535 net.cpp:157] Top shape: 1 2048 18 18 (663552)
I1019 17:33:30.742446  3535 net.cpp:157] Top shape: 1 2048 18 18 (663552)
I1019 17:33:30.742453  3535 net.cpp:157] Top shape: 1 2048 18 18 (663552)
I1019 17:33:30.742461  3535 net.cpp:157] Top shape: 1 2048 18 18 (663552)
I1019 17:33:30.742468  3535 net.cpp:165] Memory required for data: 377809544
I1019 17:33:30.742475  3535 layer_factory.hpp:77] Creating layer conv5_3_pool1
I1019 17:33:30.742486  3535 net.cpp:106] Creating Layer conv5_3_pool1
I1019 17:33:30.742493  3535 net.cpp:454] conv5_3_pool1 <- conv5_3_conv5_3/relu_0_split_0
I1019 17:33:30.742503  3535 net.cpp:411] conv5_3_pool1 -> conv5_3_pool1
I1019 17:33:30.742530  3535 net.cpp:150] Setting up conv5_3_pool1
I1019 17:33:30.742542  3535 net.cpp:157] Top shape: 1 2048 1 1 (2048)
I1019 17:33:30.742549  3535 net.cpp:165] Memory required for data: 377817736
I1019 17:33:30.742557  3535 layer_factory.hpp:77] Creating layer conv5_3_pool1_conv
I1019 17:33:30.742568  3535 net.cpp:106] Creating Layer conv5_3_pool1_conv
I1019 17:33:30.742576  3535 net.cpp:454] conv5_3_pool1_conv <- conv5_3_pool1
I1019 17:33:30.742586  3535 net.cpp:411] conv5_3_pool1_conv -> conv5_3_pool1_conv
I1019 17:33:30.752182  3535 net.cpp:150] Setting up conv5_3_pool1_conv
I1019 17:33:30.752228  3535 net.cpp:157] Top shape: 1 512 1 1 (512)
I1019 17:33:30.752241  3535 net.cpp:165] Memory required for data: 377819784
I1019 17:33:30.752259  3535 layer_factory.hpp:77] Creating layer conv5_3_pool1_conv/bn
I1019 17:33:30.752279  3535 net.cpp:106] Creating Layer conv5_3_pool1_conv/bn
I1019 17:33:30.752292  3535 net.cpp:454] conv5_3_pool1_conv/bn <- conv5_3_pool1_conv
I1019 17:33:30.752311  3535 net.cpp:397] conv5_3_pool1_conv/bn -> conv5_3_pool1_conv (in-place)
I1019 17:33:30.752524  3535 net.cpp:150] Setting up conv5_3_pool1_conv/bn
I1019 17:33:30.752540  3535 net.cpp:157] Top shape: 1 512 1 1 (512)
I1019 17:33:30.752552  3535 net.cpp:165] Memory required for data: 377821832
I1019 17:33:30.752568  3535 layer_factory.hpp:77] Creating layer conv5_3_pool1_conv/relu
I1019 17:33:30.752583  3535 net.cpp:106] Creating Layer conv5_3_pool1_conv/relu
I1019 17:33:30.752595  3535 net.cpp:454] conv5_3_pool1_conv/relu <- conv5_3_pool1_conv
I1019 17:33:30.752616  3535 net.cpp:397] conv5_3_pool1_conv/relu -> conv5_3_pool1_conv (in-place)
I1019 17:33:30.752656  3535 net.cpp:150] Setting up conv5_3_pool1_conv/relu
I1019 17:33:30.752701  3535 net.cpp:157] Top shape: 1 512 1 1 (512)
I1019 17:33:30.752712  3535 net.cpp:165] Memory required for data: 377823880
I1019 17:33:30.752737  3535 layer_factory.hpp:77] Creating layer conv5_3_pool1_interp
I1019 17:33:30.752769  3535 net.cpp:106] Creating Layer conv5_3_pool1_interp
I1019 17:33:30.752794  3535 net.cpp:454] conv5_3_pool1_interp <- conv5_3_pool1_conv
I1019 17:33:30.752827  3535 net.cpp:411] conv5_3_pool1_interp -> conv5_3_pool1_interp
I1019 17:33:30.752908  3535 net.cpp:150] Setting up conv5_3_pool1_interp
I1019 17:33:30.752941  3535 net.cpp:157] Top shape: 1 512 18 18 (165888)
I1019 17:33:30.752952  3535 net.cpp:165] Memory required for data: 378487432
I1019 17:33:30.752964  3535 layer_factory.hpp:77] Creating layer conv5_3_pool2
I1019 17:33:30.752995  3535 net.cpp:106] Creating Layer conv5_3_pool2
I1019 17:33:30.753024  3535 net.cpp:454] conv5_3_pool2 <- conv5_3_conv5_3/relu_0_split_1
I1019 17:33:30.753053  3535 net.cpp:411] conv5_3_pool2 -> conv5_3_pool2
I1019 17:33:30.753120  3535 net.cpp:150] Setting up conv5_3_pool2
I1019 17:33:30.753152  3535 net.cpp:157] Top shape: 1 2048 2 2 (8192)
I1019 17:33:30.753165  3535 net.cpp:165] Memory required for data: 378520200
I1019 17:33:30.753190  3535 layer_factory.hpp:77] Creating layer conv5_3_pool2_conv
I1019 17:33:30.753226  3535 net.cpp:106] Creating Layer conv5_3_pool2_conv
I1019 17:33:30.753238  3535 net.cpp:454] conv5_3_pool2_conv <- conv5_3_pool2
I1019 17:33:30.753257  3535 net.cpp:411] conv5_3_pool2_conv -> conv5_3_pool2_conv
I1019 17:33:30.762404  3535 net.cpp:150] Setting up conv5_3_pool2_conv
I1019 17:33:30.762441  3535 net.cpp:157] Top shape: 1 512 2 2 (2048)
I1019 17:33:30.762480  3535 net.cpp:165] Memory required for data: 378528392
I1019 17:33:30.762496  3535 layer_factory.hpp:77] Creating layer conv5_3_pool2_conv/bn
I1019 17:33:30.762527  3535 net.cpp:106] Creating Layer conv5_3_pool2_conv/bn
I1019 17:33:30.762563  3535 net.cpp:454] conv5_3_pool2_conv/bn <- conv5_3_pool2_conv
I1019 17:33:30.762581  3535 net.cpp:397] conv5_3_pool2_conv/bn -> conv5_3_pool2_conv (in-place)
I1019 17:33:30.762786  3535 net.cpp:150] Setting up conv5_3_pool2_conv/bn
I1019 17:33:30.762801  3535 net.cpp:157] Top shape: 1 512 2 2 (2048)
I1019 17:33:30.762814  3535 net.cpp:165] Memory required for data: 378536584
I1019 17:33:30.762830  3535 layer_factory.hpp:77] Creating layer conv5_3_pool2_conv/relu
I1019 17:33:30.762845  3535 net.cpp:106] Creating Layer conv5_3_pool2_conv/relu
I1019 17:33:30.762858  3535 net.cpp:454] conv5_3_pool2_conv/relu <- conv5_3_pool2_conv
I1019 17:33:30.762877  3535 net.cpp:397] conv5_3_pool2_conv/relu -> conv5_3_pool2_conv (in-place)
I1019 17:33:30.762894  3535 net.cpp:150] Setting up conv5_3_pool2_conv/relu
I1019 17:33:30.762907  3535 net.cpp:157] Top shape: 1 512 2 2 (2048)
I1019 17:33:30.762924  3535 net.cpp:165] Memory required for data: 378544776
I1019 17:33:30.762936  3535 layer_factory.hpp:77] Creating layer conv5_3_pool2_interp
I1019 17:33:30.762951  3535 net.cpp:106] Creating Layer conv5_3_pool2_interp
I1019 17:33:30.762960  3535 net.cpp:454] conv5_3_pool2_interp <- conv5_3_pool2_conv
I1019 17:33:30.762970  3535 net.cpp:411] conv5_3_pool2_interp -> conv5_3_pool2_interp
I1019 17:33:30.763001  3535 net.cpp:150] Setting up conv5_3_pool2_interp
I1019 17:33:30.763012  3535 net.cpp:157] Top shape: 1 512 18 18 (165888)
I1019 17:33:30.763020  3535 net.cpp:165] Memory required for data: 379208328
I1019 17:33:30.763027  3535 layer_factory.hpp:77] Creating layer conv5_3_pool3
I1019 17:33:30.763038  3535 net.cpp:106] Creating Layer conv5_3_pool3
I1019 17:33:30.763046  3535 net.cpp:454] conv5_3_pool3 <- conv5_3_conv5_3/relu_0_split_2
I1019 17:33:30.763057  3535 net.cpp:411] conv5_3_pool3 -> conv5_3_pool3
I1019 17:33:30.763087  3535 net.cpp:150] Setting up conv5_3_pool3
I1019 17:33:30.763097  3535 net.cpp:157] Top shape: 1 2048 3 3 (18432)
I1019 17:33:30.763109  3535 net.cpp:165] Memory required for data: 379282056
I1019 17:33:30.763123  3535 layer_factory.hpp:77] Creating layer conv5_3_pool3_conv
I1019 17:33:30.763136  3535 net.cpp:106] Creating Layer conv5_3_pool3_conv
I1019 17:33:30.763145  3535 net.cpp:454] conv5_3_pool3_conv <- conv5_3_pool3
I1019 17:33:30.763157  3535 net.cpp:411] conv5_3_pool3_conv -> conv5_3_pool3_conv
I1019 17:33:30.772248  3535 net.cpp:150] Setting up conv5_3_pool3_conv
I1019 17:33:30.772300  3535 net.cpp:157] Top shape: 1 512 3 3 (4608)
I1019 17:33:30.772312  3535 net.cpp:165] Memory required for data: 379300488
I1019 17:33:30.772336  3535 layer_factory.hpp:77] Creating layer conv5_3_pool3_conv/bn
I1019 17:33:30.772367  3535 net.cpp:106] Creating Layer conv5_3_pool3_conv/bn
I1019 17:33:30.772377  3535 net.cpp:454] conv5_3_pool3_conv/bn <- conv5_3_pool3_conv
I1019 17:33:30.772388  3535 net.cpp:397] conv5_3_pool3_conv/bn -> conv5_3_pool3_conv (in-place)
I1019 17:33:30.772598  3535 net.cpp:150] Setting up conv5_3_pool3_conv/bn
I1019 17:33:30.772627  3535 net.cpp:157] Top shape: 1 512 3 3 (4608)
I1019 17:33:30.772639  3535 net.cpp:165] Memory required for data: 379318920
I1019 17:33:30.772650  3535 layer_factory.hpp:77] Creating layer conv5_3_pool3_conv/relu
I1019 17:33:30.772673  3535 net.cpp:106] Creating Layer conv5_3_pool3_conv/relu
I1019 17:33:30.772680  3535 net.cpp:454] conv5_3_pool3_conv/relu <- conv5_3_pool3_conv
I1019 17:33:30.772689  3535 net.cpp:397] conv5_3_pool3_conv/relu -> conv5_3_pool3_conv (in-place)
I1019 17:33:30.772718  3535 net.cpp:150] Setting up conv5_3_pool3_conv/relu
I1019 17:33:30.772727  3535 net.cpp:157] Top shape: 1 512 3 3 (4608)
I1019 17:33:30.772747  3535 net.cpp:165] Memory required for data: 379337352
I1019 17:33:30.772753  3535 layer_factory.hpp:77] Creating layer conv5_3_pool3_interp
I1019 17:33:30.772763  3535 net.cpp:106] Creating Layer conv5_3_pool3_interp
I1019 17:33:30.772770  3535 net.cpp:454] conv5_3_pool3_interp <- conv5_3_pool3_conv
I1019 17:33:30.772799  3535 net.cpp:411] conv5_3_pool3_interp -> conv5_3_pool3_interp
I1019 17:33:30.772840  3535 net.cpp:150] Setting up conv5_3_pool3_interp
I1019 17:33:30.772851  3535 net.cpp:157] Top shape: 1 512 18 18 (165888)
I1019 17:33:30.772858  3535 net.cpp:165] Memory required for data: 380000904
I1019 17:33:30.772866  3535 layer_factory.hpp:77] Creating layer conv5_3_pool6
I1019 17:33:30.772876  3535 net.cpp:106] Creating Layer conv5_3_pool6
I1019 17:33:30.772883  3535 net.cpp:454] conv5_3_pool6 <- conv5_3_conv5_3/relu_0_split_3
I1019 17:33:30.772893  3535 net.cpp:411] conv5_3_pool6 -> conv5_3_pool6
I1019 17:33:30.772922  3535 net.cpp:150] Setting up conv5_3_pool6
I1019 17:33:30.772933  3535 net.cpp:157] Top shape: 1 2048 6 6 (73728)
I1019 17:33:30.772940  3535 net.cpp:165] Memory required for data: 380295816
I1019 17:33:30.772948  3535 layer_factory.hpp:77] Creating layer conv5_3_pool6_conv
I1019 17:33:30.772960  3535 net.cpp:106] Creating Layer conv5_3_pool6_conv
I1019 17:33:30.772969  3535 net.cpp:454] conv5_3_pool6_conv <- conv5_3_pool6
I1019 17:33:30.772979  3535 net.cpp:411] conv5_3_pool6_conv -> conv5_3_pool6_conv
I1019 17:33:30.782425  3535 net.cpp:150] Setting up conv5_3_pool6_conv
I1019 17:33:30.782469  3535 net.cpp:157] Top shape: 1 512 6 6 (18432)
I1019 17:33:30.782482  3535 net.cpp:165] Memory required for data: 380369544
I1019 17:33:30.782500  3535 layer_factory.hpp:77] Creating layer conv5_3_pool6_conv/bn
I1019 17:33:30.782522  3535 net.cpp:106] Creating Layer conv5_3_pool6_conv/bn
I1019 17:33:30.782536  3535 net.cpp:454] conv5_3_pool6_conv/bn <- conv5_3_pool6_conv
I1019 17:33:30.782552  3535 net.cpp:397] conv5_3_pool6_conv/bn -> conv5_3_pool6_conv (in-place)
I1019 17:33:30.782765  3535 net.cpp:150] Setting up conv5_3_pool6_conv/bn
I1019 17:33:30.782780  3535 net.cpp:157] Top shape: 1 512 6 6 (18432)
I1019 17:33:30.782793  3535 net.cpp:165] Memory required for data: 380443272
I1019 17:33:30.782809  3535 layer_factory.hpp:77] Creating layer conv5_3_pool6_conv/relu
I1019 17:33:30.782824  3535 net.cpp:106] Creating Layer conv5_3_pool6_conv/relu
I1019 17:33:30.782843  3535 net.cpp:454] conv5_3_pool6_conv/relu <- conv5_3_pool6_conv
I1019 17:33:30.782862  3535 net.cpp:397] conv5_3_pool6_conv/relu -> conv5_3_pool6_conv (in-place)
I1019 17:33:30.782878  3535 net.cpp:150] Setting up conv5_3_pool6_conv/relu
I1019 17:33:30.782891  3535 net.cpp:157] Top shape: 1 512 6 6 (18432)
I1019 17:33:30.782902  3535 net.cpp:165] Memory required for data: 380517000
I1019 17:33:30.782919  3535 layer_factory.hpp:77] Creating layer conv5_3_pool6_interp
I1019 17:33:30.782934  3535 net.cpp:106] Creating Layer conv5_3_pool6_interp
I1019 17:33:30.782948  3535 net.cpp:454] conv5_3_pool6_interp <- conv5_3_pool6_conv
I1019 17:33:30.782963  3535 net.cpp:411] conv5_3_pool6_interp -> conv5_3_pool6_interp
I1019 17:33:30.783001  3535 net.cpp:150] Setting up conv5_3_pool6_interp
I1019 17:33:30.783017  3535 net.cpp:157] Top shape: 1 512 18 18 (165888)
I1019 17:33:30.783030  3535 net.cpp:165] Memory required for data: 381180552
I1019 17:33:30.783041  3535 layer_factory.hpp:77] Creating layer conv5_3_concat
I1019 17:33:30.783056  3535 net.cpp:106] Creating Layer conv5_3_concat
I1019 17:33:30.783067  3535 net.cpp:454] conv5_3_concat <- conv5_3_conv5_3/relu_0_split_4
I1019 17:33:30.783080  3535 net.cpp:454] conv5_3_concat <- conv5_3_pool6_interp
I1019 17:33:30.783093  3535 net.cpp:454] conv5_3_concat <- conv5_3_pool3_interp
I1019 17:33:30.783107  3535 net.cpp:454] conv5_3_concat <- conv5_3_pool2_interp
I1019 17:33:30.783118  3535 net.cpp:454] conv5_3_concat <- conv5_3_pool1_interp
I1019 17:33:30.783133  3535 net.cpp:411] conv5_3_concat -> conv5_3_concat
I1019 17:33:30.783170  3535 net.cpp:150] Setting up conv5_3_concat
I1019 17:33:30.783183  3535 net.cpp:157] Top shape: 1 4096 18 18 (1327104)
I1019 17:33:30.783195  3535 net.cpp:165] Memory required for data: 386488968
I1019 17:33:30.783206  3535 layer_factory.hpp:77] Creating layer conv5_4
I1019 17:33:30.783224  3535 net.cpp:106] Creating Layer conv5_4
I1019 17:33:30.783236  3535 net.cpp:454] conv5_4 <- conv5_3_concat
I1019 17:33:30.783251  3535 net.cpp:411] conv5_4 -> conv5_4
I1019 17:33:30.934298  3535 net.cpp:150] Setting up conv5_4
I1019 17:33:30.934345  3535 net.cpp:157] Top shape: 1 512 18 18 (165888)
I1019 17:33:30.934360  3535 net.cpp:165] Memory required for data: 387152520
I1019 17:33:30.934377  3535 layer_factory.hpp:77] Creating layer conv5_4/bn
I1019 17:33:30.934396  3535 net.cpp:106] Creating Layer conv5_4/bn
I1019 17:33:30.934411  3535 net.cpp:454] conv5_4/bn <- conv5_4
I1019 17:33:30.934427  3535 net.cpp:397] conv5_4/bn -> conv5_4 (in-place)
I1019 17:33:30.934631  3535 net.cpp:150] Setting up conv5_4/bn
I1019 17:33:30.934648  3535 net.cpp:157] Top shape: 1 512 18 18 (165888)
I1019 17:33:30.934659  3535 net.cpp:165] Memory required for data: 387816072
I1019 17:33:30.934675  3535 layer_factory.hpp:77] Creating layer conv5_4/relu
I1019 17:33:30.934689  3535 net.cpp:106] Creating Layer conv5_4/relu
I1019 17:33:30.934701  3535 net.cpp:454] conv5_4/relu <- conv5_4
I1019 17:33:30.934716  3535 net.cpp:397] conv5_4/relu -> conv5_4 (in-place)
I1019 17:33:30.934731  3535 net.cpp:150] Setting up conv5_4/relu
I1019 17:33:30.934746  3535 net.cpp:157] Top shape: 1 512 18 18 (165888)
I1019 17:33:30.934756  3535 net.cpp:165] Memory required for data: 388479624
I1019 17:33:30.934767  3535 layer_factory.hpp:77] Creating layer conv5_4/dropout
I1019 17:33:30.934801  3535 net.cpp:106] Creating Layer conv5_4/dropout
I1019 17:33:30.934813  3535 net.cpp:454] conv5_4/dropout <- conv5_4
I1019 17:33:30.934839  3535 net.cpp:397] conv5_4/dropout -> conv5_4 (in-place)
I1019 17:33:30.934931  3535 net.cpp:150] Setting up conv5_4/dropout
I1019 17:33:30.934959  3535 net.cpp:157] Top shape: 1 512 18 18 (165888)
I1019 17:33:30.934989  3535 net.cpp:165] Memory required for data: 389143176
I1019 17:33:30.935014  3535 layer_factory.hpp:77] Creating layer conv6
I1019 17:33:30.935051  3535 net.cpp:106] Creating Layer conv6
I1019 17:33:30.935062  3535 net.cpp:454] conv6 <- conv5_4
I1019 17:33:30.935111  3535 net.cpp:411] conv6 -> conv6
I1019 17:33:30.935425  3535 net.cpp:150] Setting up conv6
I1019 17:33:30.935467  3535 net.cpp:157] Top shape: 1 21 18 18 (6804)
I1019 17:33:30.935499  3535 net.cpp:165] Memory required for data: 389170392
I1019 17:33:30.935514  3535 layer_factory.hpp:77] Creating layer conv6_interp
I1019 17:33:30.935556  3535 net.cpp:106] Creating Layer conv6_interp
I1019 17:33:30.935581  3535 net.cpp:454] conv6_interp <- conv6
I1019 17:33:30.935614  3535 net.cpp:411] conv6_interp -> conv6_interp
I1019 17:33:30.935663  3535 net.cpp:150] Setting up conv6_interp
I1019 17:33:30.935676  3535 net.cpp:157] Top shape: 1 21 137 137 (394149)
I1019 17:33:30.935683  3535 net.cpp:165] Memory required for data: 390746988
I1019 17:33:30.935689  3535 layer_factory.hpp:77] Creating layer loss
I1019 17:33:30.935698  3535 net.cpp:106] Creating Layer loss
I1019 17:33:30.935706  3535 net.cpp:454] loss <- conv6_interp
I1019 17:33:30.935717  3535 net.cpp:454] loss <- label_data_1_split_1
I1019 17:33:30.935760  3535 net.cpp:411] loss -> loss
…
